ir_version: 2
producer_name: "pytorch"
producer_version: "0.3"
graph {
  node {
    input: "0"
    input: "1"
    output: "728"
    op_type: "Conv"
    attribute {
      name: "dilations"
      ints: 1
      ints: 1
      type: INTS
    }
    attribute {
      name: "group"
      i: 1
      type: INT
    }
    attribute {
      name: "kernel_shape"
      ints: 7
      ints: 7
      type: INTS
    }
    attribute {
      name: "pads"
      ints: 3
      ints: 3
      ints: 3
      ints: 3
      type: INTS
    }
    attribute {
      name: "strides"
      ints: 2
      ints: 2
      type: INTS
    }
  }
  node {
    input: "728"
    input: "2"
    input: "3"
    input: "4"
    input: "5"
    output: "729"
    op_type: "BatchNormalization"
    attribute {
      name: "consumed_inputs"
      ints: 0
      ints: 0
      ints: 0
      ints: 1
      ints: 1
      type: INTS
    }
    attribute {
      name: "epsilon"
      f: 9.99999974737875e-06
      type: FLOAT
    }
    attribute {
      name: "is_test"
      i: 1
      type: INT
    }
    attribute {
      name: "momentum"
      f: 1
      type: FLOAT
    }
  }
  node {
    input: "729"
    output: "730"
    op_type: "Relu"
  }
  node {
    input: "730"
    output: "731"
    op_type: "MaxPool"
    attribute {
      name: "kernel_shape"
      ints: 3
      ints: 3
      type: INTS
    }
    attribute {
      name: "pads"
      ints: 1
      ints: 1
      ints: 1
      ints: 1
      type: INTS
    }
    attribute {
      name: "strides"
      ints: 2
      ints: 2
      type: INTS
    }
  }
  node {
    input: "731"
    input: "7"
    input: "8"
    input: "9"
    input: "10"
    output: "732"
    op_type: "BatchNormalization"
    attribute {
      name: "consumed_inputs"
      ints: 0
      ints: 0
      ints: 0
      ints: 1
      ints: 1
      type: INTS
    }
    attribute {
      name: "epsilon"
      f: 9.99999974737875e-06
      type: FLOAT
    }
    attribute {
      name: "is_test"
      i: 1
      type: INT
    }
    attribute {
      name: "momentum"
      f: 1
      type: FLOAT
    }
  }
  node {
    input: "732"
    output: "733"
    op_type: "Relu"
  }
  node {
    input: "733"
    input: "12"
    output: "734"
    op_type: "Conv"
    attribute {
      name: "dilations"
      ints: 1
      ints: 1
      type: INTS
    }
    attribute {
      name: "group"
      i: 1
      type: INT
    }
    attribute {
      name: "kernel_shape"
      ints: 1
      ints: 1
      type: INTS
    }
    attribute {
      name: "pads"
      ints: 0
      ints: 0
      ints: 0
      ints: 0
      type: INTS
    }
    attribute {
      name: "strides"
      ints: 1
      ints: 1
      type: INTS
    }
  }
  node {
    input: "734"
    input: "13"
    input: "14"
    input: "15"
    input: "16"
    output: "735"
    op_type: "BatchNormalization"
    attribute {
      name: "consumed_inputs"
      ints: 0
      ints: 0
      ints: 0
      ints: 1
      ints: 1
      type: INTS
    }
    attribute {
      name: "epsilon"
      f: 9.99999974737875e-06
      type: FLOAT
    }
    attribute {
      name: "is_test"
      i: 1
      type: INT
    }
    attribute {
      name: "momentum"
      f: 1
      type: FLOAT
    }
  }
  node {
    input: "735"
    output: "736"
    op_type: "Relu"
  }
  node {
    input: "736"
    input: "18"
    output: "737"
    op_type: "Conv"
    attribute {
      name: "dilations"
      ints: 1
      ints: 1
      type: INTS
    }
    attribute {
      name: "group"
      i: 1
      type: INT
    }
    attribute {
      name: "kernel_shape"
      ints: 3
      ints: 3
      type: INTS
    }
    attribute {
      name: "pads"
      ints: 1
      ints: 1
      ints: 1
      ints: 1
      type: INTS
    }
    attribute {
      name: "strides"
      ints: 1
      ints: 1
      type: INTS
    }
  }
  node {
    input: "731"
    input: "737"
    output: "738"
    op_type: "Concat"
    attribute {
      name: "axis"
      i: 1
      type: INT
    }
  }
  node {
    input: "738"
    input: "19"
    input: "20"
    input: "21"
    input: "22"
    output: "739"
    op_type: "BatchNormalization"
    attribute {
      name: "consumed_inputs"
      ints: 0
      ints: 0
      ints: 0
      ints: 1
      ints: 1
      type: INTS
    }
    attribute {
      name: "epsilon"
      f: 9.99999974737875e-06
      type: FLOAT
    }
    attribute {
      name: "is_test"
      i: 1
      type: INT
    }
    attribute {
      name: "momentum"
      f: 1
      type: FLOAT
    }
  }
  node {
    input: "739"
    output: "740"
    op_type: "Relu"
  }
  node {
    input: "740"
    input: "24"
    output: "741"
    op_type: "Conv"
    attribute {
      name: "dilations"
      ints: 1
      ints: 1
      type: INTS
    }
    attribute {
      name: "group"
      i: 1
      type: INT
    }
    attribute {
      name: "kernel_shape"
      ints: 1
      ints: 1
      type: INTS
    }
    attribute {
      name: "pads"
      ints: 0
      ints: 0
      ints: 0
      ints: 0
      type: INTS
    }
    attribute {
      name: "strides"
      ints: 1
      ints: 1
      type: INTS
    }
  }
  node {
    input: "741"
    input: "25"
    input: "26"
    input: "27"
    input: "28"
    output: "742"
    op_type: "BatchNormalization"
    attribute {
      name: "consumed_inputs"
      ints: 0
      ints: 0
      ints: 0
      ints: 1
      ints: 1
      type: INTS
    }
    attribute {
      name: "epsilon"
      f: 9.99999974737875e-06
      type: FLOAT
    }
    attribute {
      name: "is_test"
      i: 1
      type: INT
    }
    attribute {
      name: "momentum"
      f: 1
      type: FLOAT
    }
  }
  node {
    input: "742"
    output: "743"
    op_type: "Relu"
  }
  node {
    input: "743"
    input: "30"
    output: "744"
    op_type: "Conv"
    attribute {
      name: "dilations"
      ints: 1
      ints: 1
      type: INTS
    }
    attribute {
      name: "group"
      i: 1
      type: INT
    }
    attribute {
      name: "kernel_shape"
      ints: 3
      ints: 3
      type: INTS
    }
    attribute {
      name: "pads"
      ints: 1
      ints: 1
      ints: 1
      ints: 1
      type: INTS
    }
    attribute {
      name: "strides"
      ints: 1
      ints: 1
      type: INTS
    }
  }
  node {
    input: "738"
    input: "744"
    output: "745"
    op_type: "Concat"
    attribute {
      name: "axis"
      i: 1
      type: INT
    }
  }
  node {
    input: "745"
    input: "31"
    input: "32"
    input: "33"
    input: "34"
    output: "746"
    op_type: "BatchNormalization"
    attribute {
      name: "consumed_inputs"
      ints: 0
      ints: 0
      ints: 0
      ints: 1
      ints: 1
      type: INTS
    }
    attribute {
      name: "epsilon"
      f: 9.99999974737875e-06
      type: FLOAT
    }
    attribute {
      name: "is_test"
      i: 1
      type: INT
    }
    attribute {
      name: "momentum"
      f: 1
      type: FLOAT
    }
  }
  node {
    input: "746"
    output: "747"
    op_type: "Relu"
  }
  node {
    input: "747"
    input: "36"
    output: "748"
    op_type: "Conv"
    attribute {
      name: "dilations"
      ints: 1
      ints: 1
      type: INTS
    }
    attribute {
      name: "group"
      i: 1
      type: INT
    }
    attribute {
      name: "kernel_shape"
      ints: 1
      ints: 1
      type: INTS
    }
    attribute {
      name: "pads"
      ints: 0
      ints: 0
      ints: 0
      ints: 0
      type: INTS
    }
    attribute {
      name: "strides"
      ints: 1
      ints: 1
      type: INTS
    }
  }
  node {
    input: "748"
    input: "37"
    input: "38"
    input: "39"
    input: "40"
    output: "749"
    op_type: "BatchNormalization"
    attribute {
      name: "consumed_inputs"
      ints: 0
      ints: 0
      ints: 0
      ints: 1
      ints: 1
      type: INTS
    }
    attribute {
      name: "epsilon"
      f: 9.99999974737875e-06
      type: FLOAT
    }
    attribute {
      name: "is_test"
      i: 1
      type: INT
    }
    attribute {
      name: "momentum"
      f: 1
      type: FLOAT
    }
  }
  node {
    input: "749"
    output: "750"
    op_type: "Relu"
  }
  node {
    input: "750"
    input: "42"
    output: "751"
    op_type: "Conv"
    attribute {
      name: "dilations"
      ints: 1
      ints: 1
      type: INTS
    }
    attribute {
      name: "group"
      i: 1
      type: INT
    }
    attribute {
      name: "kernel_shape"
      ints: 3
      ints: 3
      type: INTS
    }
    attribute {
      name: "pads"
      ints: 1
      ints: 1
      ints: 1
      ints: 1
      type: INTS
    }
    attribute {
      name: "strides"
      ints: 1
      ints: 1
      type: INTS
    }
  }
  node {
    input: "745"
    input: "751"
    output: "752"
    op_type: "Concat"
    attribute {
      name: "axis"
      i: 1
      type: INT
    }
  }
  node {
    input: "752"
    input: "43"
    input: "44"
    input: "45"
    input: "46"
    output: "753"
    op_type: "BatchNormalization"
    attribute {
      name: "consumed_inputs"
      ints: 0
      ints: 0
      ints: 0
      ints: 1
      ints: 1
      type: INTS
    }
    attribute {
      name: "epsilon"
      f: 9.99999974737875e-06
      type: FLOAT
    }
    attribute {
      name: "is_test"
      i: 1
      type: INT
    }
    attribute {
      name: "momentum"
      f: 1
      type: FLOAT
    }
  }
  node {
    input: "753"
    output: "754"
    op_type: "Relu"
  }
  node {
    input: "754"
    input: "48"
    output: "755"
    op_type: "Conv"
    attribute {
      name: "dilations"
      ints: 1
      ints: 1
      type: INTS
    }
    attribute {
      name: "group"
      i: 1
      type: INT
    }
    attribute {
      name: "kernel_shape"
      ints: 1
      ints: 1
      type: INTS
    }
    attribute {
      name: "pads"
      ints: 0
      ints: 0
      ints: 0
      ints: 0
      type: INTS
    }
    attribute {
      name: "strides"
      ints: 1
      ints: 1
      type: INTS
    }
  }
  node {
    input: "755"
    input: "49"
    input: "50"
    input: "51"
    input: "52"
    output: "756"
    op_type: "BatchNormalization"
    attribute {
      name: "consumed_inputs"
      ints: 0
      ints: 0
      ints: 0
      ints: 1
      ints: 1
      type: INTS
    }
    attribute {
      name: "epsilon"
      f: 9.99999974737875e-06
      type: FLOAT
    }
    attribute {
      name: "is_test"
      i: 1
      type: INT
    }
    attribute {
      name: "momentum"
      f: 1
      type: FLOAT
    }
  }
  node {
    input: "756"
    output: "757"
    op_type: "Relu"
  }
  node {
    input: "757"
    input: "54"
    output: "758"
    op_type: "Conv"
    attribute {
      name: "dilations"
      ints: 1
      ints: 1
      type: INTS
    }
    attribute {
      name: "group"
      i: 1
      type: INT
    }
    attribute {
      name: "kernel_shape"
      ints: 3
      ints: 3
      type: INTS
    }
    attribute {
      name: "pads"
      ints: 1
      ints: 1
      ints: 1
      ints: 1
      type: INTS
    }
    attribute {
      name: "strides"
      ints: 1
      ints: 1
      type: INTS
    }
  }
  node {
    input: "752"
    input: "758"
    output: "759"
    op_type: "Concat"
    attribute {
      name: "axis"
      i: 1
      type: INT
    }
  }
  node {
    input: "759"
    input: "55"
    input: "56"
    input: "57"
    input: "58"
    output: "760"
    op_type: "BatchNormalization"
    attribute {
      name: "consumed_inputs"
      ints: 0
      ints: 0
      ints: 0
      ints: 1
      ints: 1
      type: INTS
    }
    attribute {
      name: "epsilon"
      f: 9.99999974737875e-06
      type: FLOAT
    }
    attribute {
      name: "is_test"
      i: 1
      type: INT
    }
    attribute {
      name: "momentum"
      f: 1
      type: FLOAT
    }
  }
  node {
    input: "760"
    output: "761"
    op_type: "Relu"
  }
  node {
    input: "761"
    input: "60"
    output: "762"
    op_type: "Conv"
    attribute {
      name: "dilations"
      ints: 1
      ints: 1
      type: INTS
    }
    attribute {
      name: "group"
      i: 1
      type: INT
    }
    attribute {
      name: "kernel_shape"
      ints: 1
      ints: 1
      type: INTS
    }
    attribute {
      name: "pads"
      ints: 0
      ints: 0
      ints: 0
      ints: 0
      type: INTS
    }
    attribute {
      name: "strides"
      ints: 1
      ints: 1
      type: INTS
    }
  }
  node {
    input: "762"
    input: "61"
    input: "62"
    input: "63"
    input: "64"
    output: "763"
    op_type: "BatchNormalization"
    attribute {
      name: "consumed_inputs"
      ints: 0
      ints: 0
      ints: 0
      ints: 1
      ints: 1
      type: INTS
    }
    attribute {
      name: "epsilon"
      f: 9.99999974737875e-06
      type: FLOAT
    }
    attribute {
      name: "is_test"
      i: 1
      type: INT
    }
    attribute {
      name: "momentum"
      f: 1
      type: FLOAT
    }
  }
  node {
    input: "763"
    output: "764"
    op_type: "Relu"
  }
  node {
    input: "764"
    input: "66"
    output: "765"
    op_type: "Conv"
    attribute {
      name: "dilations"
      ints: 1
      ints: 1
      type: INTS
    }
    attribute {
      name: "group"
      i: 1
      type: INT
    }
    attribute {
      name: "kernel_shape"
      ints: 3
      ints: 3
      type: INTS
    }
    attribute {
      name: "pads"
      ints: 1
      ints: 1
      ints: 1
      ints: 1
      type: INTS
    }
    attribute {
      name: "strides"
      ints: 1
      ints: 1
      type: INTS
    }
  }
  node {
    input: "759"
    input: "765"
    output: "766"
    op_type: "Concat"
    attribute {
      name: "axis"
      i: 1
      type: INT
    }
  }
  node {
    input: "766"
    input: "67"
    input: "68"
    input: "69"
    input: "70"
    output: "767"
    op_type: "BatchNormalization"
    attribute {
      name: "consumed_inputs"
      ints: 0
      ints: 0
      ints: 0
      ints: 1
      ints: 1
      type: INTS
    }
    attribute {
      name: "epsilon"
      f: 9.99999974737875e-06
      type: FLOAT
    }
    attribute {
      name: "is_test"
      i: 1
      type: INT
    }
    attribute {
      name: "momentum"
      f: 1
      type: FLOAT
    }
  }
  node {
    input: "767"
    output: "768"
    op_type: "Relu"
  }
  node {
    input: "768"
    input: "72"
    output: "769"
    op_type: "Conv"
    attribute {
      name: "dilations"
      ints: 1
      ints: 1
      type: INTS
    }
    attribute {
      name: "group"
      i: 1
      type: INT
    }
    attribute {
      name: "kernel_shape"
      ints: 1
      ints: 1
      type: INTS
    }
    attribute {
      name: "pads"
      ints: 0
      ints: 0
      ints: 0
      ints: 0
      type: INTS
    }
    attribute {
      name: "strides"
      ints: 1
      ints: 1
      type: INTS
    }
  }
  node {
    input: "769"
    input: "73"
    input: "74"
    input: "75"
    input: "76"
    output: "770"
    op_type: "BatchNormalization"
    attribute {
      name: "consumed_inputs"
      ints: 0
      ints: 0
      ints: 0
      ints: 1
      ints: 1
      type: INTS
    }
    attribute {
      name: "epsilon"
      f: 9.99999974737875e-06
      type: FLOAT
    }
    attribute {
      name: "is_test"
      i: 1
      type: INT
    }
    attribute {
      name: "momentum"
      f: 1
      type: FLOAT
    }
  }
  node {
    input: "770"
    output: "771"
    op_type: "Relu"
  }
  node {
    input: "771"
    input: "78"
    output: "772"
    op_type: "Conv"
    attribute {
      name: "dilations"
      ints: 1
      ints: 1
      type: INTS
    }
    attribute {
      name: "group"
      i: 1
      type: INT
    }
    attribute {
      name: "kernel_shape"
      ints: 3
      ints: 3
      type: INTS
    }
    attribute {
      name: "pads"
      ints: 1
      ints: 1
      ints: 1
      ints: 1
      type: INTS
    }
    attribute {
      name: "strides"
      ints: 1
      ints: 1
      type: INTS
    }
  }
  node {
    input: "766"
    input: "772"
    output: "773"
    op_type: "Concat"
    attribute {
      name: "axis"
      i: 1
      type: INT
    }
  }
  node {
    input: "773"
    input: "79"
    input: "80"
    input: "81"
    input: "82"
    output: "774"
    op_type: "BatchNormalization"
    attribute {
      name: "consumed_inputs"
      ints: 0
      ints: 0
      ints: 0
      ints: 1
      ints: 1
      type: INTS
    }
    attribute {
      name: "epsilon"
      f: 9.99999974737875e-06
      type: FLOAT
    }
    attribute {
      name: "is_test"
      i: 1
      type: INT
    }
    attribute {
      name: "momentum"
      f: 1
      type: FLOAT
    }
  }
  node {
    input: "774"
    output: "775"
    op_type: "Relu"
  }
  node {
    input: "775"
    input: "84"
    output: "776"
    op_type: "Conv"
    attribute {
      name: "dilations"
      ints: 1
      ints: 1
      type: INTS
    }
    attribute {
      name: "group"
      i: 1
      type: INT
    }
    attribute {
      name: "kernel_shape"
      ints: 1
      ints: 1
      type: INTS
    }
    attribute {
      name: "pads"
      ints: 0
      ints: 0
      ints: 0
      ints: 0
      type: INTS
    }
    attribute {
      name: "strides"
      ints: 1
      ints: 1
      type: INTS
    }
  }
  node {
    input: "776"
    output: "777"
    op_type: "AveragePool"
    attribute {
      name: "kernel_shape"
      ints: 2
      ints: 2
      type: INTS
    }
    attribute {
      name: "pads"
      ints: 0
      ints: 0
      ints: 0
      ints: 0
      type: INTS
    }
    attribute {
      name: "strides"
      ints: 2
      ints: 2
      type: INTS
    }
  }
  node {
    input: "777"
    input: "85"
    input: "86"
    input: "87"
    input: "88"
    output: "778"
    op_type: "BatchNormalization"
    attribute {
      name: "consumed_inputs"
      ints: 0
      ints: 0
      ints: 0
      ints: 1
      ints: 1
      type: INTS
    }
    attribute {
      name: "epsilon"
      f: 9.99999974737875e-06
      type: FLOAT
    }
    attribute {
      name: "is_test"
      i: 1
      type: INT
    }
    attribute {
      name: "momentum"
      f: 1
      type: FLOAT
    }
  }
  node {
    input: "778"
    output: "779"
    op_type: "Relu"
  }
  node {
    input: "779"
    input: "90"
    output: "780"
    op_type: "Conv"
    attribute {
      name: "dilations"
      ints: 1
      ints: 1
      type: INTS
    }
    attribute {
      name: "group"
      i: 1
      type: INT
    }
    attribute {
      name: "kernel_shape"
      ints: 1
      ints: 1
      type: INTS
    }
    attribute {
      name: "pads"
      ints: 0
      ints: 0
      ints: 0
      ints: 0
      type: INTS
    }
    attribute {
      name: "strides"
      ints: 1
      ints: 1
      type: INTS
    }
  }
  node {
    input: "780"
    input: "91"
    input: "92"
    input: "93"
    input: "94"
    output: "781"
    op_type: "BatchNormalization"
    attribute {
      name: "consumed_inputs"
      ints: 0
      ints: 0
      ints: 0
      ints: 1
      ints: 1
      type: INTS
    }
    attribute {
      name: "epsilon"
      f: 9.99999974737875e-06
      type: FLOAT
    }
    attribute {
      name: "is_test"
      i: 1
      type: INT
    }
    attribute {
      name: "momentum"
      f: 1
      type: FLOAT
    }
  }
  node {
    input: "781"
    output: "782"
    op_type: "Relu"
  }
  node {
    input: "782"
    input: "96"
    output: "783"
    op_type: "Conv"
    attribute {
      name: "dilations"
      ints: 1
      ints: 1
      type: INTS
    }
    attribute {
      name: "group"
      i: 1
      type: INT
    }
    attribute {
      name: "kernel_shape"
      ints: 3
      ints: 3
      type: INTS
    }
    attribute {
      name: "pads"
      ints: 1
      ints: 1
      ints: 1
      ints: 1
      type: INTS
    }
    attribute {
      name: "strides"
      ints: 1
      ints: 1
      type: INTS
    }
  }
  node {
    input: "777"
    input: "783"
    output: "784"
    op_type: "Concat"
    attribute {
      name: "axis"
      i: 1
      type: INT
    }
  }
  node {
    input: "784"
    input: "97"
    input: "98"
    input: "99"
    input: "100"
    output: "785"
    op_type: "BatchNormalization"
    attribute {
      name: "consumed_inputs"
      ints: 0
      ints: 0
      ints: 0
      ints: 1
      ints: 1
      type: INTS
    }
    attribute {
      name: "epsilon"
      f: 9.99999974737875e-06
      type: FLOAT
    }
    attribute {
      name: "is_test"
      i: 1
      type: INT
    }
    attribute {
      name: "momentum"
      f: 1
      type: FLOAT
    }
  }
  node {
    input: "785"
    output: "786"
    op_type: "Relu"
  }
  node {
    input: "786"
    input: "102"
    output: "787"
    op_type: "Conv"
    attribute {
      name: "dilations"
      ints: 1
      ints: 1
      type: INTS
    }
    attribute {
      name: "group"
      i: 1
      type: INT
    }
    attribute {
      name: "kernel_shape"
      ints: 1
      ints: 1
      type: INTS
    }
    attribute {
      name: "pads"
      ints: 0
      ints: 0
      ints: 0
      ints: 0
      type: INTS
    }
    attribute {
      name: "strides"
      ints: 1
      ints: 1
      type: INTS
    }
  }
  node {
    input: "787"
    input: "103"
    input: "104"
    input: "105"
    input: "106"
    output: "788"
    op_type: "BatchNormalization"
    attribute {
      name: "consumed_inputs"
      ints: 0
      ints: 0
      ints: 0
      ints: 1
      ints: 1
      type: INTS
    }
    attribute {
      name: "epsilon"
      f: 9.99999974737875e-06
      type: FLOAT
    }
    attribute {
      name: "is_test"
      i: 1
      type: INT
    }
    attribute {
      name: "momentum"
      f: 1
      type: FLOAT
    }
  }
  node {
    input: "788"
    output: "789"
    op_type: "Relu"
  }
  node {
    input: "789"
    input: "108"
    output: "790"
    op_type: "Conv"
    attribute {
      name: "dilations"
      ints: 1
      ints: 1
      type: INTS
    }
    attribute {
      name: "group"
      i: 1
      type: INT
    }
    attribute {
      name: "kernel_shape"
      ints: 3
      ints: 3
      type: INTS
    }
    attribute {
      name: "pads"
      ints: 1
      ints: 1
      ints: 1
      ints: 1
      type: INTS
    }
    attribute {
      name: "strides"
      ints: 1
      ints: 1
      type: INTS
    }
  }
  node {
    input: "784"
    input: "790"
    output: "791"
    op_type: "Concat"
    attribute {
      name: "axis"
      i: 1
      type: INT
    }
  }
  node {
    input: "791"
    input: "109"
    input: "110"
    input: "111"
    input: "112"
    output: "792"
    op_type: "BatchNormalization"
    attribute {
      name: "consumed_inputs"
      ints: 0
      ints: 0
      ints: 0
      ints: 1
      ints: 1
      type: INTS
    }
    attribute {
      name: "epsilon"
      f: 9.99999974737875e-06
      type: FLOAT
    }
    attribute {
      name: "is_test"
      i: 1
      type: INT
    }
    attribute {
      name: "momentum"
      f: 1
      type: FLOAT
    }
  }
  node {
    input: "792"
    output: "793"
    op_type: "Relu"
  }
  node {
    input: "793"
    input: "114"
    output: "794"
    op_type: "Conv"
    attribute {
      name: "dilations"
      ints: 1
      ints: 1
      type: INTS
    }
    attribute {
      name: "group"
      i: 1
      type: INT
    }
    attribute {
      name: "kernel_shape"
      ints: 1
      ints: 1
      type: INTS
    }
    attribute {
      name: "pads"
      ints: 0
      ints: 0
      ints: 0
      ints: 0
      type: INTS
    }
    attribute {
      name: "strides"
      ints: 1
      ints: 1
      type: INTS
    }
  }
  node {
    input: "794"
    input: "115"
    input: "116"
    input: "117"
    input: "118"
    output: "795"
    op_type: "BatchNormalization"
    attribute {
      name: "consumed_inputs"
      ints: 0
      ints: 0
      ints: 0
      ints: 1
      ints: 1
      type: INTS
    }
    attribute {
      name: "epsilon"
      f: 9.99999974737875e-06
      type: FLOAT
    }
    attribute {
      name: "is_test"
      i: 1
      type: INT
    }
    attribute {
      name: "momentum"
      f: 1
      type: FLOAT
    }
  }
  node {
    input: "795"
    output: "796"
    op_type: "Relu"
  }
  node {
    input: "796"
    input: "120"
    output: "797"
    op_type: "Conv"
    attribute {
      name: "dilations"
      ints: 1
      ints: 1
      type: INTS
    }
    attribute {
      name: "group"
      i: 1
      type: INT
    }
    attribute {
      name: "kernel_shape"
      ints: 3
      ints: 3
      type: INTS
    }
    attribute {
      name: "pads"
      ints: 1
      ints: 1
      ints: 1
      ints: 1
      type: INTS
    }
    attribute {
      name: "strides"
      ints: 1
      ints: 1
      type: INTS
    }
  }
  node {
    input: "791"
    input: "797"
    output: "798"
    op_type: "Concat"
    attribute {
      name: "axis"
      i: 1
      type: INT
    }
  }
  node {
    input: "798"
    input: "121"
    input: "122"
    input: "123"
    input: "124"
    output: "799"
    op_type: "BatchNormalization"
    attribute {
      name: "consumed_inputs"
      ints: 0
      ints: 0
      ints: 0
      ints: 1
      ints: 1
      type: INTS
    }
    attribute {
      name: "epsilon"
      f: 9.99999974737875e-06
      type: FLOAT
    }
    attribute {
      name: "is_test"
      i: 1
      type: INT
    }
    attribute {
      name: "momentum"
      f: 1
      type: FLOAT
    }
  }
  node {
    input: "799"
    output: "800"
    op_type: "Relu"
  }
  node {
    input: "800"
    input: "126"
    output: "801"
    op_type: "Conv"
    attribute {
      name: "dilations"
      ints: 1
      ints: 1
      type: INTS
    }
    attribute {
      name: "group"
      i: 1
      type: INT
    }
    attribute {
      name: "kernel_shape"
      ints: 1
      ints: 1
      type: INTS
    }
    attribute {
      name: "pads"
      ints: 0
      ints: 0
      ints: 0
      ints: 0
      type: INTS
    }
    attribute {
      name: "strides"
      ints: 1
      ints: 1
      type: INTS
    }
  }
  node {
    input: "801"
    input: "127"
    input: "128"
    input: "129"
    input: "130"
    output: "802"
    op_type: "BatchNormalization"
    attribute {
      name: "consumed_inputs"
      ints: 0
      ints: 0
      ints: 0
      ints: 1
      ints: 1
      type: INTS
    }
    attribute {
      name: "epsilon"
      f: 9.99999974737875e-06
      type: FLOAT
    }
    attribute {
      name: "is_test"
      i: 1
      type: INT
    }
    attribute {
      name: "momentum"
      f: 1
      type: FLOAT
    }
  }
  node {
    input: "802"
    output: "803"
    op_type: "Relu"
  }
  node {
    input: "803"
    input: "132"
    output: "804"
    op_type: "Conv"
    attribute {
      name: "dilations"
      ints: 1
      ints: 1
      type: INTS
    }
    attribute {
      name: "group"
      i: 1
      type: INT
    }
    attribute {
      name: "kernel_shape"
      ints: 3
      ints: 3
      type: INTS
    }
    attribute {
      name: "pads"
      ints: 1
      ints: 1
      ints: 1
      ints: 1
      type: INTS
    }
    attribute {
      name: "strides"
      ints: 1
      ints: 1
      type: INTS
    }
  }
  node {
    input: "798"
    input: "804"
    output: "805"
    op_type: "Concat"
    attribute {
      name: "axis"
      i: 1
      type: INT
    }
  }
  node {
    input: "805"
    input: "133"
    input: "134"
    input: "135"
    input: "136"
    output: "806"
    op_type: "BatchNormalization"
    attribute {
      name: "consumed_inputs"
      ints: 0
      ints: 0
      ints: 0
      ints: 1
      ints: 1
      type: INTS
    }
    attribute {
      name: "epsilon"
      f: 9.99999974737875e-06
      type: FLOAT
    }
    attribute {
      name: "is_test"
      i: 1
      type: INT
    }
    attribute {
      name: "momentum"
      f: 1
      type: FLOAT
    }
  }
  node {
    input: "806"
    output: "807"
    op_type: "Relu"
  }
  node {
    input: "807"
    input: "138"
    output: "808"
    op_type: "Conv"
    attribute {
      name: "dilations"
      ints: 1
      ints: 1
      type: INTS
    }
    attribute {
      name: "group"
      i: 1
      type: INT
    }
    attribute {
      name: "kernel_shape"
      ints: 1
      ints: 1
      type: INTS
    }
    attribute {
      name: "pads"
      ints: 0
      ints: 0
      ints: 0
      ints: 0
      type: INTS
    }
    attribute {
      name: "strides"
      ints: 1
      ints: 1
      type: INTS
    }
  }
  node {
    input: "808"
    input: "139"
    input: "140"
    input: "141"
    input: "142"
    output: "809"
    op_type: "BatchNormalization"
    attribute {
      name: "consumed_inputs"
      ints: 0
      ints: 0
      ints: 0
      ints: 1
      ints: 1
      type: INTS
    }
    attribute {
      name: "epsilon"
      f: 9.99999974737875e-06
      type: FLOAT
    }
    attribute {
      name: "is_test"
      i: 1
      type: INT
    }
    attribute {
      name: "momentum"
      f: 1
      type: FLOAT
    }
  }
  node {
    input: "809"
    output: "810"
    op_type: "Relu"
  }
  node {
    input: "810"
    input: "144"
    output: "811"
    op_type: "Conv"
    attribute {
      name: "dilations"
      ints: 1
      ints: 1
      type: INTS
    }
    attribute {
      name: "group"
      i: 1
      type: INT
    }
    attribute {
      name: "kernel_shape"
      ints: 3
      ints: 3
      type: INTS
    }
    attribute {
      name: "pads"
      ints: 1
      ints: 1
      ints: 1
      ints: 1
      type: INTS
    }
    attribute {
      name: "strides"
      ints: 1
      ints: 1
      type: INTS
    }
  }
  node {
    input: "805"
    input: "811"
    output: "812"
    op_type: "Concat"
    attribute {
      name: "axis"
      i: 1
      type: INT
    }
  }
  node {
    input: "812"
    input: "145"
    input: "146"
    input: "147"
    input: "148"
    output: "813"
    op_type: "BatchNormalization"
    attribute {
      name: "consumed_inputs"
      ints: 0
      ints: 0
      ints: 0
      ints: 1
      ints: 1
      type: INTS
    }
    attribute {
      name: "epsilon"
      f: 9.99999974737875e-06
      type: FLOAT
    }
    attribute {
      name: "is_test"
      i: 1
      type: INT
    }
    attribute {
      name: "momentum"
      f: 1
      type: FLOAT
    }
  }
  node {
    input: "813"
    output: "814"
    op_type: "Relu"
  }
  node {
    input: "814"
    input: "150"
    output: "815"
    op_type: "Conv"
    attribute {
      name: "dilations"
      ints: 1
      ints: 1
      type: INTS
    }
    attribute {
      name: "group"
      i: 1
      type: INT
    }
    attribute {
      name: "kernel_shape"
      ints: 1
      ints: 1
      type: INTS
    }
    attribute {
      name: "pads"
      ints: 0
      ints: 0
      ints: 0
      ints: 0
      type: INTS
    }
    attribute {
      name: "strides"
      ints: 1
      ints: 1
      type: INTS
    }
  }
  node {
    input: "815"
    input: "151"
    input: "152"
    input: "153"
    input: "154"
    output: "816"
    op_type: "BatchNormalization"
    attribute {
      name: "consumed_inputs"
      ints: 0
      ints: 0
      ints: 0
      ints: 1
      ints: 1
      type: INTS
    }
    attribute {
      name: "epsilon"
      f: 9.99999974737875e-06
      type: FLOAT
    }
    attribute {
      name: "is_test"
      i: 1
      type: INT
    }
    attribute {
      name: "momentum"
      f: 1
      type: FLOAT
    }
  }
  node {
    input: "816"
    output: "817"
    op_type: "Relu"
  }
  node {
    input: "817"
    input: "156"
    output: "818"
    op_type: "Conv"
    attribute {
      name: "dilations"
      ints: 1
      ints: 1
      type: INTS
    }
    attribute {
      name: "group"
      i: 1
      type: INT
    }
    attribute {
      name: "kernel_shape"
      ints: 3
      ints: 3
      type: INTS
    }
    attribute {
      name: "pads"
      ints: 1
      ints: 1
      ints: 1
      ints: 1
      type: INTS
    }
    attribute {
      name: "strides"
      ints: 1
      ints: 1
      type: INTS
    }
  }
  node {
    input: "812"
    input: "818"
    output: "819"
    op_type: "Concat"
    attribute {
      name: "axis"
      i: 1
      type: INT
    }
  }
  node {
    input: "819"
    input: "157"
    input: "158"
    input: "159"
    input: "160"
    output: "820"
    op_type: "BatchNormalization"
    attribute {
      name: "consumed_inputs"
      ints: 0
      ints: 0
      ints: 0
      ints: 1
      ints: 1
      type: INTS
    }
    attribute {
      name: "epsilon"
      f: 9.99999974737875e-06
      type: FLOAT
    }
    attribute {
      name: "is_test"
      i: 1
      type: INT
    }
    attribute {
      name: "momentum"
      f: 1
      type: FLOAT
    }
  }
  node {
    input: "820"
    output: "821"
    op_type: "Relu"
  }
  node {
    input: "821"
    input: "162"
    output: "822"
    op_type: "Conv"
    attribute {
      name: "dilations"
      ints: 1
      ints: 1
      type: INTS
    }
    attribute {
      name: "group"
      i: 1
      type: INT
    }
    attribute {
      name: "kernel_shape"
      ints: 1
      ints: 1
      type: INTS
    }
    attribute {
      name: "pads"
      ints: 0
      ints: 0
      ints: 0
      ints: 0
      type: INTS
    }
    attribute {
      name: "strides"
      ints: 1
      ints: 1
      type: INTS
    }
  }
  node {
    input: "822"
    input: "163"
    input: "164"
    input: "165"
    input: "166"
    output: "823"
    op_type: "BatchNormalization"
    attribute {
      name: "consumed_inputs"
      ints: 0
      ints: 0
      ints: 0
      ints: 1
      ints: 1
      type: INTS
    }
    attribute {
      name: "epsilon"
      f: 9.99999974737875e-06
      type: FLOAT
    }
    attribute {
      name: "is_test"
      i: 1
      type: INT
    }
    attribute {
      name: "momentum"
      f: 1
      type: FLOAT
    }
  }
  node {
    input: "823"
    output: "824"
    op_type: "Relu"
  }
  node {
    input: "824"
    input: "168"
    output: "825"
    op_type: "Conv"
    attribute {
      name: "dilations"
      ints: 1
      ints: 1
      type: INTS
    }
    attribute {
      name: "group"
      i: 1
      type: INT
    }
    attribute {
      name: "kernel_shape"
      ints: 3
      ints: 3
      type: INTS
    }
    attribute {
      name: "pads"
      ints: 1
      ints: 1
      ints: 1
      ints: 1
      type: INTS
    }
    attribute {
      name: "strides"
      ints: 1
      ints: 1
      type: INTS
    }
  }
  node {
    input: "819"
    input: "825"
    output: "826"
    op_type: "Concat"
    attribute {
      name: "axis"
      i: 1
      type: INT
    }
  }
  node {
    input: "826"
    input: "169"
    input: "170"
    input: "171"
    input: "172"
    output: "827"
    op_type: "BatchNormalization"
    attribute {
      name: "consumed_inputs"
      ints: 0
      ints: 0
      ints: 0
      ints: 1
      ints: 1
      type: INTS
    }
    attribute {
      name: "epsilon"
      f: 9.99999974737875e-06
      type: FLOAT
    }
    attribute {
      name: "is_test"
      i: 1
      type: INT
    }
    attribute {
      name: "momentum"
      f: 1
      type: FLOAT
    }
  }
  node {
    input: "827"
    output: "828"
    op_type: "Relu"
  }
  node {
    input: "828"
    input: "174"
    output: "829"
    op_type: "Conv"
    attribute {
      name: "dilations"
      ints: 1
      ints: 1
      type: INTS
    }
    attribute {
      name: "group"
      i: 1
      type: INT
    }
    attribute {
      name: "kernel_shape"
      ints: 1
      ints: 1
      type: INTS
    }
    attribute {
      name: "pads"
      ints: 0
      ints: 0
      ints: 0
      ints: 0
      type: INTS
    }
    attribute {
      name: "strides"
      ints: 1
      ints: 1
      type: INTS
    }
  }
  node {
    input: "829"
    input: "175"
    input: "176"
    input: "177"
    input: "178"
    output: "830"
    op_type: "BatchNormalization"
    attribute {
      name: "consumed_inputs"
      ints: 0
      ints: 0
      ints: 0
      ints: 1
      ints: 1
      type: INTS
    }
    attribute {
      name: "epsilon"
      f: 9.99999974737875e-06
      type: FLOAT
    }
    attribute {
      name: "is_test"
      i: 1
      type: INT
    }
    attribute {
      name: "momentum"
      f: 1
      type: FLOAT
    }
  }
  node {
    input: "830"
    output: "831"
    op_type: "Relu"
  }
  node {
    input: "831"
    input: "180"
    output: "832"
    op_type: "Conv"
    attribute {
      name: "dilations"
      ints: 1
      ints: 1
      type: INTS
    }
    attribute {
      name: "group"
      i: 1
      type: INT
    }
    attribute {
      name: "kernel_shape"
      ints: 3
      ints: 3
      type: INTS
    }
    attribute {
      name: "pads"
      ints: 1
      ints: 1
      ints: 1
      ints: 1
      type: INTS
    }
    attribute {
      name: "strides"
      ints: 1
      ints: 1
      type: INTS
    }
  }
  node {
    input: "826"
    input: "832"
    output: "833"
    op_type: "Concat"
    attribute {
      name: "axis"
      i: 1
      type: INT
    }
  }
  node {
    input: "833"
    input: "181"
    input: "182"
    input: "183"
    input: "184"
    output: "834"
    op_type: "BatchNormalization"
    attribute {
      name: "consumed_inputs"
      ints: 0
      ints: 0
      ints: 0
      ints: 1
      ints: 1
      type: INTS
    }
    attribute {
      name: "epsilon"
      f: 9.99999974737875e-06
      type: FLOAT
    }
    attribute {
      name: "is_test"
      i: 1
      type: INT
    }
    attribute {
      name: "momentum"
      f: 1
      type: FLOAT
    }
  }
  node {
    input: "834"
    output: "835"
    op_type: "Relu"
  }
  node {
    input: "835"
    input: "186"
    output: "836"
    op_type: "Conv"
    attribute {
      name: "dilations"
      ints: 1
      ints: 1
      type: INTS
    }
    attribute {
      name: "group"
      i: 1
      type: INT
    }
    attribute {
      name: "kernel_shape"
      ints: 1
      ints: 1
      type: INTS
    }
    attribute {
      name: "pads"
      ints: 0
      ints: 0
      ints: 0
      ints: 0
      type: INTS
    }
    attribute {
      name: "strides"
      ints: 1
      ints: 1
      type: INTS
    }
  }
  node {
    input: "836"
    input: "187"
    input: "188"
    input: "189"
    input: "190"
    output: "837"
    op_type: "BatchNormalization"
    attribute {
      name: "consumed_inputs"
      ints: 0
      ints: 0
      ints: 0
      ints: 1
      ints: 1
      type: INTS
    }
    attribute {
      name: "epsilon"
      f: 9.99999974737875e-06
      type: FLOAT
    }
    attribute {
      name: "is_test"
      i: 1
      type: INT
    }
    attribute {
      name: "momentum"
      f: 1
      type: FLOAT
    }
  }
  node {
    input: "837"
    output: "838"
    op_type: "Relu"
  }
  node {
    input: "838"
    input: "192"
    output: "839"
    op_type: "Conv"
    attribute {
      name: "dilations"
      ints: 1
      ints: 1
      type: INTS
    }
    attribute {
      name: "group"
      i: 1
      type: INT
    }
    attribute {
      name: "kernel_shape"
      ints: 3
      ints: 3
      type: INTS
    }
    attribute {
      name: "pads"
      ints: 1
      ints: 1
      ints: 1
      ints: 1
      type: INTS
    }
    attribute {
      name: "strides"
      ints: 1
      ints: 1
      type: INTS
    }
  }
  node {
    input: "833"
    input: "839"
    output: "840"
    op_type: "Concat"
    attribute {
      name: "axis"
      i: 1
      type: INT
    }
  }
  node {
    input: "840"
    input: "193"
    input: "194"
    input: "195"
    input: "196"
    output: "841"
    op_type: "BatchNormalization"
    attribute {
      name: "consumed_inputs"
      ints: 0
      ints: 0
      ints: 0
      ints: 1
      ints: 1
      type: INTS
    }
    attribute {
      name: "epsilon"
      f: 9.99999974737875e-06
      type: FLOAT
    }
    attribute {
      name: "is_test"
      i: 1
      type: INT
    }
    attribute {
      name: "momentum"
      f: 1
      type: FLOAT
    }
  }
  node {
    input: "841"
    output: "842"
    op_type: "Relu"
  }
  node {
    input: "842"
    input: "198"
    output: "843"
    op_type: "Conv"
    attribute {
      name: "dilations"
      ints: 1
      ints: 1
      type: INTS
    }
    attribute {
      name: "group"
      i: 1
      type: INT
    }
    attribute {
      name: "kernel_shape"
      ints: 1
      ints: 1
      type: INTS
    }
    attribute {
      name: "pads"
      ints: 0
      ints: 0
      ints: 0
      ints: 0
      type: INTS
    }
    attribute {
      name: "strides"
      ints: 1
      ints: 1
      type: INTS
    }
  }
  node {
    input: "843"
    input: "199"
    input: "200"
    input: "201"
    input: "202"
    output: "844"
    op_type: "BatchNormalization"
    attribute {
      name: "consumed_inputs"
      ints: 0
      ints: 0
      ints: 0
      ints: 1
      ints: 1
      type: INTS
    }
    attribute {
      name: "epsilon"
      f: 9.99999974737875e-06
      type: FLOAT
    }
    attribute {
      name: "is_test"
      i: 1
      type: INT
    }
    attribute {
      name: "momentum"
      f: 1
      type: FLOAT
    }
  }
  node {
    input: "844"
    output: "845"
    op_type: "Relu"
  }
  node {
    input: "845"
    input: "204"
    output: "846"
    op_type: "Conv"
    attribute {
      name: "dilations"
      ints: 1
      ints: 1
      type: INTS
    }
    attribute {
      name: "group"
      i: 1
      type: INT
    }
    attribute {
      name: "kernel_shape"
      ints: 3
      ints: 3
      type: INTS
    }
    attribute {
      name: "pads"
      ints: 1
      ints: 1
      ints: 1
      ints: 1
      type: INTS
    }
    attribute {
      name: "strides"
      ints: 1
      ints: 1
      type: INTS
    }
  }
  node {
    input: "840"
    input: "846"
    output: "847"
    op_type: "Concat"
    attribute {
      name: "axis"
      i: 1
      type: INT
    }
  }
  node {
    input: "847"
    input: "205"
    input: "206"
    input: "207"
    input: "208"
    output: "848"
    op_type: "BatchNormalization"
    attribute {
      name: "consumed_inputs"
      ints: 0
      ints: 0
      ints: 0
      ints: 1
      ints: 1
      type: INTS
    }
    attribute {
      name: "epsilon"
      f: 9.99999974737875e-06
      type: FLOAT
    }
    attribute {
      name: "is_test"
      i: 1
      type: INT
    }
    attribute {
      name: "momentum"
      f: 1
      type: FLOAT
    }
  }
  node {
    input: "848"
    output: "849"
    op_type: "Relu"
  }
  node {
    input: "849"
    input: "210"
    output: "850"
    op_type: "Conv"
    attribute {
      name: "dilations"
      ints: 1
      ints: 1
      type: INTS
    }
    attribute {
      name: "group"
      i: 1
      type: INT
    }
    attribute {
      name: "kernel_shape"
      ints: 1
      ints: 1
      type: INTS
    }
    attribute {
      name: "pads"
      ints: 0
      ints: 0
      ints: 0
      ints: 0
      type: INTS
    }
    attribute {
      name: "strides"
      ints: 1
      ints: 1
      type: INTS
    }
  }
  node {
    input: "850"
    input: "211"
    input: "212"
    input: "213"
    input: "214"
    output: "851"
    op_type: "BatchNormalization"
    attribute {
      name: "consumed_inputs"
      ints: 0
      ints: 0
      ints: 0
      ints: 1
      ints: 1
      type: INTS
    }
    attribute {
      name: "epsilon"
      f: 9.99999974737875e-06
      type: FLOAT
    }
    attribute {
      name: "is_test"
      i: 1
      type: INT
    }
    attribute {
      name: "momentum"
      f: 1
      type: FLOAT
    }
  }
  node {
    input: "851"
    output: "852"
    op_type: "Relu"
  }
  node {
    input: "852"
    input: "216"
    output: "853"
    op_type: "Conv"
    attribute {
      name: "dilations"
      ints: 1
      ints: 1
      type: INTS
    }
    attribute {
      name: "group"
      i: 1
      type: INT
    }
    attribute {
      name: "kernel_shape"
      ints: 3
      ints: 3
      type: INTS
    }
    attribute {
      name: "pads"
      ints: 1
      ints: 1
      ints: 1
      ints: 1
      type: INTS
    }
    attribute {
      name: "strides"
      ints: 1
      ints: 1
      type: INTS
    }
  }
  node {
    input: "847"
    input: "853"
    output: "854"
    op_type: "Concat"
    attribute {
      name: "axis"
      i: 1
      type: INT
    }
  }
  node {
    input: "854"
    input: "217"
    input: "218"
    input: "219"
    input: "220"
    output: "855"
    op_type: "BatchNormalization"
    attribute {
      name: "consumed_inputs"
      ints: 0
      ints: 0
      ints: 0
      ints: 1
      ints: 1
      type: INTS
    }
    attribute {
      name: "epsilon"
      f: 9.99999974737875e-06
      type: FLOAT
    }
    attribute {
      name: "is_test"
      i: 1
      type: INT
    }
    attribute {
      name: "momentum"
      f: 1
      type: FLOAT
    }
  }
  node {
    input: "855"
    output: "856"
    op_type: "Relu"
  }
  node {
    input: "856"
    input: "222"
    output: "857"
    op_type: "Conv"
    attribute {
      name: "dilations"
      ints: 1
      ints: 1
      type: INTS
    }
    attribute {
      name: "group"
      i: 1
      type: INT
    }
    attribute {
      name: "kernel_shape"
      ints: 1
      ints: 1
      type: INTS
    }
    attribute {
      name: "pads"
      ints: 0
      ints: 0
      ints: 0
      ints: 0
      type: INTS
    }
    attribute {
      name: "strides"
      ints: 1
      ints: 1
      type: INTS
    }
  }
  node {
    input: "857"
    input: "223"
    input: "224"
    input: "225"
    input: "226"
    output: "858"
    op_type: "BatchNormalization"
    attribute {
      name: "consumed_inputs"
      ints: 0
      ints: 0
      ints: 0
      ints: 1
      ints: 1
      type: INTS
    }
    attribute {
      name: "epsilon"
      f: 9.99999974737875e-06
      type: FLOAT
    }
    attribute {
      name: "is_test"
      i: 1
      type: INT
    }
    attribute {
      name: "momentum"
      f: 1
      type: FLOAT
    }
  }
  node {
    input: "858"
    output: "859"
    op_type: "Relu"
  }
  node {
    input: "859"
    input: "228"
    output: "860"
    op_type: "Conv"
    attribute {
      name: "dilations"
      ints: 1
      ints: 1
      type: INTS
    }
    attribute {
      name: "group"
      i: 1
      type: INT
    }
    attribute {
      name: "kernel_shape"
      ints: 3
      ints: 3
      type: INTS
    }
    attribute {
      name: "pads"
      ints: 1
      ints: 1
      ints: 1
      ints: 1
      type: INTS
    }
    attribute {
      name: "strides"
      ints: 1
      ints: 1
      type: INTS
    }
  }
  node {
    input: "854"
    input: "860"
    output: "861"
    op_type: "Concat"
    attribute {
      name: "axis"
      i: 1
      type: INT
    }
  }
  node {
    input: "861"
    input: "229"
    input: "230"
    input: "231"
    input: "232"
    output: "862"
    op_type: "BatchNormalization"
    attribute {
      name: "consumed_inputs"
      ints: 0
      ints: 0
      ints: 0
      ints: 1
      ints: 1
      type: INTS
    }
    attribute {
      name: "epsilon"
      f: 9.99999974737875e-06
      type: FLOAT
    }
    attribute {
      name: "is_test"
      i: 1
      type: INT
    }
    attribute {
      name: "momentum"
      f: 1
      type: FLOAT
    }
  }
  node {
    input: "862"
    output: "863"
    op_type: "Relu"
  }
  node {
    input: "863"
    input: "234"
    output: "864"
    op_type: "Conv"
    attribute {
      name: "dilations"
      ints: 1
      ints: 1
      type: INTS
    }
    attribute {
      name: "group"
      i: 1
      type: INT
    }
    attribute {
      name: "kernel_shape"
      ints: 1
      ints: 1
      type: INTS
    }
    attribute {
      name: "pads"
      ints: 0
      ints: 0
      ints: 0
      ints: 0
      type: INTS
    }
    attribute {
      name: "strides"
      ints: 1
      ints: 1
      type: INTS
    }
  }
  node {
    input: "864"
    output: "865"
    op_type: "AveragePool"
    attribute {
      name: "kernel_shape"
      ints: 2
      ints: 2
      type: INTS
    }
    attribute {
      name: "pads"
      ints: 0
      ints: 0
      ints: 0
      ints: 0
      type: INTS
    }
    attribute {
      name: "strides"
      ints: 2
      ints: 2
      type: INTS
    }
  }
  node {
    input: "865"
    input: "235"
    input: "236"
    input: "237"
    input: "238"
    output: "866"
    op_type: "BatchNormalization"
    attribute {
      name: "consumed_inputs"
      ints: 0
      ints: 0
      ints: 0
      ints: 1
      ints: 1
      type: INTS
    }
    attribute {
      name: "epsilon"
      f: 9.99999974737875e-06
      type: FLOAT
    }
    attribute {
      name: "is_test"
      i: 1
      type: INT
    }
    attribute {
      name: "momentum"
      f: 1
      type: FLOAT
    }
  }
  node {
    input: "866"
    output: "867"
    op_type: "Relu"
  }
  node {
    input: "867"
    input: "240"
    output: "868"
    op_type: "Conv"
    attribute {
      name: "dilations"
      ints: 1
      ints: 1
      type: INTS
    }
    attribute {
      name: "group"
      i: 1
      type: INT
    }
    attribute {
      name: "kernel_shape"
      ints: 1
      ints: 1
      type: INTS
    }
    attribute {
      name: "pads"
      ints: 0
      ints: 0
      ints: 0
      ints: 0
      type: INTS
    }
    attribute {
      name: "strides"
      ints: 1
      ints: 1
      type: INTS
    }
  }
  node {
    input: "868"
    input: "241"
    input: "242"
    input: "243"
    input: "244"
    output: "869"
    op_type: "BatchNormalization"
    attribute {
      name: "consumed_inputs"
      ints: 0
      ints: 0
      ints: 0
      ints: 1
      ints: 1
      type: INTS
    }
    attribute {
      name: "epsilon"
      f: 9.99999974737875e-06
      type: FLOAT
    }
    attribute {
      name: "is_test"
      i: 1
      type: INT
    }
    attribute {
      name: "momentum"
      f: 1
      type: FLOAT
    }
  }
  node {
    input: "869"
    output: "870"
    op_type: "Relu"
  }
  node {
    input: "870"
    input: "246"
    output: "871"
    op_type: "Conv"
    attribute {
      name: "dilations"
      ints: 1
      ints: 1
      type: INTS
    }
    attribute {
      name: "group"
      i: 1
      type: INT
    }
    attribute {
      name: "kernel_shape"
      ints: 3
      ints: 3
      type: INTS
    }
    attribute {
      name: "pads"
      ints: 1
      ints: 1
      ints: 1
      ints: 1
      type: INTS
    }
    attribute {
      name: "strides"
      ints: 1
      ints: 1
      type: INTS
    }
  }
  node {
    input: "865"
    input: "871"
    output: "872"
    op_type: "Concat"
    attribute {
      name: "axis"
      i: 1
      type: INT
    }
  }
  node {
    input: "872"
    input: "247"
    input: "248"
    input: "249"
    input: "250"
    output: "873"
    op_type: "BatchNormalization"
    attribute {
      name: "consumed_inputs"
      ints: 0
      ints: 0
      ints: 0
      ints: 1
      ints: 1
      type: INTS
    }
    attribute {
      name: "epsilon"
      f: 9.99999974737875e-06
      type: FLOAT
    }
    attribute {
      name: "is_test"
      i: 1
      type: INT
    }
    attribute {
      name: "momentum"
      f: 1
      type: FLOAT
    }
  }
  node {
    input: "873"
    output: "874"
    op_type: "Relu"
  }
  node {
    input: "874"
    input: "252"
    output: "875"
    op_type: "Conv"
    attribute {
      name: "dilations"
      ints: 1
      ints: 1
      type: INTS
    }
    attribute {
      name: "group"
      i: 1
      type: INT
    }
    attribute {
      name: "kernel_shape"
      ints: 1
      ints: 1
      type: INTS
    }
    attribute {
      name: "pads"
      ints: 0
      ints: 0
      ints: 0
      ints: 0
      type: INTS
    }
    attribute {
      name: "strides"
      ints: 1
      ints: 1
      type: INTS
    }
  }
  node {
    input: "875"
    input: "253"
    input: "254"
    input: "255"
    input: "256"
    output: "876"
    op_type: "BatchNormalization"
    attribute {
      name: "consumed_inputs"
      ints: 0
      ints: 0
      ints: 0
      ints: 1
      ints: 1
      type: INTS
    }
    attribute {
      name: "epsilon"
      f: 9.99999974737875e-06
      type: FLOAT
    }
    attribute {
      name: "is_test"
      i: 1
      type: INT
    }
    attribute {
      name: "momentum"
      f: 1
      type: FLOAT
    }
  }
  node {
    input: "876"
    output: "877"
    op_type: "Relu"
  }
  node {
    input: "877"
    input: "258"
    output: "878"
    op_type: "Conv"
    attribute {
      name: "dilations"
      ints: 1
      ints: 1
      type: INTS
    }
    attribute {
      name: "group"
      i: 1
      type: INT
    }
    attribute {
      name: "kernel_shape"
      ints: 3
      ints: 3
      type: INTS
    }
    attribute {
      name: "pads"
      ints: 1
      ints: 1
      ints: 1
      ints: 1
      type: INTS
    }
    attribute {
      name: "strides"
      ints: 1
      ints: 1
      type: INTS
    }
  }
  node {
    input: "872"
    input: "878"
    output: "879"
    op_type: "Concat"
    attribute {
      name: "axis"
      i: 1
      type: INT
    }
  }
  node {
    input: "879"
    input: "259"
    input: "260"
    input: "261"
    input: "262"
    output: "880"
    op_type: "BatchNormalization"
    attribute {
      name: "consumed_inputs"
      ints: 0
      ints: 0
      ints: 0
      ints: 1
      ints: 1
      type: INTS
    }
    attribute {
      name: "epsilon"
      f: 9.99999974737875e-06
      type: FLOAT
    }
    attribute {
      name: "is_test"
      i: 1
      type: INT
    }
    attribute {
      name: "momentum"
      f: 1
      type: FLOAT
    }
  }
  node {
    input: "880"
    output: "881"
    op_type: "Relu"
  }
  node {
    input: "881"
    input: "264"
    output: "882"
    op_type: "Conv"
    attribute {
      name: "dilations"
      ints: 1
      ints: 1
      type: INTS
    }
    attribute {
      name: "group"
      i: 1
      type: INT
    }
    attribute {
      name: "kernel_shape"
      ints: 1
      ints: 1
      type: INTS
    }
    attribute {
      name: "pads"
      ints: 0
      ints: 0
      ints: 0
      ints: 0
      type: INTS
    }
    attribute {
      name: "strides"
      ints: 1
      ints: 1
      type: INTS
    }
  }
  node {
    input: "882"
    input: "265"
    input: "266"
    input: "267"
    input: "268"
    output: "883"
    op_type: "BatchNormalization"
    attribute {
      name: "consumed_inputs"
      ints: 0
      ints: 0
      ints: 0
      ints: 1
      ints: 1
      type: INTS
    }
    attribute {
      name: "epsilon"
      f: 9.99999974737875e-06
      type: FLOAT
    }
    attribute {
      name: "is_test"
      i: 1
      type: INT
    }
    attribute {
      name: "momentum"
      f: 1
      type: FLOAT
    }
  }
  node {
    input: "883"
    output: "884"
    op_type: "Relu"
  }
  node {
    input: "884"
    input: "270"
    output: "885"
    op_type: "Conv"
    attribute {
      name: "dilations"
      ints: 1
      ints: 1
      type: INTS
    }
    attribute {
      name: "group"
      i: 1
      type: INT
    }
    attribute {
      name: "kernel_shape"
      ints: 3
      ints: 3
      type: INTS
    }
    attribute {
      name: "pads"
      ints: 1
      ints: 1
      ints: 1
      ints: 1
      type: INTS
    }
    attribute {
      name: "strides"
      ints: 1
      ints: 1
      type: INTS
    }
  }
  node {
    input: "879"
    input: "885"
    output: "886"
    op_type: "Concat"
    attribute {
      name: "axis"
      i: 1
      type: INT
    }
  }
  node {
    input: "886"
    input: "271"
    input: "272"
    input: "273"
    input: "274"
    output: "887"
    op_type: "BatchNormalization"
    attribute {
      name: "consumed_inputs"
      ints: 0
      ints: 0
      ints: 0
      ints: 1
      ints: 1
      type: INTS
    }
    attribute {
      name: "epsilon"
      f: 9.99999974737875e-06
      type: FLOAT
    }
    attribute {
      name: "is_test"
      i: 1
      type: INT
    }
    attribute {
      name: "momentum"
      f: 1
      type: FLOAT
    }
  }
  node {
    input: "887"
    output: "888"
    op_type: "Relu"
  }
  node {
    input: "888"
    input: "276"
    output: "889"
    op_type: "Conv"
    attribute {
      name: "dilations"
      ints: 1
      ints: 1
      type: INTS
    }
    attribute {
      name: "group"
      i: 1
      type: INT
    }
    attribute {
      name: "kernel_shape"
      ints: 1
      ints: 1
      type: INTS
    }
    attribute {
      name: "pads"
      ints: 0
      ints: 0
      ints: 0
      ints: 0
      type: INTS
    }
    attribute {
      name: "strides"
      ints: 1
      ints: 1
      type: INTS
    }
  }
  node {
    input: "889"
    input: "277"
    input: "278"
    input: "279"
    input: "280"
    output: "890"
    op_type: "BatchNormalization"
    attribute {
      name: "consumed_inputs"
      ints: 0
      ints: 0
      ints: 0
      ints: 1
      ints: 1
      type: INTS
    }
    attribute {
      name: "epsilon"
      f: 9.99999974737875e-06
      type: FLOAT
    }
    attribute {
      name: "is_test"
      i: 1
      type: INT
    }
    attribute {
      name: "momentum"
      f: 1
      type: FLOAT
    }
  }
  node {
    input: "890"
    output: "891"
    op_type: "Relu"
  }
  node {
    input: "891"
    input: "282"
    output: "892"
    op_type: "Conv"
    attribute {
      name: "dilations"
      ints: 1
      ints: 1
      type: INTS
    }
    attribute {
      name: "group"
      i: 1
      type: INT
    }
    attribute {
      name: "kernel_shape"
      ints: 3
      ints: 3
      type: INTS
    }
    attribute {
      name: "pads"
      ints: 1
      ints: 1
      ints: 1
      ints: 1
      type: INTS
    }
    attribute {
      name: "strides"
      ints: 1
      ints: 1
      type: INTS
    }
  }
  node {
    input: "886"
    input: "892"
    output: "893"
    op_type: "Concat"
    attribute {
      name: "axis"
      i: 1
      type: INT
    }
  }
  node {
    input: "893"
    input: "283"
    input: "284"
    input: "285"
    input: "286"
    output: "894"
    op_type: "BatchNormalization"
    attribute {
      name: "consumed_inputs"
      ints: 0
      ints: 0
      ints: 0
      ints: 1
      ints: 1
      type: INTS
    }
    attribute {
      name: "epsilon"
      f: 9.99999974737875e-06
      type: FLOAT
    }
    attribute {
      name: "is_test"
      i: 1
      type: INT
    }
    attribute {
      name: "momentum"
      f: 1
      type: FLOAT
    }
  }
  node {
    input: "894"
    output: "895"
    op_type: "Relu"
  }
  node {
    input: "895"
    input: "288"
    output: "896"
    op_type: "Conv"
    attribute {
      name: "dilations"
      ints: 1
      ints: 1
      type: INTS
    }
    attribute {
      name: "group"
      i: 1
      type: INT
    }
    attribute {
      name: "kernel_shape"
      ints: 1
      ints: 1
      type: INTS
    }
    attribute {
      name: "pads"
      ints: 0
      ints: 0
      ints: 0
      ints: 0
      type: INTS
    }
    attribute {
      name: "strides"
      ints: 1
      ints: 1
      type: INTS
    }
  }
  node {
    input: "896"
    input: "289"
    input: "290"
    input: "291"
    input: "292"
    output: "897"
    op_type: "BatchNormalization"
    attribute {
      name: "consumed_inputs"
      ints: 0
      ints: 0
      ints: 0
      ints: 1
      ints: 1
      type: INTS
    }
    attribute {
      name: "epsilon"
      f: 9.99999974737875e-06
      type: FLOAT
    }
    attribute {
      name: "is_test"
      i: 1
      type: INT
    }
    attribute {
      name: "momentum"
      f: 1
      type: FLOAT
    }
  }
  node {
    input: "897"
    output: "898"
    op_type: "Relu"
  }
  node {
    input: "898"
    input: "294"
    output: "899"
    op_type: "Conv"
    attribute {
      name: "dilations"
      ints: 1
      ints: 1
      type: INTS
    }
    attribute {
      name: "group"
      i: 1
      type: INT
    }
    attribute {
      name: "kernel_shape"
      ints: 3
      ints: 3
      type: INTS
    }
    attribute {
      name: "pads"
      ints: 1
      ints: 1
      ints: 1
      ints: 1
      type: INTS
    }
    attribute {
      name: "strides"
      ints: 1
      ints: 1
      type: INTS
    }
  }
  node {
    input: "893"
    input: "899"
    output: "900"
    op_type: "Concat"
    attribute {
      name: "axis"
      i: 1
      type: INT
    }
  }
  node {
    input: "900"
    input: "295"
    input: "296"
    input: "297"
    input: "298"
    output: "901"
    op_type: "BatchNormalization"
    attribute {
      name: "consumed_inputs"
      ints: 0
      ints: 0
      ints: 0
      ints: 1
      ints: 1
      type: INTS
    }
    attribute {
      name: "epsilon"
      f: 9.99999974737875e-06
      type: FLOAT
    }
    attribute {
      name: "is_test"
      i: 1
      type: INT
    }
    attribute {
      name: "momentum"
      f: 1
      type: FLOAT
    }
  }
  node {
    input: "901"
    output: "902"
    op_type: "Relu"
  }
  node {
    input: "902"
    input: "300"
    output: "903"
    op_type: "Conv"
    attribute {
      name: "dilations"
      ints: 1
      ints: 1
      type: INTS
    }
    attribute {
      name: "group"
      i: 1
      type: INT
    }
    attribute {
      name: "kernel_shape"
      ints: 1
      ints: 1
      type: INTS
    }
    attribute {
      name: "pads"
      ints: 0
      ints: 0
      ints: 0
      ints: 0
      type: INTS
    }
    attribute {
      name: "strides"
      ints: 1
      ints: 1
      type: INTS
    }
  }
  node {
    input: "903"
    input: "301"
    input: "302"
    input: "303"
    input: "304"
    output: "904"
    op_type: "BatchNormalization"
    attribute {
      name: "consumed_inputs"
      ints: 0
      ints: 0
      ints: 0
      ints: 1
      ints: 1
      type: INTS
    }
    attribute {
      name: "epsilon"
      f: 9.99999974737875e-06
      type: FLOAT
    }
    attribute {
      name: "is_test"
      i: 1
      type: INT
    }
    attribute {
      name: "momentum"
      f: 1
      type: FLOAT
    }
  }
  node {
    input: "904"
    output: "905"
    op_type: "Relu"
  }
  node {
    input: "905"
    input: "306"
    output: "906"
    op_type: "Conv"
    attribute {
      name: "dilations"
      ints: 1
      ints: 1
      type: INTS
    }
    attribute {
      name: "group"
      i: 1
      type: INT
    }
    attribute {
      name: "kernel_shape"
      ints: 3
      ints: 3
      type: INTS
    }
    attribute {
      name: "pads"
      ints: 1
      ints: 1
      ints: 1
      ints: 1
      type: INTS
    }
    attribute {
      name: "strides"
      ints: 1
      ints: 1
      type: INTS
    }
  }
  node {
    input: "900"
    input: "906"
    output: "907"
    op_type: "Concat"
    attribute {
      name: "axis"
      i: 1
      type: INT
    }
  }
  node {
    input: "907"
    input: "307"
    input: "308"
    input: "309"
    input: "310"
    output: "908"
    op_type: "BatchNormalization"
    attribute {
      name: "consumed_inputs"
      ints: 0
      ints: 0
      ints: 0
      ints: 1
      ints: 1
      type: INTS
    }
    attribute {
      name: "epsilon"
      f: 9.99999974737875e-06
      type: FLOAT
    }
    attribute {
      name: "is_test"
      i: 1
      type: INT
    }
    attribute {
      name: "momentum"
      f: 1
      type: FLOAT
    }
  }
  node {
    input: "908"
    output: "909"
    op_type: "Relu"
  }
  node {
    input: "909"
    input: "312"
    output: "910"
    op_type: "Conv"
    attribute {
      name: "dilations"
      ints: 1
      ints: 1
      type: INTS
    }
    attribute {
      name: "group"
      i: 1
      type: INT
    }
    attribute {
      name: "kernel_shape"
      ints: 1
      ints: 1
      type: INTS
    }
    attribute {
      name: "pads"
      ints: 0
      ints: 0
      ints: 0
      ints: 0
      type: INTS
    }
    attribute {
      name: "strides"
      ints: 1
      ints: 1
      type: INTS
    }
  }
  node {
    input: "910"
    input: "313"
    input: "314"
    input: "315"
    input: "316"
    output: "911"
    op_type: "BatchNormalization"
    attribute {
      name: "consumed_inputs"
      ints: 0
      ints: 0
      ints: 0
      ints: 1
      ints: 1
      type: INTS
    }
    attribute {
      name: "epsilon"
      f: 9.99999974737875e-06
      type: FLOAT
    }
    attribute {
      name: "is_test"
      i: 1
      type: INT
    }
    attribute {
      name: "momentum"
      f: 1
      type: FLOAT
    }
  }
  node {
    input: "911"
    output: "912"
    op_type: "Relu"
  }
  node {
    input: "912"
    input: "318"
    output: "913"
    op_type: "Conv"
    attribute {
      name: "dilations"
      ints: 1
      ints: 1
      type: INTS
    }
    attribute {
      name: "group"
      i: 1
      type: INT
    }
    attribute {
      name: "kernel_shape"
      ints: 3
      ints: 3
      type: INTS
    }
    attribute {
      name: "pads"
      ints: 1
      ints: 1
      ints: 1
      ints: 1
      type: INTS
    }
    attribute {
      name: "strides"
      ints: 1
      ints: 1
      type: INTS
    }
  }
  node {
    input: "907"
    input: "913"
    output: "914"
    op_type: "Concat"
    attribute {
      name: "axis"
      i: 1
      type: INT
    }
  }
  node {
    input: "914"
    input: "319"
    input: "320"
    input: "321"
    input: "322"
    output: "915"
    op_type: "BatchNormalization"
    attribute {
      name: "consumed_inputs"
      ints: 0
      ints: 0
      ints: 0
      ints: 1
      ints: 1
      type: INTS
    }
    attribute {
      name: "epsilon"
      f: 9.99999974737875e-06
      type: FLOAT
    }
    attribute {
      name: "is_test"
      i: 1
      type: INT
    }
    attribute {
      name: "momentum"
      f: 1
      type: FLOAT
    }
  }
  node {
    input: "915"
    output: "916"
    op_type: "Relu"
  }
  node {
    input: "916"
    input: "324"
    output: "917"
    op_type: "Conv"
    attribute {
      name: "dilations"
      ints: 1
      ints: 1
      type: INTS
    }
    attribute {
      name: "group"
      i: 1
      type: INT
    }
    attribute {
      name: "kernel_shape"
      ints: 1
      ints: 1
      type: INTS
    }
    attribute {
      name: "pads"
      ints: 0
      ints: 0
      ints: 0
      ints: 0
      type: INTS
    }
    attribute {
      name: "strides"
      ints: 1
      ints: 1
      type: INTS
    }
  }
  node {
    input: "917"
    input: "325"
    input: "326"
    input: "327"
    input: "328"
    output: "918"
    op_type: "BatchNormalization"
    attribute {
      name: "consumed_inputs"
      ints: 0
      ints: 0
      ints: 0
      ints: 1
      ints: 1
      type: INTS
    }
    attribute {
      name: "epsilon"
      f: 9.99999974737875e-06
      type: FLOAT
    }
    attribute {
      name: "is_test"
      i: 1
      type: INT
    }
    attribute {
      name: "momentum"
      f: 1
      type: FLOAT
    }
  }
  node {
    input: "918"
    output: "919"
    op_type: "Relu"
  }
  node {
    input: "919"
    input: "330"
    output: "920"
    op_type: "Conv"
    attribute {
      name: "dilations"
      ints: 1
      ints: 1
      type: INTS
    }
    attribute {
      name: "group"
      i: 1
      type: INT
    }
    attribute {
      name: "kernel_shape"
      ints: 3
      ints: 3
      type: INTS
    }
    attribute {
      name: "pads"
      ints: 1
      ints: 1
      ints: 1
      ints: 1
      type: INTS
    }
    attribute {
      name: "strides"
      ints: 1
      ints: 1
      type: INTS
    }
  }
  node {
    input: "914"
    input: "920"
    output: "921"
    op_type: "Concat"
    attribute {
      name: "axis"
      i: 1
      type: INT
    }
  }
  node {
    input: "921"
    input: "331"
    input: "332"
    input: "333"
    input: "334"
    output: "922"
    op_type: "BatchNormalization"
    attribute {
      name: "consumed_inputs"
      ints: 0
      ints: 0
      ints: 0
      ints: 1
      ints: 1
      type: INTS
    }
    attribute {
      name: "epsilon"
      f: 9.99999974737875e-06
      type: FLOAT
    }
    attribute {
      name: "is_test"
      i: 1
      type: INT
    }
    attribute {
      name: "momentum"
      f: 1
      type: FLOAT
    }
  }
  node {
    input: "922"
    output: "923"
    op_type: "Relu"
  }
  node {
    input: "923"
    input: "336"
    output: "924"
    op_type: "Conv"
    attribute {
      name: "dilations"
      ints: 1
      ints: 1
      type: INTS
    }
    attribute {
      name: "group"
      i: 1
      type: INT
    }
    attribute {
      name: "kernel_shape"
      ints: 1
      ints: 1
      type: INTS
    }
    attribute {
      name: "pads"
      ints: 0
      ints: 0
      ints: 0
      ints: 0
      type: INTS
    }
    attribute {
      name: "strides"
      ints: 1
      ints: 1
      type: INTS
    }
  }
  node {
    input: "924"
    input: "337"
    input: "338"
    input: "339"
    input: "340"
    output: "925"
    op_type: "BatchNormalization"
    attribute {
      name: "consumed_inputs"
      ints: 0
      ints: 0
      ints: 0
      ints: 1
      ints: 1
      type: INTS
    }
    attribute {
      name: "epsilon"
      f: 9.99999974737875e-06
      type: FLOAT
    }
    attribute {
      name: "is_test"
      i: 1
      type: INT
    }
    attribute {
      name: "momentum"
      f: 1
      type: FLOAT
    }
  }
  node {
    input: "925"
    output: "926"
    op_type: "Relu"
  }
  node {
    input: "926"
    input: "342"
    output: "927"
    op_type: "Conv"
    attribute {
      name: "dilations"
      ints: 1
      ints: 1
      type: INTS
    }
    attribute {
      name: "group"
      i: 1
      type: INT
    }
    attribute {
      name: "kernel_shape"
      ints: 3
      ints: 3
      type: INTS
    }
    attribute {
      name: "pads"
      ints: 1
      ints: 1
      ints: 1
      ints: 1
      type: INTS
    }
    attribute {
      name: "strides"
      ints: 1
      ints: 1
      type: INTS
    }
  }
  node {
    input: "921"
    input: "927"
    output: "928"
    op_type: "Concat"
    attribute {
      name: "axis"
      i: 1
      type: INT
    }
  }
  node {
    input: "928"
    input: "343"
    input: "344"
    input: "345"
    input: "346"
    output: "929"
    op_type: "BatchNormalization"
    attribute {
      name: "consumed_inputs"
      ints: 0
      ints: 0
      ints: 0
      ints: 1
      ints: 1
      type: INTS
    }
    attribute {
      name: "epsilon"
      f: 9.99999974737875e-06
      type: FLOAT
    }
    attribute {
      name: "is_test"
      i: 1
      type: INT
    }
    attribute {
      name: "momentum"
      f: 1
      type: FLOAT
    }
  }
  node {
    input: "929"
    output: "930"
    op_type: "Relu"
  }
  node {
    input: "930"
    input: "348"
    output: "931"
    op_type: "Conv"
    attribute {
      name: "dilations"
      ints: 1
      ints: 1
      type: INTS
    }
    attribute {
      name: "group"
      i: 1
      type: INT
    }
    attribute {
      name: "kernel_shape"
      ints: 1
      ints: 1
      type: INTS
    }
    attribute {
      name: "pads"
      ints: 0
      ints: 0
      ints: 0
      ints: 0
      type: INTS
    }
    attribute {
      name: "strides"
      ints: 1
      ints: 1
      type: INTS
    }
  }
  node {
    input: "931"
    input: "349"
    input: "350"
    input: "351"
    input: "352"
    output: "932"
    op_type: "BatchNormalization"
    attribute {
      name: "consumed_inputs"
      ints: 0
      ints: 0
      ints: 0
      ints: 1
      ints: 1
      type: INTS
    }
    attribute {
      name: "epsilon"
      f: 9.99999974737875e-06
      type: FLOAT
    }
    attribute {
      name: "is_test"
      i: 1
      type: INT
    }
    attribute {
      name: "momentum"
      f: 1
      type: FLOAT
    }
  }
  node {
    input: "932"
    output: "933"
    op_type: "Relu"
  }
  node {
    input: "933"
    input: "354"
    output: "934"
    op_type: "Conv"
    attribute {
      name: "dilations"
      ints: 1
      ints: 1
      type: INTS
    }
    attribute {
      name: "group"
      i: 1
      type: INT
    }
    attribute {
      name: "kernel_shape"
      ints: 3
      ints: 3
      type: INTS
    }
    attribute {
      name: "pads"
      ints: 1
      ints: 1
      ints: 1
      ints: 1
      type: INTS
    }
    attribute {
      name: "strides"
      ints: 1
      ints: 1
      type: INTS
    }
  }
  node {
    input: "928"
    input: "934"
    output: "935"
    op_type: "Concat"
    attribute {
      name: "axis"
      i: 1
      type: INT
    }
  }
  node {
    input: "935"
    input: "355"
    input: "356"
    input: "357"
    input: "358"
    output: "936"
    op_type: "BatchNormalization"
    attribute {
      name: "consumed_inputs"
      ints: 0
      ints: 0
      ints: 0
      ints: 1
      ints: 1
      type: INTS
    }
    attribute {
      name: "epsilon"
      f: 9.99999974737875e-06
      type: FLOAT
    }
    attribute {
      name: "is_test"
      i: 1
      type: INT
    }
    attribute {
      name: "momentum"
      f: 1
      type: FLOAT
    }
  }
  node {
    input: "936"
    output: "937"
    op_type: "Relu"
  }
  node {
    input: "937"
    input: "360"
    output: "938"
    op_type: "Conv"
    attribute {
      name: "dilations"
      ints: 1
      ints: 1
      type: INTS
    }
    attribute {
      name: "group"
      i: 1
      type: INT
    }
    attribute {
      name: "kernel_shape"
      ints: 1
      ints: 1
      type: INTS
    }
    attribute {
      name: "pads"
      ints: 0
      ints: 0
      ints: 0
      ints: 0
      type: INTS
    }
    attribute {
      name: "strides"
      ints: 1
      ints: 1
      type: INTS
    }
  }
  node {
    input: "938"
    input: "361"
    input: "362"
    input: "363"
    input: "364"
    output: "939"
    op_type: "BatchNormalization"
    attribute {
      name: "consumed_inputs"
      ints: 0
      ints: 0
      ints: 0
      ints: 1
      ints: 1
      type: INTS
    }
    attribute {
      name: "epsilon"
      f: 9.99999974737875e-06
      type: FLOAT
    }
    attribute {
      name: "is_test"
      i: 1
      type: INT
    }
    attribute {
      name: "momentum"
      f: 1
      type: FLOAT
    }
  }
  node {
    input: "939"
    output: "940"
    op_type: "Relu"
  }
  node {
    input: "940"
    input: "366"
    output: "941"
    op_type: "Conv"
    attribute {
      name: "dilations"
      ints: 1
      ints: 1
      type: INTS
    }
    attribute {
      name: "group"
      i: 1
      type: INT
    }
    attribute {
      name: "kernel_shape"
      ints: 3
      ints: 3
      type: INTS
    }
    attribute {
      name: "pads"
      ints: 1
      ints: 1
      ints: 1
      ints: 1
      type: INTS
    }
    attribute {
      name: "strides"
      ints: 1
      ints: 1
      type: INTS
    }
  }
  node {
    input: "935"
    input: "941"
    output: "942"
    op_type: "Concat"
    attribute {
      name: "axis"
      i: 1
      type: INT
    }
  }
  node {
    input: "942"
    input: "367"
    input: "368"
    input: "369"
    input: "370"
    output: "943"
    op_type: "BatchNormalization"
    attribute {
      name: "consumed_inputs"
      ints: 0
      ints: 0
      ints: 0
      ints: 1
      ints: 1
      type: INTS
    }
    attribute {
      name: "epsilon"
      f: 9.99999974737875e-06
      type: FLOAT
    }
    attribute {
      name: "is_test"
      i: 1
      type: INT
    }
    attribute {
      name: "momentum"
      f: 1
      type: FLOAT
    }
  }
  node {
    input: "943"
    output: "944"
    op_type: "Relu"
  }
  node {
    input: "944"
    input: "372"
    output: "945"
    op_type: "Conv"
    attribute {
      name: "dilations"
      ints: 1
      ints: 1
      type: INTS
    }
    attribute {
      name: "group"
      i: 1
      type: INT
    }
    attribute {
      name: "kernel_shape"
      ints: 1
      ints: 1
      type: INTS
    }
    attribute {
      name: "pads"
      ints: 0
      ints: 0
      ints: 0
      ints: 0
      type: INTS
    }
    attribute {
      name: "strides"
      ints: 1
      ints: 1
      type: INTS
    }
  }
  node {
    input: "945"
    input: "373"
    input: "374"
    input: "375"
    input: "376"
    output: "946"
    op_type: "BatchNormalization"
    attribute {
      name: "consumed_inputs"
      ints: 0
      ints: 0
      ints: 0
      ints: 1
      ints: 1
      type: INTS
    }
    attribute {
      name: "epsilon"
      f: 9.99999974737875e-06
      type: FLOAT
    }
    attribute {
      name: "is_test"
      i: 1
      type: INT
    }
    attribute {
      name: "momentum"
      f: 1
      type: FLOAT
    }
  }
  node {
    input: "946"
    output: "947"
    op_type: "Relu"
  }
  node {
    input: "947"
    input: "378"
    output: "948"
    op_type: "Conv"
    attribute {
      name: "dilations"
      ints: 1
      ints: 1
      type: INTS
    }
    attribute {
      name: "group"
      i: 1
      type: INT
    }
    attribute {
      name: "kernel_shape"
      ints: 3
      ints: 3
      type: INTS
    }
    attribute {
      name: "pads"
      ints: 1
      ints: 1
      ints: 1
      ints: 1
      type: INTS
    }
    attribute {
      name: "strides"
      ints: 1
      ints: 1
      type: INTS
    }
  }
  node {
    input: "942"
    input: "948"
    output: "949"
    op_type: "Concat"
    attribute {
      name: "axis"
      i: 1
      type: INT
    }
  }
  node {
    input: "949"
    input: "379"
    input: "380"
    input: "381"
    input: "382"
    output: "950"
    op_type: "BatchNormalization"
    attribute {
      name: "consumed_inputs"
      ints: 0
      ints: 0
      ints: 0
      ints: 1
      ints: 1
      type: INTS
    }
    attribute {
      name: "epsilon"
      f: 9.99999974737875e-06
      type: FLOAT
    }
    attribute {
      name: "is_test"
      i: 1
      type: INT
    }
    attribute {
      name: "momentum"
      f: 1
      type: FLOAT
    }
  }
  node {
    input: "950"
    output: "951"
    op_type: "Relu"
  }
  node {
    input: "951"
    input: "384"
    output: "952"
    op_type: "Conv"
    attribute {
      name: "dilations"
      ints: 1
      ints: 1
      type: INTS
    }
    attribute {
      name: "group"
      i: 1
      type: INT
    }
    attribute {
      name: "kernel_shape"
      ints: 1
      ints: 1
      type: INTS
    }
    attribute {
      name: "pads"
      ints: 0
      ints: 0
      ints: 0
      ints: 0
      type: INTS
    }
    attribute {
      name: "strides"
      ints: 1
      ints: 1
      type: INTS
    }
  }
  node {
    input: "952"
    input: "385"
    input: "386"
    input: "387"
    input: "388"
    output: "953"
    op_type: "BatchNormalization"
    attribute {
      name: "consumed_inputs"
      ints: 0
      ints: 0
      ints: 0
      ints: 1
      ints: 1
      type: INTS
    }
    attribute {
      name: "epsilon"
      f: 9.99999974737875e-06
      type: FLOAT
    }
    attribute {
      name: "is_test"
      i: 1
      type: INT
    }
    attribute {
      name: "momentum"
      f: 1
      type: FLOAT
    }
  }
  node {
    input: "953"
    output: "954"
    op_type: "Relu"
  }
  node {
    input: "954"
    input: "390"
    output: "955"
    op_type: "Conv"
    attribute {
      name: "dilations"
      ints: 1
      ints: 1
      type: INTS
    }
    attribute {
      name: "group"
      i: 1
      type: INT
    }
    attribute {
      name: "kernel_shape"
      ints: 3
      ints: 3
      type: INTS
    }
    attribute {
      name: "pads"
      ints: 1
      ints: 1
      ints: 1
      ints: 1
      type: INTS
    }
    attribute {
      name: "strides"
      ints: 1
      ints: 1
      type: INTS
    }
  }
  node {
    input: "949"
    input: "955"
    output: "956"
    op_type: "Concat"
    attribute {
      name: "axis"
      i: 1
      type: INT
    }
  }
  node {
    input: "956"
    input: "391"
    input: "392"
    input: "393"
    input: "394"
    output: "957"
    op_type: "BatchNormalization"
    attribute {
      name: "consumed_inputs"
      ints: 0
      ints: 0
      ints: 0
      ints: 1
      ints: 1
      type: INTS
    }
    attribute {
      name: "epsilon"
      f: 9.99999974737875e-06
      type: FLOAT
    }
    attribute {
      name: "is_test"
      i: 1
      type: INT
    }
    attribute {
      name: "momentum"
      f: 1
      type: FLOAT
    }
  }
  node {
    input: "957"
    output: "958"
    op_type: "Relu"
  }
  node {
    input: "958"
    input: "396"
    output: "959"
    op_type: "Conv"
    attribute {
      name: "dilations"
      ints: 1
      ints: 1
      type: INTS
    }
    attribute {
      name: "group"
      i: 1
      type: INT
    }
    attribute {
      name: "kernel_shape"
      ints: 1
      ints: 1
      type: INTS
    }
    attribute {
      name: "pads"
      ints: 0
      ints: 0
      ints: 0
      ints: 0
      type: INTS
    }
    attribute {
      name: "strides"
      ints: 1
      ints: 1
      type: INTS
    }
  }
  node {
    input: "959"
    input: "397"
    input: "398"
    input: "399"
    input: "400"
    output: "960"
    op_type: "BatchNormalization"
    attribute {
      name: "consumed_inputs"
      ints: 0
      ints: 0
      ints: 0
      ints: 1
      ints: 1
      type: INTS
    }
    attribute {
      name: "epsilon"
      f: 9.99999974737875e-06
      type: FLOAT
    }
    attribute {
      name: "is_test"
      i: 1
      type: INT
    }
    attribute {
      name: "momentum"
      f: 1
      type: FLOAT
    }
  }
  node {
    input: "960"
    output: "961"
    op_type: "Relu"
  }
  node {
    input: "961"
    input: "402"
    output: "962"
    op_type: "Conv"
    attribute {
      name: "dilations"
      ints: 1
      ints: 1
      type: INTS
    }
    attribute {
      name: "group"
      i: 1
      type: INT
    }
    attribute {
      name: "kernel_shape"
      ints: 3
      ints: 3
      type: INTS
    }
    attribute {
      name: "pads"
      ints: 1
      ints: 1
      ints: 1
      ints: 1
      type: INTS
    }
    attribute {
      name: "strides"
      ints: 1
      ints: 1
      type: INTS
    }
  }
  node {
    input: "956"
    input: "962"
    output: "963"
    op_type: "Concat"
    attribute {
      name: "axis"
      i: 1
      type: INT
    }
  }
  node {
    input: "963"
    input: "403"
    input: "404"
    input: "405"
    input: "406"
    output: "964"
    op_type: "BatchNormalization"
    attribute {
      name: "consumed_inputs"
      ints: 0
      ints: 0
      ints: 0
      ints: 1
      ints: 1
      type: INTS
    }
    attribute {
      name: "epsilon"
      f: 9.99999974737875e-06
      type: FLOAT
    }
    attribute {
      name: "is_test"
      i: 1
      type: INT
    }
    attribute {
      name: "momentum"
      f: 1
      type: FLOAT
    }
  }
  node {
    input: "964"
    output: "965"
    op_type: "Relu"
  }
  node {
    input: "965"
    input: "408"
    output: "966"
    op_type: "Conv"
    attribute {
      name: "dilations"
      ints: 1
      ints: 1
      type: INTS
    }
    attribute {
      name: "group"
      i: 1
      type: INT
    }
    attribute {
      name: "kernel_shape"
      ints: 1
      ints: 1
      type: INTS
    }
    attribute {
      name: "pads"
      ints: 0
      ints: 0
      ints: 0
      ints: 0
      type: INTS
    }
    attribute {
      name: "strides"
      ints: 1
      ints: 1
      type: INTS
    }
  }
  node {
    input: "966"
    input: "409"
    input: "410"
    input: "411"
    input: "412"
    output: "967"
    op_type: "BatchNormalization"
    attribute {
      name: "consumed_inputs"
      ints: 0
      ints: 0
      ints: 0
      ints: 1
      ints: 1
      type: INTS
    }
    attribute {
      name: "epsilon"
      f: 9.99999974737875e-06
      type: FLOAT
    }
    attribute {
      name: "is_test"
      i: 1
      type: INT
    }
    attribute {
      name: "momentum"
      f: 1
      type: FLOAT
    }
  }
  node {
    input: "967"
    output: "968"
    op_type: "Relu"
  }
  node {
    input: "968"
    input: "414"
    output: "969"
    op_type: "Conv"
    attribute {
      name: "dilations"
      ints: 1
      ints: 1
      type: INTS
    }
    attribute {
      name: "group"
      i: 1
      type: INT
    }
    attribute {
      name: "kernel_shape"
      ints: 3
      ints: 3
      type: INTS
    }
    attribute {
      name: "pads"
      ints: 1
      ints: 1
      ints: 1
      ints: 1
      type: INTS
    }
    attribute {
      name: "strides"
      ints: 1
      ints: 1
      type: INTS
    }
  }
  node {
    input: "963"
    input: "969"
    output: "970"
    op_type: "Concat"
    attribute {
      name: "axis"
      i: 1
      type: INT
    }
  }
  node {
    input: "970"
    input: "415"
    input: "416"
    input: "417"
    input: "418"
    output: "971"
    op_type: "BatchNormalization"
    attribute {
      name: "consumed_inputs"
      ints: 0
      ints: 0
      ints: 0
      ints: 1
      ints: 1
      type: INTS
    }
    attribute {
      name: "epsilon"
      f: 9.99999974737875e-06
      type: FLOAT
    }
    attribute {
      name: "is_test"
      i: 1
      type: INT
    }
    attribute {
      name: "momentum"
      f: 1
      type: FLOAT
    }
  }
  node {
    input: "971"
    output: "972"
    op_type: "Relu"
  }
  node {
    input: "972"
    input: "420"
    output: "973"
    op_type: "Conv"
    attribute {
      name: "dilations"
      ints: 1
      ints: 1
      type: INTS
    }
    attribute {
      name: "group"
      i: 1
      type: INT
    }
    attribute {
      name: "kernel_shape"
      ints: 1
      ints: 1
      type: INTS
    }
    attribute {
      name: "pads"
      ints: 0
      ints: 0
      ints: 0
      ints: 0
      type: INTS
    }
    attribute {
      name: "strides"
      ints: 1
      ints: 1
      type: INTS
    }
  }
  node {
    input: "973"
    input: "421"
    input: "422"
    input: "423"
    input: "424"
    output: "974"
    op_type: "BatchNormalization"
    attribute {
      name: "consumed_inputs"
      ints: 0
      ints: 0
      ints: 0
      ints: 1
      ints: 1
      type: INTS
    }
    attribute {
      name: "epsilon"
      f: 9.99999974737875e-06
      type: FLOAT
    }
    attribute {
      name: "is_test"
      i: 1
      type: INT
    }
    attribute {
      name: "momentum"
      f: 1
      type: FLOAT
    }
  }
  node {
    input: "974"
    output: "975"
    op_type: "Relu"
  }
  node {
    input: "975"
    input: "426"
    output: "976"
    op_type: "Conv"
    attribute {
      name: "dilations"
      ints: 1
      ints: 1
      type: INTS
    }
    attribute {
      name: "group"
      i: 1
      type: INT
    }
    attribute {
      name: "kernel_shape"
      ints: 3
      ints: 3
      type: INTS
    }
    attribute {
      name: "pads"
      ints: 1
      ints: 1
      ints: 1
      ints: 1
      type: INTS
    }
    attribute {
      name: "strides"
      ints: 1
      ints: 1
      type: INTS
    }
  }
  node {
    input: "970"
    input: "976"
    output: "977"
    op_type: "Concat"
    attribute {
      name: "axis"
      i: 1
      type: INT
    }
  }
  node {
    input: "977"
    input: "427"
    input: "428"
    input: "429"
    input: "430"
    output: "978"
    op_type: "BatchNormalization"
    attribute {
      name: "consumed_inputs"
      ints: 0
      ints: 0
      ints: 0
      ints: 1
      ints: 1
      type: INTS
    }
    attribute {
      name: "epsilon"
      f: 9.99999974737875e-06
      type: FLOAT
    }
    attribute {
      name: "is_test"
      i: 1
      type: INT
    }
    attribute {
      name: "momentum"
      f: 1
      type: FLOAT
    }
  }
  node {
    input: "978"
    output: "979"
    op_type: "Relu"
  }
  node {
    input: "979"
    input: "432"
    output: "980"
    op_type: "Conv"
    attribute {
      name: "dilations"
      ints: 1
      ints: 1
      type: INTS
    }
    attribute {
      name: "group"
      i: 1
      type: INT
    }
    attribute {
      name: "kernel_shape"
      ints: 1
      ints: 1
      type: INTS
    }
    attribute {
      name: "pads"
      ints: 0
      ints: 0
      ints: 0
      ints: 0
      type: INTS
    }
    attribute {
      name: "strides"
      ints: 1
      ints: 1
      type: INTS
    }
  }
  node {
    input: "980"
    input: "433"
    input: "434"
    input: "435"
    input: "436"
    output: "981"
    op_type: "BatchNormalization"
    attribute {
      name: "consumed_inputs"
      ints: 0
      ints: 0
      ints: 0
      ints: 1
      ints: 1
      type: INTS
    }
    attribute {
      name: "epsilon"
      f: 9.99999974737875e-06
      type: FLOAT
    }
    attribute {
      name: "is_test"
      i: 1
      type: INT
    }
    attribute {
      name: "momentum"
      f: 1
      type: FLOAT
    }
  }
  node {
    input: "981"
    output: "982"
    op_type: "Relu"
  }
  node {
    input: "982"
    input: "438"
    output: "983"
    op_type: "Conv"
    attribute {
      name: "dilations"
      ints: 1
      ints: 1
      type: INTS
    }
    attribute {
      name: "group"
      i: 1
      type: INT
    }
    attribute {
      name: "kernel_shape"
      ints: 3
      ints: 3
      type: INTS
    }
    attribute {
      name: "pads"
      ints: 1
      ints: 1
      ints: 1
      ints: 1
      type: INTS
    }
    attribute {
      name: "strides"
      ints: 1
      ints: 1
      type: INTS
    }
  }
  node {
    input: "977"
    input: "983"
    output: "984"
    op_type: "Concat"
    attribute {
      name: "axis"
      i: 1
      type: INT
    }
  }
  node {
    input: "984"
    input: "439"
    input: "440"
    input: "441"
    input: "442"
    output: "985"
    op_type: "BatchNormalization"
    attribute {
      name: "consumed_inputs"
      ints: 0
      ints: 0
      ints: 0
      ints: 1
      ints: 1
      type: INTS
    }
    attribute {
      name: "epsilon"
      f: 9.99999974737875e-06
      type: FLOAT
    }
    attribute {
      name: "is_test"
      i: 1
      type: INT
    }
    attribute {
      name: "momentum"
      f: 1
      type: FLOAT
    }
  }
  node {
    input: "985"
    output: "986"
    op_type: "Relu"
  }
  node {
    input: "986"
    input: "444"
    output: "987"
    op_type: "Conv"
    attribute {
      name: "dilations"
      ints: 1
      ints: 1
      type: INTS
    }
    attribute {
      name: "group"
      i: 1
      type: INT
    }
    attribute {
      name: "kernel_shape"
      ints: 1
      ints: 1
      type: INTS
    }
    attribute {
      name: "pads"
      ints: 0
      ints: 0
      ints: 0
      ints: 0
      type: INTS
    }
    attribute {
      name: "strides"
      ints: 1
      ints: 1
      type: INTS
    }
  }
  node {
    input: "987"
    input: "445"
    input: "446"
    input: "447"
    input: "448"
    output: "988"
    op_type: "BatchNormalization"
    attribute {
      name: "consumed_inputs"
      ints: 0
      ints: 0
      ints: 0
      ints: 1
      ints: 1
      type: INTS
    }
    attribute {
      name: "epsilon"
      f: 9.99999974737875e-06
      type: FLOAT
    }
    attribute {
      name: "is_test"
      i: 1
      type: INT
    }
    attribute {
      name: "momentum"
      f: 1
      type: FLOAT
    }
  }
  node {
    input: "988"
    output: "989"
    op_type: "Relu"
  }
  node {
    input: "989"
    input: "450"
    output: "990"
    op_type: "Conv"
    attribute {
      name: "dilations"
      ints: 1
      ints: 1
      type: INTS
    }
    attribute {
      name: "group"
      i: 1
      type: INT
    }
    attribute {
      name: "kernel_shape"
      ints: 3
      ints: 3
      type: INTS
    }
    attribute {
      name: "pads"
      ints: 1
      ints: 1
      ints: 1
      ints: 1
      type: INTS
    }
    attribute {
      name: "strides"
      ints: 1
      ints: 1
      type: INTS
    }
  }
  node {
    input: "984"
    input: "990"
    output: "991"
    op_type: "Concat"
    attribute {
      name: "axis"
      i: 1
      type: INT
    }
  }
  node {
    input: "991"
    input: "451"
    input: "452"
    input: "453"
    input: "454"
    output: "992"
    op_type: "BatchNormalization"
    attribute {
      name: "consumed_inputs"
      ints: 0
      ints: 0
      ints: 0
      ints: 1
      ints: 1
      type: INTS
    }
    attribute {
      name: "epsilon"
      f: 9.99999974737875e-06
      type: FLOAT
    }
    attribute {
      name: "is_test"
      i: 1
      type: INT
    }
    attribute {
      name: "momentum"
      f: 1
      type: FLOAT
    }
  }
  node {
    input: "992"
    output: "993"
    op_type: "Relu"
  }
  node {
    input: "993"
    input: "456"
    output: "994"
    op_type: "Conv"
    attribute {
      name: "dilations"
      ints: 1
      ints: 1
      type: INTS
    }
    attribute {
      name: "group"
      i: 1
      type: INT
    }
    attribute {
      name: "kernel_shape"
      ints: 1
      ints: 1
      type: INTS
    }
    attribute {
      name: "pads"
      ints: 0
      ints: 0
      ints: 0
      ints: 0
      type: INTS
    }
    attribute {
      name: "strides"
      ints: 1
      ints: 1
      type: INTS
    }
  }
  node {
    input: "994"
    input: "457"
    input: "458"
    input: "459"
    input: "460"
    output: "995"
    op_type: "BatchNormalization"
    attribute {
      name: "consumed_inputs"
      ints: 0
      ints: 0
      ints: 0
      ints: 1
      ints: 1
      type: INTS
    }
    attribute {
      name: "epsilon"
      f: 9.99999974737875e-06
      type: FLOAT
    }
    attribute {
      name: "is_test"
      i: 1
      type: INT
    }
    attribute {
      name: "momentum"
      f: 1
      type: FLOAT
    }
  }
  node {
    input: "995"
    output: "996"
    op_type: "Relu"
  }
  node {
    input: "996"
    input: "462"
    output: "997"
    op_type: "Conv"
    attribute {
      name: "dilations"
      ints: 1
      ints: 1
      type: INTS
    }
    attribute {
      name: "group"
      i: 1
      type: INT
    }
    attribute {
      name: "kernel_shape"
      ints: 3
      ints: 3
      type: INTS
    }
    attribute {
      name: "pads"
      ints: 1
      ints: 1
      ints: 1
      ints: 1
      type: INTS
    }
    attribute {
      name: "strides"
      ints: 1
      ints: 1
      type: INTS
    }
  }
  node {
    input: "991"
    input: "997"
    output: "998"
    op_type: "Concat"
    attribute {
      name: "axis"
      i: 1
      type: INT
    }
  }
  node {
    input: "998"
    input: "463"
    input: "464"
    input: "465"
    input: "466"
    output: "999"
    op_type: "BatchNormalization"
    attribute {
      name: "consumed_inputs"
      ints: 0
      ints: 0
      ints: 0
      ints: 1
      ints: 1
      type: INTS
    }
    attribute {
      name: "epsilon"
      f: 9.99999974737875e-06
      type: FLOAT
    }
    attribute {
      name: "is_test"
      i: 1
      type: INT
    }
    attribute {
      name: "momentum"
      f: 1
      type: FLOAT
    }
  }
  node {
    input: "999"
    output: "1000"
    op_type: "Relu"
  }
  node {
    input: "1000"
    input: "468"
    output: "1001"
    op_type: "Conv"
    attribute {
      name: "dilations"
      ints: 1
      ints: 1
      type: INTS
    }
    attribute {
      name: "group"
      i: 1
      type: INT
    }
    attribute {
      name: "kernel_shape"
      ints: 1
      ints: 1
      type: INTS
    }
    attribute {
      name: "pads"
      ints: 0
      ints: 0
      ints: 0
      ints: 0
      type: INTS
    }
    attribute {
      name: "strides"
      ints: 1
      ints: 1
      type: INTS
    }
  }
  node {
    input: "1001"
    input: "469"
    input: "470"
    input: "471"
    input: "472"
    output: "1002"
    op_type: "BatchNormalization"
    attribute {
      name: "consumed_inputs"
      ints: 0
      ints: 0
      ints: 0
      ints: 1
      ints: 1
      type: INTS
    }
    attribute {
      name: "epsilon"
      f: 9.99999974737875e-06
      type: FLOAT
    }
    attribute {
      name: "is_test"
      i: 1
      type: INT
    }
    attribute {
      name: "momentum"
      f: 1
      type: FLOAT
    }
  }
  node {
    input: "1002"
    output: "1003"
    op_type: "Relu"
  }
  node {
    input: "1003"
    input: "474"
    output: "1004"
    op_type: "Conv"
    attribute {
      name: "dilations"
      ints: 1
      ints: 1
      type: INTS
    }
    attribute {
      name: "group"
      i: 1
      type: INT
    }
    attribute {
      name: "kernel_shape"
      ints: 3
      ints: 3
      type: INTS
    }
    attribute {
      name: "pads"
      ints: 1
      ints: 1
      ints: 1
      ints: 1
      type: INTS
    }
    attribute {
      name: "strides"
      ints: 1
      ints: 1
      type: INTS
    }
  }
  node {
    input: "998"
    input: "1004"
    output: "1005"
    op_type: "Concat"
    attribute {
      name: "axis"
      i: 1
      type: INT
    }
  }
  node {
    input: "1005"
    input: "475"
    input: "476"
    input: "477"
    input: "478"
    output: "1006"
    op_type: "BatchNormalization"
    attribute {
      name: "consumed_inputs"
      ints: 0
      ints: 0
      ints: 0
      ints: 1
      ints: 1
      type: INTS
    }
    attribute {
      name: "epsilon"
      f: 9.99999974737875e-06
      type: FLOAT
    }
    attribute {
      name: "is_test"
      i: 1
      type: INT
    }
    attribute {
      name: "momentum"
      f: 1
      type: FLOAT
    }
  }
  node {
    input: "1006"
    output: "1007"
    op_type: "Relu"
  }
  node {
    input: "1007"
    input: "480"
    output: "1008"
    op_type: "Conv"
    attribute {
      name: "dilations"
      ints: 1
      ints: 1
      type: INTS
    }
    attribute {
      name: "group"
      i: 1
      type: INT
    }
    attribute {
      name: "kernel_shape"
      ints: 1
      ints: 1
      type: INTS
    }
    attribute {
      name: "pads"
      ints: 0
      ints: 0
      ints: 0
      ints: 0
      type: INTS
    }
    attribute {
      name: "strides"
      ints: 1
      ints: 1
      type: INTS
    }
  }
  node {
    input: "1008"
    input: "481"
    input: "482"
    input: "483"
    input: "484"
    output: "1009"
    op_type: "BatchNormalization"
    attribute {
      name: "consumed_inputs"
      ints: 0
      ints: 0
      ints: 0
      ints: 1
      ints: 1
      type: INTS
    }
    attribute {
      name: "epsilon"
      f: 9.99999974737875e-06
      type: FLOAT
    }
    attribute {
      name: "is_test"
      i: 1
      type: INT
    }
    attribute {
      name: "momentum"
      f: 1
      type: FLOAT
    }
  }
  node {
    input: "1009"
    output: "1010"
    op_type: "Relu"
  }
  node {
    input: "1010"
    input: "486"
    output: "1011"
    op_type: "Conv"
    attribute {
      name: "dilations"
      ints: 1
      ints: 1
      type: INTS
    }
    attribute {
      name: "group"
      i: 1
      type: INT
    }
    attribute {
      name: "kernel_shape"
      ints: 3
      ints: 3
      type: INTS
    }
    attribute {
      name: "pads"
      ints: 1
      ints: 1
      ints: 1
      ints: 1
      type: INTS
    }
    attribute {
      name: "strides"
      ints: 1
      ints: 1
      type: INTS
    }
  }
  node {
    input: "1005"
    input: "1011"
    output: "1012"
    op_type: "Concat"
    attribute {
      name: "axis"
      i: 1
      type: INT
    }
  }
  node {
    input: "1012"
    input: "487"
    input: "488"
    input: "489"
    input: "490"
    output: "1013"
    op_type: "BatchNormalization"
    attribute {
      name: "consumed_inputs"
      ints: 0
      ints: 0
      ints: 0
      ints: 1
      ints: 1
      type: INTS
    }
    attribute {
      name: "epsilon"
      f: 9.99999974737875e-06
      type: FLOAT
    }
    attribute {
      name: "is_test"
      i: 1
      type: INT
    }
    attribute {
      name: "momentum"
      f: 1
      type: FLOAT
    }
  }
  node {
    input: "1013"
    output: "1014"
    op_type: "Relu"
  }
  node {
    input: "1014"
    input: "492"
    output: "1015"
    op_type: "Conv"
    attribute {
      name: "dilations"
      ints: 1
      ints: 1
      type: INTS
    }
    attribute {
      name: "group"
      i: 1
      type: INT
    }
    attribute {
      name: "kernel_shape"
      ints: 1
      ints: 1
      type: INTS
    }
    attribute {
      name: "pads"
      ints: 0
      ints: 0
      ints: 0
      ints: 0
      type: INTS
    }
    attribute {
      name: "strides"
      ints: 1
      ints: 1
      type: INTS
    }
  }
  node {
    input: "1015"
    input: "493"
    input: "494"
    input: "495"
    input: "496"
    output: "1016"
    op_type: "BatchNormalization"
    attribute {
      name: "consumed_inputs"
      ints: 0
      ints: 0
      ints: 0
      ints: 1
      ints: 1
      type: INTS
    }
    attribute {
      name: "epsilon"
      f: 9.99999974737875e-06
      type: FLOAT
    }
    attribute {
      name: "is_test"
      i: 1
      type: INT
    }
    attribute {
      name: "momentum"
      f: 1
      type: FLOAT
    }
  }
  node {
    input: "1016"
    output: "1017"
    op_type: "Relu"
  }
  node {
    input: "1017"
    input: "498"
    output: "1018"
    op_type: "Conv"
    attribute {
      name: "dilations"
      ints: 1
      ints: 1
      type: INTS
    }
    attribute {
      name: "group"
      i: 1
      type: INT
    }
    attribute {
      name: "kernel_shape"
      ints: 3
      ints: 3
      type: INTS
    }
    attribute {
      name: "pads"
      ints: 1
      ints: 1
      ints: 1
      ints: 1
      type: INTS
    }
    attribute {
      name: "strides"
      ints: 1
      ints: 1
      type: INTS
    }
  }
  node {
    input: "1012"
    input: "1018"
    output: "1019"
    op_type: "Concat"
    attribute {
      name: "axis"
      i: 1
      type: INT
    }
  }
  node {
    input: "1019"
    input: "499"
    input: "500"
    input: "501"
    input: "502"
    output: "1020"
    op_type: "BatchNormalization"
    attribute {
      name: "consumed_inputs"
      ints: 0
      ints: 0
      ints: 0
      ints: 1
      ints: 1
      type: INTS
    }
    attribute {
      name: "epsilon"
      f: 9.99999974737875e-06
      type: FLOAT
    }
    attribute {
      name: "is_test"
      i: 1
      type: INT
    }
    attribute {
      name: "momentum"
      f: 1
      type: FLOAT
    }
  }
  node {
    input: "1020"
    output: "1021"
    op_type: "Relu"
  }
  node {
    input: "1021"
    input: "504"
    output: "1022"
    op_type: "Conv"
    attribute {
      name: "dilations"
      ints: 1
      ints: 1
      type: INTS
    }
    attribute {
      name: "group"
      i: 1
      type: INT
    }
    attribute {
      name: "kernel_shape"
      ints: 1
      ints: 1
      type: INTS
    }
    attribute {
      name: "pads"
      ints: 0
      ints: 0
      ints: 0
      ints: 0
      type: INTS
    }
    attribute {
      name: "strides"
      ints: 1
      ints: 1
      type: INTS
    }
  }
  node {
    input: "1022"
    input: "505"
    input: "506"
    input: "507"
    input: "508"
    output: "1023"
    op_type: "BatchNormalization"
    attribute {
      name: "consumed_inputs"
      ints: 0
      ints: 0
      ints: 0
      ints: 1
      ints: 1
      type: INTS
    }
    attribute {
      name: "epsilon"
      f: 9.99999974737875e-06
      type: FLOAT
    }
    attribute {
      name: "is_test"
      i: 1
      type: INT
    }
    attribute {
      name: "momentum"
      f: 1
      type: FLOAT
    }
  }
  node {
    input: "1023"
    output: "1024"
    op_type: "Relu"
  }
  node {
    input: "1024"
    input: "510"
    output: "1025"
    op_type: "Conv"
    attribute {
      name: "dilations"
      ints: 1
      ints: 1
      type: INTS
    }
    attribute {
      name: "group"
      i: 1
      type: INT
    }
    attribute {
      name: "kernel_shape"
      ints: 3
      ints: 3
      type: INTS
    }
    attribute {
      name: "pads"
      ints: 1
      ints: 1
      ints: 1
      ints: 1
      type: INTS
    }
    attribute {
      name: "strides"
      ints: 1
      ints: 1
      type: INTS
    }
  }
  node {
    input: "1019"
    input: "1025"
    output: "1026"
    op_type: "Concat"
    attribute {
      name: "axis"
      i: 1
      type: INT
    }
  }
  node {
    input: "1026"
    input: "511"
    input: "512"
    input: "513"
    input: "514"
    output: "1027"
    op_type: "BatchNormalization"
    attribute {
      name: "consumed_inputs"
      ints: 0
      ints: 0
      ints: 0
      ints: 1
      ints: 1
      type: INTS
    }
    attribute {
      name: "epsilon"
      f: 9.99999974737875e-06
      type: FLOAT
    }
    attribute {
      name: "is_test"
      i: 1
      type: INT
    }
    attribute {
      name: "momentum"
      f: 1
      type: FLOAT
    }
  }
  node {
    input: "1027"
    output: "1028"
    op_type: "Relu"
  }
  node {
    input: "1028"
    input: "516"
    output: "1029"
    op_type: "Conv"
    attribute {
      name: "dilations"
      ints: 1
      ints: 1
      type: INTS
    }
    attribute {
      name: "group"
      i: 1
      type: INT
    }
    attribute {
      name: "kernel_shape"
      ints: 1
      ints: 1
      type: INTS
    }
    attribute {
      name: "pads"
      ints: 0
      ints: 0
      ints: 0
      ints: 0
      type: INTS
    }
    attribute {
      name: "strides"
      ints: 1
      ints: 1
      type: INTS
    }
  }
  node {
    input: "1029"
    input: "517"
    input: "518"
    input: "519"
    input: "520"
    output: "1030"
    op_type: "BatchNormalization"
    attribute {
      name: "consumed_inputs"
      ints: 0
      ints: 0
      ints: 0
      ints: 1
      ints: 1
      type: INTS
    }
    attribute {
      name: "epsilon"
      f: 9.99999974737875e-06
      type: FLOAT
    }
    attribute {
      name: "is_test"
      i: 1
      type: INT
    }
    attribute {
      name: "momentum"
      f: 1
      type: FLOAT
    }
  }
  node {
    input: "1030"
    output: "1031"
    op_type: "Relu"
  }
  node {
    input: "1031"
    input: "522"
    output: "1032"
    op_type: "Conv"
    attribute {
      name: "dilations"
      ints: 1
      ints: 1
      type: INTS
    }
    attribute {
      name: "group"
      i: 1
      type: INT
    }
    attribute {
      name: "kernel_shape"
      ints: 3
      ints: 3
      type: INTS
    }
    attribute {
      name: "pads"
      ints: 1
      ints: 1
      ints: 1
      ints: 1
      type: INTS
    }
    attribute {
      name: "strides"
      ints: 1
      ints: 1
      type: INTS
    }
  }
  node {
    input: "1026"
    input: "1032"
    output: "1033"
    op_type: "Concat"
    attribute {
      name: "axis"
      i: 1
      type: INT
    }
  }
  node {
    input: "1033"
    input: "523"
    input: "524"
    input: "525"
    input: "526"
    output: "1034"
    op_type: "BatchNormalization"
    attribute {
      name: "consumed_inputs"
      ints: 0
      ints: 0
      ints: 0
      ints: 1
      ints: 1
      type: INTS
    }
    attribute {
      name: "epsilon"
      f: 9.99999974737875e-06
      type: FLOAT
    }
    attribute {
      name: "is_test"
      i: 1
      type: INT
    }
    attribute {
      name: "momentum"
      f: 1
      type: FLOAT
    }
  }
  node {
    input: "1034"
    output: "1035"
    op_type: "Relu"
  }
  node {
    input: "1035"
    input: "528"
    output: "1036"
    op_type: "Conv"
    attribute {
      name: "dilations"
      ints: 1
      ints: 1
      type: INTS
    }
    attribute {
      name: "group"
      i: 1
      type: INT
    }
    attribute {
      name: "kernel_shape"
      ints: 1
      ints: 1
      type: INTS
    }
    attribute {
      name: "pads"
      ints: 0
      ints: 0
      ints: 0
      ints: 0
      type: INTS
    }
    attribute {
      name: "strides"
      ints: 1
      ints: 1
      type: INTS
    }
  }
  node {
    input: "1036"
    output: "1037"
    op_type: "AveragePool"
    attribute {
      name: "kernel_shape"
      ints: 2
      ints: 2
      type: INTS
    }
    attribute {
      name: "pads"
      ints: 0
      ints: 0
      ints: 0
      ints: 0
      type: INTS
    }
    attribute {
      name: "strides"
      ints: 2
      ints: 2
      type: INTS
    }
  }
  node {
    input: "1037"
    input: "529"
    input: "530"
    input: "531"
    input: "532"
    output: "1038"
    op_type: "BatchNormalization"
    attribute {
      name: "consumed_inputs"
      ints: 0
      ints: 0
      ints: 0
      ints: 1
      ints: 1
      type: INTS
    }
    attribute {
      name: "epsilon"
      f: 9.99999974737875e-06
      type: FLOAT
    }
    attribute {
      name: "is_test"
      i: 1
      type: INT
    }
    attribute {
      name: "momentum"
      f: 1
      type: FLOAT
    }
  }
  node {
    input: "1038"
    output: "1039"
    op_type: "Relu"
  }
  node {
    input: "1039"
    input: "534"
    output: "1040"
    op_type: "Conv"
    attribute {
      name: "dilations"
      ints: 1
      ints: 1
      type: INTS
    }
    attribute {
      name: "group"
      i: 1
      type: INT
    }
    attribute {
      name: "kernel_shape"
      ints: 1
      ints: 1
      type: INTS
    }
    attribute {
      name: "pads"
      ints: 0
      ints: 0
      ints: 0
      ints: 0
      type: INTS
    }
    attribute {
      name: "strides"
      ints: 1
      ints: 1
      type: INTS
    }
  }
  node {
    input: "1040"
    input: "535"
    input: "536"
    input: "537"
    input: "538"
    output: "1041"
    op_type: "BatchNormalization"
    attribute {
      name: "consumed_inputs"
      ints: 0
      ints: 0
      ints: 0
      ints: 1
      ints: 1
      type: INTS
    }
    attribute {
      name: "epsilon"
      f: 9.99999974737875e-06
      type: FLOAT
    }
    attribute {
      name: "is_test"
      i: 1
      type: INT
    }
    attribute {
      name: "momentum"
      f: 1
      type: FLOAT
    }
  }
  node {
    input: "1041"
    output: "1042"
    op_type: "Relu"
  }
  node {
    input: "1042"
    input: "540"
    output: "1043"
    op_type: "Conv"
    attribute {
      name: "dilations"
      ints: 1
      ints: 1
      type: INTS
    }
    attribute {
      name: "group"
      i: 1
      type: INT
    }
    attribute {
      name: "kernel_shape"
      ints: 3
      ints: 3
      type: INTS
    }
    attribute {
      name: "pads"
      ints: 1
      ints: 1
      ints: 1
      ints: 1
      type: INTS
    }
    attribute {
      name: "strides"
      ints: 1
      ints: 1
      type: INTS
    }
  }
  node {
    input: "1037"
    input: "1043"
    output: "1044"
    op_type: "Concat"
    attribute {
      name: "axis"
      i: 1
      type: INT
    }
  }
  node {
    input: "1044"
    input: "541"
    input: "542"
    input: "543"
    input: "544"
    output: "1045"
    op_type: "BatchNormalization"
    attribute {
      name: "consumed_inputs"
      ints: 0
      ints: 0
      ints: 0
      ints: 1
      ints: 1
      type: INTS
    }
    attribute {
      name: "epsilon"
      f: 9.99999974737875e-06
      type: FLOAT
    }
    attribute {
      name: "is_test"
      i: 1
      type: INT
    }
    attribute {
      name: "momentum"
      f: 1
      type: FLOAT
    }
  }
  node {
    input: "1045"
    output: "1046"
    op_type: "Relu"
  }
  node {
    input: "1046"
    input: "546"
    output: "1047"
    op_type: "Conv"
    attribute {
      name: "dilations"
      ints: 1
      ints: 1
      type: INTS
    }
    attribute {
      name: "group"
      i: 1
      type: INT
    }
    attribute {
      name: "kernel_shape"
      ints: 1
      ints: 1
      type: INTS
    }
    attribute {
      name: "pads"
      ints: 0
      ints: 0
      ints: 0
      ints: 0
      type: INTS
    }
    attribute {
      name: "strides"
      ints: 1
      ints: 1
      type: INTS
    }
  }
  node {
    input: "1047"
    input: "547"
    input: "548"
    input: "549"
    input: "550"
    output: "1048"
    op_type: "BatchNormalization"
    attribute {
      name: "consumed_inputs"
      ints: 0
      ints: 0
      ints: 0
      ints: 1
      ints: 1
      type: INTS
    }
    attribute {
      name: "epsilon"
      f: 9.99999974737875e-06
      type: FLOAT
    }
    attribute {
      name: "is_test"
      i: 1
      type: INT
    }
    attribute {
      name: "momentum"
      f: 1
      type: FLOAT
    }
  }
  node {
    input: "1048"
    output: "1049"
    op_type: "Relu"
  }
  node {
    input: "1049"
    input: "552"
    output: "1050"
    op_type: "Conv"
    attribute {
      name: "dilations"
      ints: 1
      ints: 1
      type: INTS
    }
    attribute {
      name: "group"
      i: 1
      type: INT
    }
    attribute {
      name: "kernel_shape"
      ints: 3
      ints: 3
      type: INTS
    }
    attribute {
      name: "pads"
      ints: 1
      ints: 1
      ints: 1
      ints: 1
      type: INTS
    }
    attribute {
      name: "strides"
      ints: 1
      ints: 1
      type: INTS
    }
  }
  node {
    input: "1044"
    input: "1050"
    output: "1051"
    op_type: "Concat"
    attribute {
      name: "axis"
      i: 1
      type: INT
    }
  }
  node {
    input: "1051"
    input: "553"
    input: "554"
    input: "555"
    input: "556"
    output: "1052"
    op_type: "BatchNormalization"
    attribute {
      name: "consumed_inputs"
      ints: 0
      ints: 0
      ints: 0
      ints: 1
      ints: 1
      type: INTS
    }
    attribute {
      name: "epsilon"
      f: 9.99999974737875e-06
      type: FLOAT
    }
    attribute {
      name: "is_test"
      i: 1
      type: INT
    }
    attribute {
      name: "momentum"
      f: 1
      type: FLOAT
    }
  }
  node {
    input: "1052"
    output: "1053"
    op_type: "Relu"
  }
  node {
    input: "1053"
    input: "558"
    output: "1054"
    op_type: "Conv"
    attribute {
      name: "dilations"
      ints: 1
      ints: 1
      type: INTS
    }
    attribute {
      name: "group"
      i: 1
      type: INT
    }
    attribute {
      name: "kernel_shape"
      ints: 1
      ints: 1
      type: INTS
    }
    attribute {
      name: "pads"
      ints: 0
      ints: 0
      ints: 0
      ints: 0
      type: INTS
    }
    attribute {
      name: "strides"
      ints: 1
      ints: 1
      type: INTS
    }
  }
  node {
    input: "1054"
    input: "559"
    input: "560"
    input: "561"
    input: "562"
    output: "1055"
    op_type: "BatchNormalization"
    attribute {
      name: "consumed_inputs"
      ints: 0
      ints: 0
      ints: 0
      ints: 1
      ints: 1
      type: INTS
    }
    attribute {
      name: "epsilon"
      f: 9.99999974737875e-06
      type: FLOAT
    }
    attribute {
      name: "is_test"
      i: 1
      type: INT
    }
    attribute {
      name: "momentum"
      f: 1
      type: FLOAT
    }
  }
  node {
    input: "1055"
    output: "1056"
    op_type: "Relu"
  }
  node {
    input: "1056"
    input: "564"
    output: "1057"
    op_type: "Conv"
    attribute {
      name: "dilations"
      ints: 1
      ints: 1
      type: INTS
    }
    attribute {
      name: "group"
      i: 1
      type: INT
    }
    attribute {
      name: "kernel_shape"
      ints: 3
      ints: 3
      type: INTS
    }
    attribute {
      name: "pads"
      ints: 1
      ints: 1
      ints: 1
      ints: 1
      type: INTS
    }
    attribute {
      name: "strides"
      ints: 1
      ints: 1
      type: INTS
    }
  }
  node {
    input: "1051"
    input: "1057"
    output: "1058"
    op_type: "Concat"
    attribute {
      name: "axis"
      i: 1
      type: INT
    }
  }
  node {
    input: "1058"
    input: "565"
    input: "566"
    input: "567"
    input: "568"
    output: "1059"
    op_type: "BatchNormalization"
    attribute {
      name: "consumed_inputs"
      ints: 0
      ints: 0
      ints: 0
      ints: 1
      ints: 1
      type: INTS
    }
    attribute {
      name: "epsilon"
      f: 9.99999974737875e-06
      type: FLOAT
    }
    attribute {
      name: "is_test"
      i: 1
      type: INT
    }
    attribute {
      name: "momentum"
      f: 1
      type: FLOAT
    }
  }
  node {
    input: "1059"
    output: "1060"
    op_type: "Relu"
  }
  node {
    input: "1060"
    input: "570"
    output: "1061"
    op_type: "Conv"
    attribute {
      name: "dilations"
      ints: 1
      ints: 1
      type: INTS
    }
    attribute {
      name: "group"
      i: 1
      type: INT
    }
    attribute {
      name: "kernel_shape"
      ints: 1
      ints: 1
      type: INTS
    }
    attribute {
      name: "pads"
      ints: 0
      ints: 0
      ints: 0
      ints: 0
      type: INTS
    }
    attribute {
      name: "strides"
      ints: 1
      ints: 1
      type: INTS
    }
  }
  node {
    input: "1061"
    input: "571"
    input: "572"
    input: "573"
    input: "574"
    output: "1062"
    op_type: "BatchNormalization"
    attribute {
      name: "consumed_inputs"
      ints: 0
      ints: 0
      ints: 0
      ints: 1
      ints: 1
      type: INTS
    }
    attribute {
      name: "epsilon"
      f: 9.99999974737875e-06
      type: FLOAT
    }
    attribute {
      name: "is_test"
      i: 1
      type: INT
    }
    attribute {
      name: "momentum"
      f: 1
      type: FLOAT
    }
  }
  node {
    input: "1062"
    output: "1063"
    op_type: "Relu"
  }
  node {
    input: "1063"
    input: "576"
    output: "1064"
    op_type: "Conv"
    attribute {
      name: "dilations"
      ints: 1
      ints: 1
      type: INTS
    }
    attribute {
      name: "group"
      i: 1
      type: INT
    }
    attribute {
      name: "kernel_shape"
      ints: 3
      ints: 3
      type: INTS
    }
    attribute {
      name: "pads"
      ints: 1
      ints: 1
      ints: 1
      ints: 1
      type: INTS
    }
    attribute {
      name: "strides"
      ints: 1
      ints: 1
      type: INTS
    }
  }
  node {
    input: "1058"
    input: "1064"
    output: "1065"
    op_type: "Concat"
    attribute {
      name: "axis"
      i: 1
      type: INT
    }
  }
  node {
    input: "1065"
    input: "577"
    input: "578"
    input: "579"
    input: "580"
    output: "1066"
    op_type: "BatchNormalization"
    attribute {
      name: "consumed_inputs"
      ints: 0
      ints: 0
      ints: 0
      ints: 1
      ints: 1
      type: INTS
    }
    attribute {
      name: "epsilon"
      f: 9.99999974737875e-06
      type: FLOAT
    }
    attribute {
      name: "is_test"
      i: 1
      type: INT
    }
    attribute {
      name: "momentum"
      f: 1
      type: FLOAT
    }
  }
  node {
    input: "1066"
    output: "1067"
    op_type: "Relu"
  }
  node {
    input: "1067"
    input: "582"
    output: "1068"
    op_type: "Conv"
    attribute {
      name: "dilations"
      ints: 1
      ints: 1
      type: INTS
    }
    attribute {
      name: "group"
      i: 1
      type: INT
    }
    attribute {
      name: "kernel_shape"
      ints: 1
      ints: 1
      type: INTS
    }
    attribute {
      name: "pads"
      ints: 0
      ints: 0
      ints: 0
      ints: 0
      type: INTS
    }
    attribute {
      name: "strides"
      ints: 1
      ints: 1
      type: INTS
    }
  }
  node {
    input: "1068"
    input: "583"
    input: "584"
    input: "585"
    input: "586"
    output: "1069"
    op_type: "BatchNormalization"
    attribute {
      name: "consumed_inputs"
      ints: 0
      ints: 0
      ints: 0
      ints: 1
      ints: 1
      type: INTS
    }
    attribute {
      name: "epsilon"
      f: 9.99999974737875e-06
      type: FLOAT
    }
    attribute {
      name: "is_test"
      i: 1
      type: INT
    }
    attribute {
      name: "momentum"
      f: 1
      type: FLOAT
    }
  }
  node {
    input: "1069"
    output: "1070"
    op_type: "Relu"
  }
  node {
    input: "1070"
    input: "588"
    output: "1071"
    op_type: "Conv"
    attribute {
      name: "dilations"
      ints: 1
      ints: 1
      type: INTS
    }
    attribute {
      name: "group"
      i: 1
      type: INT
    }
    attribute {
      name: "kernel_shape"
      ints: 3
      ints: 3
      type: INTS
    }
    attribute {
      name: "pads"
      ints: 1
      ints: 1
      ints: 1
      ints: 1
      type: INTS
    }
    attribute {
      name: "strides"
      ints: 1
      ints: 1
      type: INTS
    }
  }
  node {
    input: "1065"
    input: "1071"
    output: "1072"
    op_type: "Concat"
    attribute {
      name: "axis"
      i: 1
      type: INT
    }
  }
  node {
    input: "1072"
    input: "589"
    input: "590"
    input: "591"
    input: "592"
    output: "1073"
    op_type: "BatchNormalization"
    attribute {
      name: "consumed_inputs"
      ints: 0
      ints: 0
      ints: 0
      ints: 1
      ints: 1
      type: INTS
    }
    attribute {
      name: "epsilon"
      f: 9.99999974737875e-06
      type: FLOAT
    }
    attribute {
      name: "is_test"
      i: 1
      type: INT
    }
    attribute {
      name: "momentum"
      f: 1
      type: FLOAT
    }
  }
  node {
    input: "1073"
    output: "1074"
    op_type: "Relu"
  }
  node {
    input: "1074"
    input: "594"
    output: "1075"
    op_type: "Conv"
    attribute {
      name: "dilations"
      ints: 1
      ints: 1
      type: INTS
    }
    attribute {
      name: "group"
      i: 1
      type: INT
    }
    attribute {
      name: "kernel_shape"
      ints: 1
      ints: 1
      type: INTS
    }
    attribute {
      name: "pads"
      ints: 0
      ints: 0
      ints: 0
      ints: 0
      type: INTS
    }
    attribute {
      name: "strides"
      ints: 1
      ints: 1
      type: INTS
    }
  }
  node {
    input: "1075"
    input: "595"
    input: "596"
    input: "597"
    input: "598"
    output: "1076"
    op_type: "BatchNormalization"
    attribute {
      name: "consumed_inputs"
      ints: 0
      ints: 0
      ints: 0
      ints: 1
      ints: 1
      type: INTS
    }
    attribute {
      name: "epsilon"
      f: 9.99999974737875e-06
      type: FLOAT
    }
    attribute {
      name: "is_test"
      i: 1
      type: INT
    }
    attribute {
      name: "momentum"
      f: 1
      type: FLOAT
    }
  }
  node {
    input: "1076"
    output: "1077"
    op_type: "Relu"
  }
  node {
    input: "1077"
    input: "600"
    output: "1078"
    op_type: "Conv"
    attribute {
      name: "dilations"
      ints: 1
      ints: 1
      type: INTS
    }
    attribute {
      name: "group"
      i: 1
      type: INT
    }
    attribute {
      name: "kernel_shape"
      ints: 3
      ints: 3
      type: INTS
    }
    attribute {
      name: "pads"
      ints: 1
      ints: 1
      ints: 1
      ints: 1
      type: INTS
    }
    attribute {
      name: "strides"
      ints: 1
      ints: 1
      type: INTS
    }
  }
  node {
    input: "1072"
    input: "1078"
    output: "1079"
    op_type: "Concat"
    attribute {
      name: "axis"
      i: 1
      type: INT
    }
  }
  node {
    input: "1079"
    input: "601"
    input: "602"
    input: "603"
    input: "604"
    output: "1080"
    op_type: "BatchNormalization"
    attribute {
      name: "consumed_inputs"
      ints: 0
      ints: 0
      ints: 0
      ints: 1
      ints: 1
      type: INTS
    }
    attribute {
      name: "epsilon"
      f: 9.99999974737875e-06
      type: FLOAT
    }
    attribute {
      name: "is_test"
      i: 1
      type: INT
    }
    attribute {
      name: "momentum"
      f: 1
      type: FLOAT
    }
  }
  node {
    input: "1080"
    output: "1081"
    op_type: "Relu"
  }
  node {
    input: "1081"
    input: "606"
    output: "1082"
    op_type: "Conv"
    attribute {
      name: "dilations"
      ints: 1
      ints: 1
      type: INTS
    }
    attribute {
      name: "group"
      i: 1
      type: INT
    }
    attribute {
      name: "kernel_shape"
      ints: 1
      ints: 1
      type: INTS
    }
    attribute {
      name: "pads"
      ints: 0
      ints: 0
      ints: 0
      ints: 0
      type: INTS
    }
    attribute {
      name: "strides"
      ints: 1
      ints: 1
      type: INTS
    }
  }
  node {
    input: "1082"
    input: "607"
    input: "608"
    input: "609"
    input: "610"
    output: "1083"
    op_type: "BatchNormalization"
    attribute {
      name: "consumed_inputs"
      ints: 0
      ints: 0
      ints: 0
      ints: 1
      ints: 1
      type: INTS
    }
    attribute {
      name: "epsilon"
      f: 9.99999974737875e-06
      type: FLOAT
    }
    attribute {
      name: "is_test"
      i: 1
      type: INT
    }
    attribute {
      name: "momentum"
      f: 1
      type: FLOAT
    }
  }
  node {
    input: "1083"
    output: "1084"
    op_type: "Relu"
  }
  node {
    input: "1084"
    input: "612"
    output: "1085"
    op_type: "Conv"
    attribute {
      name: "dilations"
      ints: 1
      ints: 1
      type: INTS
    }
    attribute {
      name: "group"
      i: 1
      type: INT
    }
    attribute {
      name: "kernel_shape"
      ints: 3
      ints: 3
      type: INTS
    }
    attribute {
      name: "pads"
      ints: 1
      ints: 1
      ints: 1
      ints: 1
      type: INTS
    }
    attribute {
      name: "strides"
      ints: 1
      ints: 1
      type: INTS
    }
  }
  node {
    input: "1079"
    input: "1085"
    output: "1086"
    op_type: "Concat"
    attribute {
      name: "axis"
      i: 1
      type: INT
    }
  }
  node {
    input: "1086"
    input: "613"
    input: "614"
    input: "615"
    input: "616"
    output: "1087"
    op_type: "BatchNormalization"
    attribute {
      name: "consumed_inputs"
      ints: 0
      ints: 0
      ints: 0
      ints: 1
      ints: 1
      type: INTS
    }
    attribute {
      name: "epsilon"
      f: 9.99999974737875e-06
      type: FLOAT
    }
    attribute {
      name: "is_test"
      i: 1
      type: INT
    }
    attribute {
      name: "momentum"
      f: 1
      type: FLOAT
    }
  }
  node {
    input: "1087"
    output: "1088"
    op_type: "Relu"
  }
  node {
    input: "1088"
    input: "618"
    output: "1089"
    op_type: "Conv"
    attribute {
      name: "dilations"
      ints: 1
      ints: 1
      type: INTS
    }
    attribute {
      name: "group"
      i: 1
      type: INT
    }
    attribute {
      name: "kernel_shape"
      ints: 1
      ints: 1
      type: INTS
    }
    attribute {
      name: "pads"
      ints: 0
      ints: 0
      ints: 0
      ints: 0
      type: INTS
    }
    attribute {
      name: "strides"
      ints: 1
      ints: 1
      type: INTS
    }
  }
  node {
    input: "1089"
    input: "619"
    input: "620"
    input: "621"
    input: "622"
    output: "1090"
    op_type: "BatchNormalization"
    attribute {
      name: "consumed_inputs"
      ints: 0
      ints: 0
      ints: 0
      ints: 1
      ints: 1
      type: INTS
    }
    attribute {
      name: "epsilon"
      f: 9.99999974737875e-06
      type: FLOAT
    }
    attribute {
      name: "is_test"
      i: 1
      type: INT
    }
    attribute {
      name: "momentum"
      f: 1
      type: FLOAT
    }
  }
  node {
    input: "1090"
    output: "1091"
    op_type: "Relu"
  }
  node {
    input: "1091"
    input: "624"
    output: "1092"
    op_type: "Conv"
    attribute {
      name: "dilations"
      ints: 1
      ints: 1
      type: INTS
    }
    attribute {
      name: "group"
      i: 1
      type: INT
    }
    attribute {
      name: "kernel_shape"
      ints: 3
      ints: 3
      type: INTS
    }
    attribute {
      name: "pads"
      ints: 1
      ints: 1
      ints: 1
      ints: 1
      type: INTS
    }
    attribute {
      name: "strides"
      ints: 1
      ints: 1
      type: INTS
    }
  }
  node {
    input: "1086"
    input: "1092"
    output: "1093"
    op_type: "Concat"
    attribute {
      name: "axis"
      i: 1
      type: INT
    }
  }
  node {
    input: "1093"
    input: "625"
    input: "626"
    input: "627"
    input: "628"
    output: "1094"
    op_type: "BatchNormalization"
    attribute {
      name: "consumed_inputs"
      ints: 0
      ints: 0
      ints: 0
      ints: 1
      ints: 1
      type: INTS
    }
    attribute {
      name: "epsilon"
      f: 9.99999974737875e-06
      type: FLOAT
    }
    attribute {
      name: "is_test"
      i: 1
      type: INT
    }
    attribute {
      name: "momentum"
      f: 1
      type: FLOAT
    }
  }
  node {
    input: "1094"
    output: "1095"
    op_type: "Relu"
  }
  node {
    input: "1095"
    input: "630"
    output: "1096"
    op_type: "Conv"
    attribute {
      name: "dilations"
      ints: 1
      ints: 1
      type: INTS
    }
    attribute {
      name: "group"
      i: 1
      type: INT
    }
    attribute {
      name: "kernel_shape"
      ints: 1
      ints: 1
      type: INTS
    }
    attribute {
      name: "pads"
      ints: 0
      ints: 0
      ints: 0
      ints: 0
      type: INTS
    }
    attribute {
      name: "strides"
      ints: 1
      ints: 1
      type: INTS
    }
  }
  node {
    input: "1096"
    input: "631"
    input: "632"
    input: "633"
    input: "634"
    output: "1097"
    op_type: "BatchNormalization"
    attribute {
      name: "consumed_inputs"
      ints: 0
      ints: 0
      ints: 0
      ints: 1
      ints: 1
      type: INTS
    }
    attribute {
      name: "epsilon"
      f: 9.99999974737875e-06
      type: FLOAT
    }
    attribute {
      name: "is_test"
      i: 1
      type: INT
    }
    attribute {
      name: "momentum"
      f: 1
      type: FLOAT
    }
  }
  node {
    input: "1097"
    output: "1098"
    op_type: "Relu"
  }
  node {
    input: "1098"
    input: "636"
    output: "1099"
    op_type: "Conv"
    attribute {
      name: "dilations"
      ints: 1
      ints: 1
      type: INTS
    }
    attribute {
      name: "group"
      i: 1
      type: INT
    }
    attribute {
      name: "kernel_shape"
      ints: 3
      ints: 3
      type: INTS
    }
    attribute {
      name: "pads"
      ints: 1
      ints: 1
      ints: 1
      ints: 1
      type: INTS
    }
    attribute {
      name: "strides"
      ints: 1
      ints: 1
      type: INTS
    }
  }
  node {
    input: "1093"
    input: "1099"
    output: "1100"
    op_type: "Concat"
    attribute {
      name: "axis"
      i: 1
      type: INT
    }
  }
  node {
    input: "1100"
    input: "637"
    input: "638"
    input: "639"
    input: "640"
    output: "1101"
    op_type: "BatchNormalization"
    attribute {
      name: "consumed_inputs"
      ints: 0
      ints: 0
      ints: 0
      ints: 1
      ints: 1
      type: INTS
    }
    attribute {
      name: "epsilon"
      f: 9.99999974737875e-06
      type: FLOAT
    }
    attribute {
      name: "is_test"
      i: 1
      type: INT
    }
    attribute {
      name: "momentum"
      f: 1
      type: FLOAT
    }
  }
  node {
    input: "1101"
    output: "1102"
    op_type: "Relu"
  }
  node {
    input: "1102"
    input: "642"
    output: "1103"
    op_type: "Conv"
    attribute {
      name: "dilations"
      ints: 1
      ints: 1
      type: INTS
    }
    attribute {
      name: "group"
      i: 1
      type: INT
    }
    attribute {
      name: "kernel_shape"
      ints: 1
      ints: 1
      type: INTS
    }
    attribute {
      name: "pads"
      ints: 0
      ints: 0
      ints: 0
      ints: 0
      type: INTS
    }
    attribute {
      name: "strides"
      ints: 1
      ints: 1
      type: INTS
    }
  }
  node {
    input: "1103"
    input: "643"
    input: "644"
    input: "645"
    input: "646"
    output: "1104"
    op_type: "BatchNormalization"
    attribute {
      name: "consumed_inputs"
      ints: 0
      ints: 0
      ints: 0
      ints: 1
      ints: 1
      type: INTS
    }
    attribute {
      name: "epsilon"
      f: 9.99999974737875e-06
      type: FLOAT
    }
    attribute {
      name: "is_test"
      i: 1
      type: INT
    }
    attribute {
      name: "momentum"
      f: 1
      type: FLOAT
    }
  }
  node {
    input: "1104"
    output: "1105"
    op_type: "Relu"
  }
  node {
    input: "1105"
    input: "648"
    output: "1106"
    op_type: "Conv"
    attribute {
      name: "dilations"
      ints: 1
      ints: 1
      type: INTS
    }
    attribute {
      name: "group"
      i: 1
      type: INT
    }
    attribute {
      name: "kernel_shape"
      ints: 3
      ints: 3
      type: INTS
    }
    attribute {
      name: "pads"
      ints: 1
      ints: 1
      ints: 1
      ints: 1
      type: INTS
    }
    attribute {
      name: "strides"
      ints: 1
      ints: 1
      type: INTS
    }
  }
  node {
    input: "1100"
    input: "1106"
    output: "1107"
    op_type: "Concat"
    attribute {
      name: "axis"
      i: 1
      type: INT
    }
  }
  node {
    input: "1107"
    input: "649"
    input: "650"
    input: "651"
    input: "652"
    output: "1108"
    op_type: "BatchNormalization"
    attribute {
      name: "consumed_inputs"
      ints: 0
      ints: 0
      ints: 0
      ints: 1
      ints: 1
      type: INTS
    }
    attribute {
      name: "epsilon"
      f: 9.99999974737875e-06
      type: FLOAT
    }
    attribute {
      name: "is_test"
      i: 1
      type: INT
    }
    attribute {
      name: "momentum"
      f: 1
      type: FLOAT
    }
  }
  node {
    input: "1108"
    output: "1109"
    op_type: "Relu"
  }
  node {
    input: "1109"
    input: "654"
    output: "1110"
    op_type: "Conv"
    attribute {
      name: "dilations"
      ints: 1
      ints: 1
      type: INTS
    }
    attribute {
      name: "group"
      i: 1
      type: INT
    }
    attribute {
      name: "kernel_shape"
      ints: 1
      ints: 1
      type: INTS
    }
    attribute {
      name: "pads"
      ints: 0
      ints: 0
      ints: 0
      ints: 0
      type: INTS
    }
    attribute {
      name: "strides"
      ints: 1
      ints: 1
      type: INTS
    }
  }
  node {
    input: "1110"
    input: "655"
    input: "656"
    input: "657"
    input: "658"
    output: "1111"
    op_type: "BatchNormalization"
    attribute {
      name: "consumed_inputs"
      ints: 0
      ints: 0
      ints: 0
      ints: 1
      ints: 1
      type: INTS
    }
    attribute {
      name: "epsilon"
      f: 9.99999974737875e-06
      type: FLOAT
    }
    attribute {
      name: "is_test"
      i: 1
      type: INT
    }
    attribute {
      name: "momentum"
      f: 1
      type: FLOAT
    }
  }
  node {
    input: "1111"
    output: "1112"
    op_type: "Relu"
  }
  node {
    input: "1112"
    input: "660"
    output: "1113"
    op_type: "Conv"
    attribute {
      name: "dilations"
      ints: 1
      ints: 1
      type: INTS
    }
    attribute {
      name: "group"
      i: 1
      type: INT
    }
    attribute {
      name: "kernel_shape"
      ints: 3
      ints: 3
      type: INTS
    }
    attribute {
      name: "pads"
      ints: 1
      ints: 1
      ints: 1
      ints: 1
      type: INTS
    }
    attribute {
      name: "strides"
      ints: 1
      ints: 1
      type: INTS
    }
  }
  node {
    input: "1107"
    input: "1113"
    output: "1114"
    op_type: "Concat"
    attribute {
      name: "axis"
      i: 1
      type: INT
    }
  }
  node {
    input: "1114"
    input: "661"
    input: "662"
    input: "663"
    input: "664"
    output: "1115"
    op_type: "BatchNormalization"
    attribute {
      name: "consumed_inputs"
      ints: 0
      ints: 0
      ints: 0
      ints: 1
      ints: 1
      type: INTS
    }
    attribute {
      name: "epsilon"
      f: 9.99999974737875e-06
      type: FLOAT
    }
    attribute {
      name: "is_test"
      i: 1
      type: INT
    }
    attribute {
      name: "momentum"
      f: 1
      type: FLOAT
    }
  }
  node {
    input: "1115"
    output: "1116"
    op_type: "Relu"
  }
  node {
    input: "1116"
    input: "666"
    output: "1117"
    op_type: "Conv"
    attribute {
      name: "dilations"
      ints: 1
      ints: 1
      type: INTS
    }
    attribute {
      name: "group"
      i: 1
      type: INT
    }
    attribute {
      name: "kernel_shape"
      ints: 1
      ints: 1
      type: INTS
    }
    attribute {
      name: "pads"
      ints: 0
      ints: 0
      ints: 0
      ints: 0
      type: INTS
    }
    attribute {
      name: "strides"
      ints: 1
      ints: 1
      type: INTS
    }
  }
  node {
    input: "1117"
    input: "667"
    input: "668"
    input: "669"
    input: "670"
    output: "1118"
    op_type: "BatchNormalization"
    attribute {
      name: "consumed_inputs"
      ints: 0
      ints: 0
      ints: 0
      ints: 1
      ints: 1
      type: INTS
    }
    attribute {
      name: "epsilon"
      f: 9.99999974737875e-06
      type: FLOAT
    }
    attribute {
      name: "is_test"
      i: 1
      type: INT
    }
    attribute {
      name: "momentum"
      f: 1
      type: FLOAT
    }
  }
  node {
    input: "1118"
    output: "1119"
    op_type: "Relu"
  }
  node {
    input: "1119"
    input: "672"
    output: "1120"
    op_type: "Conv"
    attribute {
      name: "dilations"
      ints: 1
      ints: 1
      type: INTS
    }
    attribute {
      name: "group"
      i: 1
      type: INT
    }
    attribute {
      name: "kernel_shape"
      ints: 3
      ints: 3
      type: INTS
    }
    attribute {
      name: "pads"
      ints: 1
      ints: 1
      ints: 1
      ints: 1
      type: INTS
    }
    attribute {
      name: "strides"
      ints: 1
      ints: 1
      type: INTS
    }
  }
  node {
    input: "1114"
    input: "1120"
    output: "1121"
    op_type: "Concat"
    attribute {
      name: "axis"
      i: 1
      type: INT
    }
  }
  node {
    input: "1121"
    input: "673"
    input: "674"
    input: "675"
    input: "676"
    output: "1122"
    op_type: "BatchNormalization"
    attribute {
      name: "consumed_inputs"
      ints: 0
      ints: 0
      ints: 0
      ints: 1
      ints: 1
      type: INTS
    }
    attribute {
      name: "epsilon"
      f: 9.99999974737875e-06
      type: FLOAT
    }
    attribute {
      name: "is_test"
      i: 1
      type: INT
    }
    attribute {
      name: "momentum"
      f: 1
      type: FLOAT
    }
  }
  node {
    input: "1122"
    output: "1123"
    op_type: "Relu"
  }
  node {
    input: "1123"
    input: "678"
    output: "1124"
    op_type: "Conv"
    attribute {
      name: "dilations"
      ints: 1
      ints: 1
      type: INTS
    }
    attribute {
      name: "group"
      i: 1
      type: INT
    }
    attribute {
      name: "kernel_shape"
      ints: 1
      ints: 1
      type: INTS
    }
    attribute {
      name: "pads"
      ints: 0
      ints: 0
      ints: 0
      ints: 0
      type: INTS
    }
    attribute {
      name: "strides"
      ints: 1
      ints: 1
      type: INTS
    }
  }
  node {
    input: "1124"
    input: "679"
    input: "680"
    input: "681"
    input: "682"
    output: "1125"
    op_type: "BatchNormalization"
    attribute {
      name: "consumed_inputs"
      ints: 0
      ints: 0
      ints: 0
      ints: 1
      ints: 1
      type: INTS
    }
    attribute {
      name: "epsilon"
      f: 9.99999974737875e-06
      type: FLOAT
    }
    attribute {
      name: "is_test"
      i: 1
      type: INT
    }
    attribute {
      name: "momentum"
      f: 1
      type: FLOAT
    }
  }
  node {
    input: "1125"
    output: "1126"
    op_type: "Relu"
  }
  node {
    input: "1126"
    input: "684"
    output: "1127"
    op_type: "Conv"
    attribute {
      name: "dilations"
      ints: 1
      ints: 1
      type: INTS
    }
    attribute {
      name: "group"
      i: 1
      type: INT
    }
    attribute {
      name: "kernel_shape"
      ints: 3
      ints: 3
      type: INTS
    }
    attribute {
      name: "pads"
      ints: 1
      ints: 1
      ints: 1
      ints: 1
      type: INTS
    }
    attribute {
      name: "strides"
      ints: 1
      ints: 1
      type: INTS
    }
  }
  node {
    input: "1121"
    input: "1127"
    output: "1128"
    op_type: "Concat"
    attribute {
      name: "axis"
      i: 1
      type: INT
    }
  }
  node {
    input: "1128"
    input: "685"
    input: "686"
    input: "687"
    input: "688"
    output: "1129"
    op_type: "BatchNormalization"
    attribute {
      name: "consumed_inputs"
      ints: 0
      ints: 0
      ints: 0
      ints: 1
      ints: 1
      type: INTS
    }
    attribute {
      name: "epsilon"
      f: 9.99999974737875e-06
      type: FLOAT
    }
    attribute {
      name: "is_test"
      i: 1
      type: INT
    }
    attribute {
      name: "momentum"
      f: 1
      type: FLOAT
    }
  }
  node {
    input: "1129"
    output: "1130"
    op_type: "Relu"
  }
  node {
    input: "1130"
    input: "690"
    output: "1131"
    op_type: "Conv"
    attribute {
      name: "dilations"
      ints: 1
      ints: 1
      type: INTS
    }
    attribute {
      name: "group"
      i: 1
      type: INT
    }
    attribute {
      name: "kernel_shape"
      ints: 1
      ints: 1
      type: INTS
    }
    attribute {
      name: "pads"
      ints: 0
      ints: 0
      ints: 0
      ints: 0
      type: INTS
    }
    attribute {
      name: "strides"
      ints: 1
      ints: 1
      type: INTS
    }
  }
  node {
    input: "1131"
    input: "691"
    input: "692"
    input: "693"
    input: "694"
    output: "1132"
    op_type: "BatchNormalization"
    attribute {
      name: "consumed_inputs"
      ints: 0
      ints: 0
      ints: 0
      ints: 1
      ints: 1
      type: INTS
    }
    attribute {
      name: "epsilon"
      f: 9.99999974737875e-06
      type: FLOAT
    }
    attribute {
      name: "is_test"
      i: 1
      type: INT
    }
    attribute {
      name: "momentum"
      f: 1
      type: FLOAT
    }
  }
  node {
    input: "1132"
    output: "1133"
    op_type: "Relu"
  }
  node {
    input: "1133"
    input: "696"
    output: "1134"
    op_type: "Conv"
    attribute {
      name: "dilations"
      ints: 1
      ints: 1
      type: INTS
    }
    attribute {
      name: "group"
      i: 1
      type: INT
    }
    attribute {
      name: "kernel_shape"
      ints: 3
      ints: 3
      type: INTS
    }
    attribute {
      name: "pads"
      ints: 1
      ints: 1
      ints: 1
      ints: 1
      type: INTS
    }
    attribute {
      name: "strides"
      ints: 1
      ints: 1
      type: INTS
    }
  }
  node {
    input: "1128"
    input: "1134"
    output: "1135"
    op_type: "Concat"
    attribute {
      name: "axis"
      i: 1
      type: INT
    }
  }
  node {
    input: "1135"
    input: "697"
    input: "698"
    input: "699"
    input: "700"
    output: "1136"
    op_type: "BatchNormalization"
    attribute {
      name: "consumed_inputs"
      ints: 0
      ints: 0
      ints: 0
      ints: 1
      ints: 1
      type: INTS
    }
    attribute {
      name: "epsilon"
      f: 9.99999974737875e-06
      type: FLOAT
    }
    attribute {
      name: "is_test"
      i: 1
      type: INT
    }
    attribute {
      name: "momentum"
      f: 1
      type: FLOAT
    }
  }
  node {
    input: "1136"
    output: "1137"
    op_type: "Relu"
  }
  node {
    input: "1137"
    input: "702"
    output: "1138"
    op_type: "Conv"
    attribute {
      name: "dilations"
      ints: 1
      ints: 1
      type: INTS
    }
    attribute {
      name: "group"
      i: 1
      type: INT
    }
    attribute {
      name: "kernel_shape"
      ints: 1
      ints: 1
      type: INTS
    }
    attribute {
      name: "pads"
      ints: 0
      ints: 0
      ints: 0
      ints: 0
      type: INTS
    }
    attribute {
      name: "strides"
      ints: 1
      ints: 1
      type: INTS
    }
  }
  node {
    input: "1138"
    input: "703"
    input: "704"
    input: "705"
    input: "706"
    output: "1139"
    op_type: "BatchNormalization"
    attribute {
      name: "consumed_inputs"
      ints: 0
      ints: 0
      ints: 0
      ints: 1
      ints: 1
      type: INTS
    }
    attribute {
      name: "epsilon"
      f: 9.99999974737875e-06
      type: FLOAT
    }
    attribute {
      name: "is_test"
      i: 1
      type: INT
    }
    attribute {
      name: "momentum"
      f: 1
      type: FLOAT
    }
  }
  node {
    input: "1139"
    output: "1140"
    op_type: "Relu"
  }
  node {
    input: "1140"
    input: "708"
    output: "1141"
    op_type: "Conv"
    attribute {
      name: "dilations"
      ints: 1
      ints: 1
      type: INTS
    }
    attribute {
      name: "group"
      i: 1
      type: INT
    }
    attribute {
      name: "kernel_shape"
      ints: 3
      ints: 3
      type: INTS
    }
    attribute {
      name: "pads"
      ints: 1
      ints: 1
      ints: 1
      ints: 1
      type: INTS
    }
    attribute {
      name: "strides"
      ints: 1
      ints: 1
      type: INTS
    }
  }
  node {
    input: "1135"
    input: "1141"
    output: "1142"
    op_type: "Concat"
    attribute {
      name: "axis"
      i: 1
      type: INT
    }
  }
  node {
    input: "1142"
    input: "709"
    input: "710"
    input: "711"
    input: "712"
    output: "1143"
    op_type: "BatchNormalization"
    attribute {
      name: "consumed_inputs"
      ints: 0
      ints: 0
      ints: 0
      ints: 1
      ints: 1
      type: INTS
    }
    attribute {
      name: "epsilon"
      f: 9.99999974737875e-06
      type: FLOAT
    }
    attribute {
      name: "is_test"
      i: 1
      type: INT
    }
    attribute {
      name: "momentum"
      f: 1
      type: FLOAT
    }
  }
  node {
    input: "1143"
    output: "1144"
    op_type: "Relu"
  }
  node {
    input: "1144"
    input: "714"
    output: "1145"
    op_type: "Conv"
    attribute {
      name: "dilations"
      ints: 1
      ints: 1
      type: INTS
    }
    attribute {
      name: "group"
      i: 1
      type: INT
    }
    attribute {
      name: "kernel_shape"
      ints: 1
      ints: 1
      type: INTS
    }
    attribute {
      name: "pads"
      ints: 0
      ints: 0
      ints: 0
      ints: 0
      type: INTS
    }
    attribute {
      name: "strides"
      ints: 1
      ints: 1
      type: INTS
    }
  }
  node {
    input: "1145"
    input: "715"
    input: "716"
    input: "717"
    input: "718"
    output: "1146"
    op_type: "BatchNormalization"
    attribute {
      name: "consumed_inputs"
      ints: 0
      ints: 0
      ints: 0
      ints: 1
      ints: 1
      type: INTS
    }
    attribute {
      name: "epsilon"
      f: 9.99999974737875e-06
      type: FLOAT
    }
    attribute {
      name: "is_test"
      i: 1
      type: INT
    }
    attribute {
      name: "momentum"
      f: 1
      type: FLOAT
    }
  }
  node {
    input: "1146"
    output: "1147"
    op_type: "Relu"
  }
  node {
    input: "1147"
    input: "720"
    output: "1148"
    op_type: "Conv"
    attribute {
      name: "dilations"
      ints: 1
      ints: 1
      type: INTS
    }
    attribute {
      name: "group"
      i: 1
      type: INT
    }
    attribute {
      name: "kernel_shape"
      ints: 3
      ints: 3
      type: INTS
    }
    attribute {
      name: "pads"
      ints: 1
      ints: 1
      ints: 1
      ints: 1
      type: INTS
    }
    attribute {
      name: "strides"
      ints: 1
      ints: 1
      type: INTS
    }
  }
  node {
    input: "1142"
    input: "1148"
    output: "1149"
    op_type: "Concat"
    attribute {
      name: "axis"
      i: 1
      type: INT
    }
  }
  node {
    input: "1149"
    input: "721"
    input: "722"
    input: "723"
    input: "724"
    output: "1150"
    op_type: "BatchNormalization"
    attribute {
      name: "consumed_inputs"
      ints: 0
      ints: 0
      ints: 0
      ints: 1
      ints: 1
      type: INTS
    }
    attribute {
      name: "epsilon"
      f: 9.99999974737875e-06
      type: FLOAT
    }
    attribute {
      name: "is_test"
      i: 1
      type: INT
    }
    attribute {
      name: "momentum"
      f: 1
      type: FLOAT
    }
  }
  node {
    input: "1150"
    output: "1151"
    op_type: "Relu"
  }
  node {
    input: "1151"
    output: "1152"
    op_type: "AveragePool"
    attribute {
      name: "kernel_shape"
      ints: 7
      ints: 7
      type: INTS
    }
    attribute {
      name: "pads"
      ints: 0
      ints: 0
      ints: 0
      ints: 0
      type: INTS
    }
    attribute {
      name: "strides"
      ints: 7
      ints: 7
      type: INTS
    }
  }
  node {
    input: "1152"
    output: "1153"
    op_type: "Flatten"
    attribute {
      name: "axis"
      i: 1
      type: INT
    }
  }
  node {
    input: "1153"
    input: "726"
    input: "727"
    output: "1154"
    op_type: "Gemm"
    attribute {
      name: "alpha"
      f: 1
      type: FLOAT
    }
    attribute {
      name: "beta"
      f: 1
      type: FLOAT
    }
    attribute {
      name: "broadcast"
      i: 1
      type: INT
    }
    attribute {
      name: "transB"
      i: 1
      type: INT
    }
  }
  name: "torch-jit-export"
  input {
    name: "0"
    type {
      tensor_type {
        elem_type: FLOAT
        shape {
          dim {
            dim_value: 2
          }
          dim {
            dim_value: 3
          }
          dim {
            dim_value: 224
          }
          dim {
            dim_value: 224
          }
        }
      }
    }
  }
  input {
    name: "1"
    type {
      tensor_type {
        elem_type: FLOAT
        shape {
          dim {
            dim_value: 64
          }
          dim {
            dim_value: 3
          }
          dim {
            dim_value: 7
          }
          dim {
            dim_value: 7
          }
        }
      }
    }
  }
  input {
    name: "2"
    type {
      tensor_type {
        elem_type: FLOAT
        shape {
          dim {
            dim_value: 64
          }
        }
      }
    }
  }
  input {
    name: "3"
    type {
      tensor_type {
        elem_type: FLOAT
        shape {
          dim {
            dim_value: 64
          }
        }
      }
    }
  }
  input {
    name: "4"
    type {
      tensor_type {
        elem_type: FLOAT
        shape {
          dim {
            dim_value: 64
          }
        }
      }
    }
  }
  input {
    name: "5"
    type {
      tensor_type {
        elem_type: FLOAT
        shape {
          dim {
            dim_value: 64
          }
        }
      }
…
            dim_value: 928
          }
        }
      }
    }
  }
  input {
    name: "488"
    type {
      tensor_type {
        elem_type: FLOAT
        shape {
          dim {
            dim_value: 928
          }
        }
      }
    }
  }
  input {
    name: "489"
    type {
      tensor_type {
        elem_type: FLOAT
        shape {
          dim {
            dim_value: 928
          }
        }
      }
    }
  }
  input {
    name: "490"
    type {
      tensor_type {
        elem_type: FLOAT
        shape {
          dim {
            dim_value: 928
          }
        }
      }
    }
  }
  input {
    name: "491"
    type {
      tensor_type {
        elem_type: INT64
        shape {
          dim {
            dim_value: 1
          }
        }
      }
    }
  }
  input {
    name: "492"
    type {
      tensor_type {
        elem_type: FLOAT
        shape {
          dim {
            dim_value: 128
          }
          dim {
            dim_value: 928
          }
          dim {
            dim_value: 1
          }
          dim {
            dim_value: 1
          }
        }
      }
    }
  }
  input {
    name: "493"
    type {
      tensor_type {
        elem_type: FLOAT
        shape {
          dim {
            dim_value: 128
          }
        }
      }
    }
  }
  input {
    name: "494"
    type {
      tensor_type {
        elem_type: FLOAT
        shape {
          dim {
            dim_value: 128
          }
        }
      }
    }
  }
  input {
    name: "495"
    type {
      tensor_type {
        elem_type: FLOAT
        shape {
          dim {
            dim_value: 128
          }
        }
      }
    }
  }
  input {
    name: "496"
    type {
      tensor_type {
        elem_type: FLOAT
        shape {
          dim {
            dim_value: 128
          }
        }
      }
    }
  }
  input {
    name: "497"
    type {
      tensor_type {
        elem_type: INT64
        shape {
          dim {
            dim_value: 1
          }
        }
      }
    }
  }
  input {
    name: "498"
    type {
      tensor_type {
        elem_type: FLOAT
        shape {
          dim {
            dim_value: 32
          }
          dim {
            dim_value: 128
          }
          dim {
            dim_value: 3
          }
          dim {
            dim_value: 3
          }
        }
      }
    }
  }
  input {
    name: "499"
    type {
      tensor_type {
        elem_type: FLOAT
        shape {
          dim {
            dim_value: 960
          }
        }
      }
    }
  }
  input {
    name: "500"
    type {
      tensor_type {
        elem_type: FLOAT
        shape {
          dim {
            dim_value: 960
          }
        }
      }
    }
  }
  input {
    name: "501"
    type {
      tensor_type {
        elem_type: FLOAT
        shape {
          dim {
            dim_value: 960
          }
        }
      }
    }
  }
  input {
    name: "502"
    type {
      tensor_type {
        elem_type: FLOAT
        shape {
          dim {
            dim_value: 960
          }
        }
      }
    }
  }
  input {
    name: "503"
    type {
      tensor_type {
        elem_type: INT64
        shape {
          dim {
            dim_value: 1
          }
        }
      }
    }
  }
  input {
    name: "504"
    type {
      tensor_type {
        elem_type: FLOAT
        shape {
          dim {
            dim_value: 128
          }
          dim {
            dim_value: 960
          }
          dim {
            dim_value: 1
          }
          dim {
            dim_value: 1
          }
        }
      }
    }
  }
  input {
    name: "505"
    type {
      tensor_type {
        elem_type: FLOAT
        shape {
          dim {
            dim_value: 128
          }
        }
      }
    }
  }
  input {
    name: "506"
    type {
      tensor_type {
        elem_type: FLOAT
        shape {
          dim {
            dim_value: 128
          }
        }
      }
    }
  }
  input {
    name: "507"
    type {
      tensor_type {
        elem_type: FLOAT
        shape {
          dim {
            dim_value: 128
          }
        }
      }
    }
  }
  input {
    name: "508"
    type {
      tensor_type {
        elem_type: FLOAT
        shape {
          dim {
            dim_value: 128
          }
        }
      }
    }
  }
  input {
    name: "509"
    type {
      tensor_type {
        elem_type: INT64
        shape {
          dim {
            dim_value: 1
          }
        }
      }
    }
  }
  input {
    name: "510"
    type {
      tensor_type {
        elem_type: FLOAT
        shape {
          dim {
            dim_value: 32
          }
          dim {
            dim_value: 128
          }
          dim {
            dim_value: 3
          }
          dim {
            dim_value: 3
          }
        }
      }
    }
  }
  input {
    name: "511"
    type {
      tensor_type {
        elem_type: FLOAT
        shape {
          dim {
            dim_value: 992
          }
        }
      }
    }
  }
  input {
    name: "512"
    type {
      tensor_type {
        elem_type: FLOAT
        shape {
          dim {
            dim_value: 992
          }
        }
      }
    }
  }
  input {
    name: "513"
    type {
      tensor_type {
        elem_type: FLOAT
        shape {
          dim {
            dim_value: 992
          }
        }
      }
    }
  }
  input {
    name: "514"
    type {
      tensor_type {
        elem_type: FLOAT
        shape {
          dim {
            dim_value: 992
          }
        }
      }
    }
  }
  input {
    name: "515"
    type {
      tensor_type {
        elem_type: INT64
        shape {
          dim {
            dim_value: 1
          }
        }
      }
    }
  }
  input {
    name: "516"
    type {
      tensor_type {
        elem_type: FLOAT
        shape {
          dim {
            dim_value: 128
          }
          dim {
            dim_value: 992
          }
          dim {
            dim_value: 1
          }
          dim {
            dim_value: 1
          }
        }
      }
    }
  }
  input {
    name: "517"
    type {
      tensor_type {
        elem_type: FLOAT
        shape {
          dim {
            dim_value: 128
          }
        }
      }
    }
  }
  input {
    name: "518"
    type {
      tensor_type {
        elem_type: FLOAT
        shape {
          dim {
            dim_value: 128
          }
        }
      }
    }
  }
  input {
    name: "519"
    type {
      tensor_type {
        elem_type: FLOAT
        shape {
          dim {
            dim_value: 128
          }
        }
      }
    }
  }
  input {
    name: "520"
    type {
      tensor_type {
        elem_type: FLOAT
        shape {
          dim {
            dim_value: 128
          }
        }
      }
    }
  }
  input {
    name: "521"
    type {
      tensor_type {
        elem_type: INT64
        shape {
          dim {
            dim_value: 1
          }
        }
      }
    }
  }
  input {
    name: "522"
    type {
      tensor_type {
        elem_type: FLOAT
        shape {
          dim {
            dim_value: 32
          }
          dim {
            dim_value: 128
          }
          dim {
            dim_value: 3
          }
          dim {
            dim_value: 3
          }
        }
      }
    }
  }
  input {
    name: "523"
    type {
      tensor_type {
        elem_type: FLOAT
        shape {
          dim {
            dim_value: 1024
          }
        }
      }
    }
  }
  input {
    name: "524"
    type {
      tensor_type {
        elem_type: FLOAT
        shape {
          dim {
            dim_value: 1024
          }
        }
      }
    }
  }
  input {
    name: "525"
    type {
      tensor_type {
        elem_type: FLOAT
        shape {
          dim {
            dim_value: 1024
          }
        }
      }
    }
  }
  input {
    name: "526"
    type {
      tensor_type {
        elem_type: FLOAT
        shape {
          dim {
            dim_value: 1024
          }
        }
      }
    }
  }
  input {
    name: "527"
    type {
      tensor_type {
        elem_type: INT64
        shape {
          dim {
            dim_value: 1
          }
        }
      }
    }
  }
  input {
    name: "528"
    type {
      tensor_type {
        elem_type: FLOAT
        shape {
          dim {
            dim_value: 512
          }
          dim {
            dim_value: 1024
          }
          dim {
            dim_value: 1
          }
          dim {
            dim_value: 1
          }
        }
      }
    }
  }
  input {
    name: "529"
    type {
      tensor_type {
        elem_type: FLOAT
        shape {
          dim {
            dim_value: 512
          }
        }
      }
    }
  }
  input {
    name: "530"
    type {
      tensor_type {
        elem_type: FLOAT
        shape {
          dim {
            dim_value: 512
          }
        }
      }
    }
  }
  input {
    name: "531"
    type {
      tensor_type {
        elem_type: FLOAT
        shape {
          dim {
            dim_value: 512
          }
        }
      }
    }
  }
  input {
    name: "532"
    type {
      tensor_type {
        elem_type: FLOAT
        shape {
          dim {
            dim_value: 512
          }
        }
      }
    }
  }
  input {
    name: "533"
    type {
      tensor_type {
        elem_type: INT64
        shape {
          dim {
            dim_value: 1
          }
        }
      }
    }
  }
  input {
    name: "534"
    type {
      tensor_type {
        elem_type: FLOAT
        shape {
          dim {
            dim_value: 128
          }
          dim {
            dim_value: 512
          }
          dim {
            dim_value: 1
          }
          dim {
            dim_value: 1
          }
        }
      }
    }
  }
  input {
    name: "535"
    type {
      tensor_type {
        elem_type: FLOAT
        shape {
          dim {
            dim_value: 128
          }
        }
      }
    }
  }
  input {
    name: "536"
    type {
      tensor_type {
        elem_type: FLOAT
        shape {
          dim {
            dim_value: 128
          }
        }
      }
    }
  }
  input {
    name: "537"
    type {
      tensor_type {
        elem_type: FLOAT
        shape {
          dim {
            dim_value: 128
          }
        }
      }
    }
  }
  input {
    name: "538"
    type {
      tensor_type {
        elem_type: FLOAT
        shape {
          dim {
            dim_value: 128
          }
        }
      }
    }
  }
  input {
    name: "539"
    type {
      tensor_type {
        elem_type: INT64
        shape {
          dim {
            dim_value: 1
          }
        }
      }
    }
  }
  input {
    name: "540"
    type {
      tensor_type {
        elem_type: FLOAT
        shape {
          dim {
            dim_value: 32
          }
          dim {
            dim_value: 128
          }
          dim {
            dim_value: 3
          }
          dim {
            dim_value: 3
          }
        }
      }
    }
  }
  input {
    name: "541"
    type {
      tensor_type {
        elem_type: FLOAT
        shape {
          dim {
            dim_value: 544
          }
        }
      }
    }
  }
  input {
    name: "542"
    type {
      tensor_type {
        elem_type: FLOAT
        shape {
          dim {
            dim_value: 544
          }
        }
      }
    }
  }
  input {
    name: "543"
    type {
      tensor_type {
        elem_type: FLOAT
        shape {
          dim {
            dim_value: 544
          }
        }
      }
    }
  }
  input {
    name: "544"
    type {
      tensor_type {
        elem_type: FLOAT
        shape {
          dim {
            dim_value: 544
          }
        }
      }
    }
  }
  input {
    name: "545"
    type {
      tensor_type {
        elem_type: INT64
        shape {
          dim {
            dim_value: 1
          }
        }
      }
    }
  }
  input {
    name: "546"
    type {
      tensor_type {
        elem_type: FLOAT
        shape {
          dim {
            dim_value: 128
          }
          dim {
            dim_value: 544
          }
          dim {
            dim_value: 1
          }
          dim {
            dim_value: 1
          }
        }
      }
    }
  }
  input {
    name: "547"
    type {
      tensor_type {
        elem_type: FLOAT
        shape {
          dim {
            dim_value: 128
          }
        }
      }
    }
  }
  input {
    name: "548"
    type {
      tensor_type {
        elem_type: FLOAT
        shape {
          dim {
            dim_value: 128
          }
        }
      }
    }
  }
  input {
    name: "549"
    type {
      tensor_type {
        elem_type: FLOAT
        shape {
          dim {
            dim_value: 128
          }
        }
      }
    }
  }
  input {
    name: "550"
    type {
      tensor_type {
        elem_type: FLOAT
        shape {
          dim {
            dim_value: 128
          }
        }
      }
    }
  }
  input {
    name: "551"
    type {
      tensor_type {
        elem_type: INT64
        shape {
          dim {
            dim_value: 1
          }
        }
      }
    }
  }
  input {
    name: "552"
    type {
      tensor_type {
        elem_type: FLOAT
        shape {
          dim {
            dim_value: 32
          }
          dim {
            dim_value: 128
          }
          dim {
            dim_value: 3
          }
          dim {
            dim_value: 3
          }
        }
      }
    }
  }
  input {
    name: "553"
    type {
      tensor_type {
        elem_type: FLOAT
        shape {
          dim {
            dim_value: 576
          }
        }
      }
    }
  }
  input {
    name: "554"
    type {
      tensor_type {
        elem_type: FLOAT
        shape {
          dim {
            dim_value: 576
          }
        }
      }
    }
  }
  input {
    name: "555"
    type {
      tensor_type {
        elem_type: FLOAT
        shape {
          dim {
            dim_value: 576
          }
        }
      }
    }
  }
  input {
    name: "556"
    type {
      tensor_type {
        elem_type: FLOAT
        shape {
          dim {
            dim_value: 576
          }
        }
      }
    }
  }
  input {
    name: "557"
    type {
      tensor_type {
        elem_type: INT64
        shape {
          dim {
            dim_value: 1
          }
        }
      }
    }
  }
  input {
    name: "558"
    type {
      tensor_type {
        elem_type: FLOAT
        shape {
          dim {
            dim_value: 128
          }
          dim {
            dim_value: 576
          }
          dim {
            dim_value: 1
          }
          dim {
            dim_value: 1
          }
        }
      }
    }
  }
  input {
    name: "559"
    type {
      tensor_type {
        elem_type: FLOAT
        shape {
          dim {
            dim_value: 128
          }
        }
      }
    }
  }
  input {
    name: "560"
    type {
      tensor_type {
        elem_type: FLOAT
        shape {
          dim {
            dim_value: 128
          }
        }
      }
    }
  }
  input {
    name: "561"
    type {
      tensor_type {
        elem_type: FLOAT
        shape {
          dim {
            dim_value: 128
          }
        }
      }
    }
  }
  input {
    name: "562"
    type {
      tensor_type {
        elem_type: FLOAT
        shape {
          dim {
            dim_value: 128
          }
        }
      }
    }
  }
  input {
    name: "563"
    type {
      tensor_type {
        elem_type: INT64
        shape {
          dim {
            dim_value: 1
          }
        }
      }
    }
  }
  input {
    name: "564"
    type {
      tensor_type {
        elem_type: FLOAT
        shape {
          dim {
            dim_value: 32
          }
          dim {
            dim_value: 128
          }
          dim {
            dim_value: 3
          }
          dim {
            dim_value: 3
          }
        }
      }
    }
  }
  input {
    name: "565"
    type {
      tensor_type {
        elem_type: FLOAT
        shape {
          dim {
            dim_value: 608
          }
        }
      }
    }
  }
  input {
    name: "566"
    type {
      tensor_type {
        elem_type: FLOAT
        shape {
          dim {
            dim_value: 608
          }
        }
      }
    }
  }
  input {
    name: "567"
    type {
      tensor_type {
        elem_type: FLOAT
        shape {
          dim {
            dim_value: 608
          }
        }
      }
    }
  }
  input {
    name: "568"
    type {
      tensor_type {
        elem_type: FLOAT
        shape {
          dim {
            dim_value: 608
          }
        }
      }
    }
  }
  input {
    name: "569"
    type {
      tensor_type {
        elem_type: INT64
        shape {
          dim {
            dim_value: 1
          }
        }
      }
    }
  }
  input {
    name: "570"
    type {
      tensor_type {
        elem_type: FLOAT
        shape {
          dim {
            dim_value: 128
          }
          dim {
            dim_value: 608
          }
          dim {
            dim_value: 1
          }
          dim {
            dim_value: 1
          }
        }
      }
    }
  }
  input {
    name: "571"
    type {
      tensor_type {
        elem_type: FLOAT
        shape {
          dim {
            dim_value: 128
          }
        }
      }
    }
  }
  input {
    name: "572"
    type {
      tensor_type {
        elem_type: FLOAT
        shape {
          dim {
            dim_value: 128
          }
        }
      }
    }
  }
  input {
    name: "573"
    type {
      tensor_type {
        elem_type: FLOAT
        shape {
          dim {
            dim_value: 128
          }
        }
      }
    }
  }
  input {
    name: "574"
    type {
      tensor_type {
        elem_type: FLOAT
        shape {
          dim {
            dim_value: 128
          }
        }
      }
    }
  }
  input {
    name: "575"
    type {
      tensor_type {
        elem_type: INT64
        shape {
          dim {
            dim_value: 1
          }
        }
      }
    }
  }
  input {
    name: "576"
    type {
      tensor_type {
        elem_type: FLOAT
        shape {
          dim {
            dim_value: 32
          }
          dim {
            dim_value: 128
          }
          dim {
            dim_value: 3
          }
          dim {
            dim_value: 3
          }
        }
      }
    }
  }
  input {
    name: "577"
    type {
      tensor_type {
        elem_type: FLOAT
        shape {
          dim {
            dim_value: 640
          }
        }
      }
    }
  }
  input {
    name: "578"
    type {
      tensor_type {
        elem_type: FLOAT
        shape {
          dim {
            dim_value: 640
          }
        }
      }
    }
  }
  input {
    name: "579"
    type {
      tensor_type {
        elem_type: FLOAT
        shape {
          dim {
            dim_value: 640
          }
        }
      }
    }
  }
  input {
    name: "580"
    type {
      tensor_type {
        elem_type: FLOAT
        shape {
          dim {
            dim_value: 640
          }
        }
      }
    }
  }
  input {
    name: "581"
    type {
      tensor_type {
        elem_type: INT64
        shape {
          dim {
            dim_value: 1
          }
        }
      }
    }
  }
  input {
    name: "582"
    type {
      tensor_type {
        elem_type: FLOAT
        shape {
          dim {
            dim_value: 128
          }
          dim {
            dim_value: 640
          }
          dim {
            dim_value: 1
          }
          dim {
            dim_value: 1
          }
        }
      }
    }
  }
  input {
    name: "583"
    type {
      tensor_type {
        elem_type: FLOAT
        shape {
          dim {
            dim_value: 128
          }
        }
      }
    }
  }
  input {
    name: "584"
    type {
      tensor_type {
        elem_type: FLOAT
        shape {
          dim {
            dim_value: 128
          }
        }
      }
    }
  }
  input {
    name: "585"
    type {
      tensor_type {
        elem_type: FLOAT
        shape {
          dim {
            dim_value: 128
          }
        }
      }
    }
  }
  input {
    name: "586"
    type {
      tensor_type {
        elem_type: FLOAT
        shape {
          dim {
            dim_value: 128
          }
        }
      }
    }
  }
  input {
    name: "587"
    type {
      tensor_type {
        elem_type: INT64
        shape {
          dim {
            dim_value: 1
          }
        }
      }
    }
  }
  input {
    name: "588"
    type {
      tensor_type {
        elem_type: FLOAT
        shape {
          dim {
            dim_value: 32
          }
          dim {
            dim_value: 128
          }
          dim {
            dim_value: 3
          }
          dim {
            dim_value: 3
          }
        }
      }
    }
  }
  input {
    name: "589"
    type {
      tensor_type {
        elem_type: FLOAT
        shape {
          dim {
            dim_value: 672
          }
        }
      }
    }
  }
  input {
    name: "590"
    type {
      tensor_type {
        elem_type: FLOAT
        shape {
          dim {
            dim_value: 672
          }
        }
      }
    }
  }
  input {
    name: "591"
    type {
      tensor_type {
        elem_type: FLOAT
        shape {
          dim {
            dim_value: 672
          }
        }
      }
    }
  }
  input {
    name: "592"
    type {
      tensor_type {
        elem_type: FLOAT
        shape {
          dim {
            dim_value: 672
          }
        }
      }
    }
  }
  input {
    name: "593"
    type {
      tensor_type {
        elem_type: INT64
        shape {
          dim {
            dim_value: 1
          }
        }
      }
    }
  }
  input {
    name: "594"
    type {
      tensor_type {
        elem_type: FLOAT
        shape {
          dim {
            dim_value: 128
          }
          dim {
            dim_value: 672
          }
          dim {
            dim_value: 1
          }
          dim {
            dim_value: 1
          }
        }
      }
    }
  }
  input {
    name: "595"
    type {
      tensor_type {
        elem_type: FLOAT
        shape {
          dim {
            dim_value: 128
          }
        }
      }
    }
  }
  input {
    name: "596"
    type {
      tensor_type {
        elem_type: FLOAT
        shape {
          dim {
            dim_value: 128
          }
        }
      }
    }
  }
  input {
    name: "597"
    type {
      tensor_type {
        elem_type: FLOAT
        shape {
          dim {
            dim_value: 128
          }
        }
      }
    }
  }
  input {
    name: "598"
    type {
      tensor_type {
        elem_type: FLOAT
        shape {
          dim {
            dim_value: 128
          }
        }
      }
    }
  }
  input {
    name: "599"
    type {
      tensor_type {
        elem_type: INT64
        shape {
          dim {
            dim_value: 1
          }
        }
      }
    }
  }
  input {
    name: "600"
    type {
      tensor_type {
        elem_type: FLOAT
        shape {
          dim {
            dim_value: 32
          }
          dim {
            dim_value: 128
          }
          dim {
            dim_value: 3
          }
          dim {
            dim_value: 3
          }
        }
      }
    }
  }
  input {
    name: "601"
    type {
      tensor_type {
        elem_type: FLOAT
        shape {
          dim {
            dim_value: 704
          }
        }
      }
    }
  }
  input {
    name: "602"
    type {
      tensor_type {
        elem_type: FLOAT
        shape {
          dim {
            dim_value: 704
          }
        }
      }
    }
  }
  input {
    name: "603"
    type {
      tensor_type {
        elem_type: FLOAT
        shape {
          dim {
            dim_value: 704
          }
        }
      }
    }
  }
  input {
    name: "604"
    type {
      tensor_type {
        elem_type: FLOAT
        shape {
          dim {
            dim_value: 704
          }
        }
      }
    }
  }
  input {
    name: "605"
    type {
      tensor_type {
        elem_type: INT64
        shape {
          dim {
            dim_value: 1
          }
        }
      }
    }
  }
  input {
    name: "606"
    type {
      tensor_type {
        elem_type: FLOAT
        shape {
          dim {
            dim_value: 128
          }
          dim {
            dim_value: 704
          }
          dim {
            dim_value: 1
          }
          dim {
            dim_value: 1
          }
        }
      }
    }
  }
  input {
    name: "607"
    type {
      tensor_type {
        elem_type: FLOAT
        shape {
          dim {
            dim_value: 128
          }
        }
      }
    }
  }
  input {
    name: "608"
    type {
      tensor_type {
        elem_type: FLOAT
        shape {
          dim {
            dim_value: 128
          }
        }
      }
    }
  }
  input {
    name: "609"
    type {
      tensor_type {
        elem_type: FLOAT
        shape {
          dim {
            dim_value: 128
          }
        }
      }
    }
  }
  input {
    name: "610"
    type {
      tensor_type {
        elem_type: FLOAT
        shape {
          dim {
            dim_value: 128
          }
        }
      }
    }
  }
  input {
    name: "611"
    type {
      tensor_type {
        elem_type: INT64
        shape {
          dim {
            dim_value: 1
          }
        }
      }
    }
  }
  input {
    name: "612"
    type {
      tensor_type {
        elem_type: FLOAT
        shape {
          dim {
            dim_value: 32
          }
          dim {
            dim_value: 128
          }
          dim {
            dim_value: 3
          }
          dim {
            dim_value: 3
          }
        }
      }
    }
  }
  input {
    name: "613"
    type {
      tensor_type {
        elem_type: FLOAT
        shape {
          dim {
            dim_value: 736
          }
        }
      }
    }
  }
  input {
    name: "614"
    type {
      tensor_type {
        elem_type: FLOAT
        shape {
          dim {
            dim_value: 736
          }
        }
      }
    }
  }
  input {
    name: "615"
    type {
      tensor_type {
        elem_type: FLOAT
        shape {
          dim {
            dim_value: 736
          }
        }
      }
    }
  }
  input {
    name: "616"
    type {
      tensor_type {
        elem_type: FLOAT
        shape {
          dim {
            dim_value: 736
          }
        }
      }
    }
  }
  input {
    name: "617"
    type {
      tensor_type {
        elem_type: INT64
        shape {
          dim {
            dim_value: 1
          }
        }
      }
    }
  }
  input {
    name: "618"
    type {
      tensor_type {
        elem_type: FLOAT
        shape {
          dim {
            dim_value: 128
          }
          dim {
            dim_value: 736
          }
          dim {
            dim_value: 1
          }
          dim {
            dim_value: 1
          }
        }
      }
    }
  }
  input {
    name: "619"
    type {
      tensor_type {
        elem_type: FLOAT
        shape {
          dim {
            dim_value: 128
          }
        }
      }
    }
  }
  input {
    name: "620"
    type {
      tensor_type {
        elem_type: FLOAT
        shape {
          dim {
            dim_value: 128
          }
        }
      }
    }
  }
  input {
    name: "621"
    type {
      tensor_type {
        elem_type: FLOAT
        shape {
          dim {
            dim_value: 128
          }
        }
      }
    }
  }
  input {
    name: "622"
    type {
      tensor_type {
        elem_type: FLOAT
        shape {
          dim {
            dim_value: 128
          }
        }
      }
    }
  }
  input {
    name: "623"
    type {
      tensor_type {
        elem_type: INT64
        shape {
          dim {
            dim_value: 1
          }
        }
      }
    }
  }
  input {
    name: "624"
    type {
      tensor_type {
        elem_type: FLOAT
        shape {
          dim {
            dim_value: 32
          }
          dim {
            dim_value: 128
          }
          dim {
            dim_value: 3
          }
          dim {
            dim_value: 3
          }
        }
      }
    }
  }
  input {
    name: "625"
    type {
      tensor_type {
        elem_type: FLOAT
        shape {
          dim {
            dim_value: 768
          }
        }
      }
    }
  }
  input {
    name: "626"
    type {
      tensor_type {
        elem_type: FLOAT
        shape {
          dim {
            dim_value: 768
          }
        }
      }
    }
  }
  input {
    name: "627"
    type {
      tensor_type {
        elem_type: FLOAT
        shape {
          dim {
            dim_value: 768
          }
        }
      }
    }
  }
  input {
    name: "628"
    type {
      tensor_type {
        elem_type: FLOAT
        shape {
          dim {
            dim_value: 768
          }
        }
      }
    }
  }
  input {
    name: "629"
    type {
      tensor_type {
        elem_type: INT64
        shape {
          dim {
            dim_value: 1
          }
        }
      }
    }
  }
  input {
    name: "630"
    type {
      tensor_type {
        elem_type: FLOAT
        shape {
          dim {
            dim_value: 128
          }
          dim {
            dim_value: 768
          }
          dim {
            dim_value: 1
          }
          dim {
            dim_value: 1
          }
        }
      }
    }
  }
  input {
    name: "631"
    type {
      tensor_type {
        elem_type: FLOAT
        shape {
          dim {
            dim_value: 128
          }
        }
      }
    }
  }
  input {
    name: "632"
    type {
      tensor_type {
        elem_type: FLOAT
        shape {
          dim {
            dim_value: 128
          }
        }
      }
    }
  }
  input {
    name: "633"
    type {
      tensor_type {
        elem_type: FLOAT
        shape {
          dim {
            dim_value: 128
          }
        }
      }
    }
  }
  input {
    name: "634"
    type {
      tensor_type {
        elem_type: FLOAT
        shape {
          dim {
            dim_value: 128
          }
        }
      }
    }
  }
  input {
    name: "635"
    type {
      tensor_type {
        elem_type: INT64
        shape {
          dim {
            dim_value: 1
          }
        }
      }
    }
  }
  input {
    name: "636"
    type {
      tensor_type {
        elem_type: FLOAT
        shape {
          dim {
            dim_value: 32
          }
          dim {
            dim_value: 128
          }
          dim {
            dim_value: 3
          }
          dim {
            dim_value: 3
          }
        }
      }
    }
  }
  input {
    name: "637"
    type {
      tensor_type {
        elem_type: FLOAT
        shape {
          dim {
            dim_value: 800
          }
        }
      }
    }
  }
  input {
    name: "638"
    type {
      tensor_type {
        elem_type: FLOAT
        shape {
          dim {
            dim_value: 800
          }
        }
      }
    }
  }
  input {
    name: "639"
    type {
      tensor_type {
        elem_type: FLOAT
        shape {
          dim {
            dim_value: 800
          }
        }
      }
    }
  }
  input {
    name: "640"
    type {
      tensor_type {
        elem_type: FLOAT
        shape {
          dim {
            dim_value: 800
          }
        }
      }
    }
  }
  input {
    name: "641"
    type {
      tensor_type {
        elem_type: INT64
        shape {
          dim {
            dim_value: 1
          }
        }
      }
    }
  }
  input {
    name: "642"
    type {
      tensor_type {
        elem_type: FLOAT
        shape {
          dim {
            dim_value: 128
          }
          dim {
            dim_value: 800
          }
          dim {
            dim_value: 1
          }
          dim {
            dim_value: 1
          }
        }
      }
    }
  }
  input {
    name: "643"
    type {
      tensor_type {
        elem_type: FLOAT
        shape {
          dim {
            dim_value: 128
          }
        }
      }
    }
  }
  input {
    name: "644"
    type {
      tensor_type {
        elem_type: FLOAT
        shape {
          dim {
            dim_value: 128
          }
        }
      }
    }
  }
  input {
    name: "645"
    type {
      tensor_type {
        elem_type: FLOAT
        shape {
          dim {
            dim_value: 128
          }
        }
      }
    }
  }
  input {
    name: "646"
    type {
      tensor_type {
        elem_type: FLOAT
        shape {
          dim {
            dim_value: 128
          }
        }
      }
    }
  }
  input {
    name: "647"
    type {
      tensor_type {
        elem_type: INT64
        shape {
          dim {
            dim_value: 1
          }
        }
      }
    }
  }
  input {
    name: "648"
    type {
      tensor_type {
        elem_type: FLOAT
        shape {
          dim {
            dim_value: 32
          }
          dim {
            dim_value: 128
          }
          dim {
            dim_value: 3
          }
          dim {
            dim_value: 3
          }
        }
      }
    }
  }
  input {
    name: "649"
    type {
      tensor_type {
        elem_type: FLOAT
        shape {
          dim {
            dim_value: 832
          }
        }
      }
    }
  }
  input {
    name: "650"
    type {
      tensor_type {
        elem_type: FLOAT
        shape {
          dim {
            dim_value: 832
          }
        }
      }
    }
  }
  input {
    name: "651"
    type {
      tensor_type {
        elem_type: FLOAT
        shape {
          dim {
            dim_value: 832
          }
        }
      }
    }
  }
  input {
    name: "652"
    type {
      tensor_type {
        elem_type: FLOAT
        shape {
          dim {
            dim_value: 832
          }
        }
      }
    }
  }
  input {
    name: "653"
    type {
      tensor_type {
        elem_type: INT64
        shape {
          dim {
            dim_value: 1
          }
        }
      }
    }
  }
  input {
    name: "654"
    type {
      tensor_type {
        elem_type: FLOAT
        shape {
          dim {
            dim_value: 128
          }
          dim {
            dim_value: 832
          }
          dim {
            dim_value: 1
          }
          dim {
            dim_value: 1
          }
        }
      }
    }
  }
  input {
    name: "655"
    type {
      tensor_type {
        elem_type: FLOAT
        shape {
          dim {
            dim_value: 128
          }
        }
      }
    }
  }
  input {
    name: "656"
    type {
      tensor_type {
        elem_type: FLOAT
        shape {
          dim {
            dim_value: 128
          }
        }
      }
    }
  }
  input {
    name: "657"
    type {
      tensor_type {
        elem_type: FLOAT
        shape {
          dim {
            dim_value: 128
          }
        }
      }
    }
  }
  input {
    name: "658"
    type {
      tensor_type {
        elem_type: FLOAT
        shape {
          dim {
            dim_value: 128
          }
        }
      }
    }
  }
  input {
    name: "659"
    type {
      tensor_type {
        elem_type: INT64
        shape {
          dim {
            dim_value: 1
          }
        }
      }
    }
  }
  input {
    name: "660"
    type {
      tensor_type {
        elem_type: FLOAT
        shape {
          dim {
            dim_value: 32
          }
          dim {
            dim_value: 128
          }
          dim {
            dim_value: 3
          }
          dim {
            dim_value: 3
          }
        }
      }
    }
  }
  input {
    name: "661"
    type {
      tensor_type {
        elem_type: FLOAT
        shape {
          dim {
            dim_value: 864
          }
        }
      }
    }
  }
  input {
    name: "662"
    type {
      tensor_type {
        elem_type: FLOAT
        shape {
          dim {
            dim_value: 864
          }
        }
      }
    }
  }
  input {
    name: "663"
    type {
      tensor_type {
        elem_type: FLOAT
        shape {
          dim {
            dim_value: 864
          }
        }
      }
    }
  }
  input {
    name: "664"
    type {
      tensor_type {
        elem_type: FLOAT
        shape {
          dim {
            dim_value: 864
          }
        }
      }
    }
  }
  input {
    name: "665"
    type {
      tensor_type {
        elem_type: INT64
        shape {
          dim {
            dim_value: 1
          }
        }
      }
    }
  }
  input {
    name: "666"
    type {
      tensor_type {
        elem_type: FLOAT
        shape {
          dim {
            dim_value: 128
          }
          dim {
            dim_value: 864
          }
          dim {
            dim_value: 1
          }
          dim {
            dim_value: 1
          }
        }
      }
    }
  }
  input {
    name: "667"
    type {
      tensor_type {
        elem_type: FLOAT
        shape {
          dim {
            dim_value: 128
          }
        }
      }
    }
  }
  input {
    name: "668"
    type {
      tensor_type {
        elem_type: FLOAT
        shape {
          dim {
            dim_value: 128
          }
        }
      }
    }
  }
  input {
    name: "669"
    type {
      tensor_type {
        elem_type: FLOAT
        shape {
          dim {
            dim_value: 128
          }
        }
      }
    }
  }
  input {
    name: "670"
    type {
      tensor_type {
        elem_type: FLOAT
        shape {
          dim {
            dim_value: 128
          }
        }
      }
    }
  }
  input {
    name: "671"
    type {
      tensor_type {
        elem_type: INT64
        shape {
          dim {
            dim_value: 1
          }
        }
      }
    }
  }
  input {
    name: "672"
    type {
      tensor_type {
        elem_type: FLOAT
        shape {
          dim {
            dim_value: 32
          }
          dim {
            dim_value: 128
          }
          dim {
            dim_value: 3
          }
          dim {
            dim_value: 3
          }
        }
      }
    }
  }
  input {
    name: "673"
    type {
      tensor_type {
        elem_type: FLOAT
        shape {
          dim {
            dim_value: 896
          }
        }
      }
    }
  }
  input {
    name: "674"
    type {
      tensor_type {
        elem_type: FLOAT
        shape {
          dim {
            dim_value: 896
          }
        }
      }
    }
  }
  input {
    name: "675"
    type {
      tensor_type {
        elem_type: FLOAT
        shape {
          dim {
            dim_value: 896
          }
        }
      }
    }
  }
  input {
    name: "676"
    type {
      tensor_type {
        elem_type: FLOAT
        shape {
          dim {
            dim_value: 896
          }
        }
      }
    }
  }
  input {
    name: "677"
    type {
      tensor_type {
        elem_type: INT64
        shape {
          dim {
            dim_value: 1
          }
        }
      }
    }
  }
  input {
    name: "678"
    type {
      tensor_type {
        elem_type: FLOAT
        shape {
          dim {
            dim_value: 128
          }
          dim {
            dim_value: 896
          }
          dim {
            dim_value: 1
          }
          dim {
            dim_value: 1
          }
        }
      }
    }
  }
  input {
    name: "679"
    type {
      tensor_type {
        elem_type: FLOAT
        shape {
          dim {
            dim_value: 128
          }
        }
      }
    }
  }
  input {
    name: "680"
    type {
      tensor_type {
        elem_type: FLOAT
        shape {
          dim {
            dim_value: 128
          }
        }
      }
    }
  }
  input {
    name: "681"
    type {
      tensor_type {
        elem_type: FLOAT
        shape {
          dim {
            dim_value: 128
          }
        }
      }
    }
  }
  input {
    name: "682"
    type {
      tensor_type {
        elem_type: FLOAT
        shape {
          dim {
            dim_value: 128
          }
        }
      }
    }
  }
  input {
    name: "683"
    type {
      tensor_type {
        elem_type: INT64
        shape {
          dim {
            dim_value: 1
          }
        }
      }
    }
  }
  input {
    name: "684"
    type {
      tensor_type {
        elem_type: FLOAT
        shape {
          dim {
            dim_value: 32
          }
          dim {
            dim_value: 128
          }
          dim {
            dim_value: 3
          }
          dim {
            dim_value: 3
          }
        }
      }
    }
  }
  input {
    name: "685"
    type {
      tensor_type {
        elem_type: FLOAT
        shape {
          dim {
            dim_value: 928
          }
        }
      }
    }
  }
  input {
    name: "686"
    type {
      tensor_type {
        elem_type: FLOAT
        shape {
          dim {
            dim_value: 928
          }
        }
      }
    }
  }
  input {
    name: "687"
    type {
      tensor_type {
        elem_type: FLOAT
        shape {
          dim {
            dim_value: 928
          }
        }
      }
    }
  }
  input {
    name: "688"
    type {
      tensor_type {
        elem_type: FLOAT
        shape {
          dim {
            dim_value: 928
          }
        }
      }
    }
  }
  input {
    name: "689"
    type {
      tensor_type {
        elem_type: INT64
        shape {
          dim {
            dim_value: 1
          }
        }
      }
    }
  }
  input {
    name: "690"
    type {
      tensor_type {
        elem_type: FLOAT
        shape {
          dim {
            dim_value: 128
          }
          dim {
            dim_value: 928
          }
          dim {
            dim_value: 1
          }
          dim {
            dim_value: 1
          }
        }
      }
    }
  }
  input {
    name: "691"
    type {
      tensor_type {
        elem_type: FLOAT
        shape {
          dim {
            dim_value: 128
          }
        }
      }
    }
  }
  input {
    name: "692"
    type {
      tensor_type {
        elem_type: FLOAT
        shape {
          dim {
            dim_value: 128
          }
        }
      }
    }
  }
  input {
    name: "693"
    type {
      tensor_type {
        elem_type: FLOAT
        shape {
          dim {
            dim_value: 128
          }
        }
      }
    }
  }
  input {
    name: "694"
    type {
      tensor_type {
        elem_type: FLOAT
        shape {
          dim {
            dim_value: 128
          }
        }
      }
    }
  }
  input {
    name: "695"
    type {
      tensor_type {
        elem_type: INT64
        shape {
          dim {
            dim_value: 1
          }
        }
      }
    }
  }
  input {
    name: "696"
    type {
      tensor_type {
        elem_type: FLOAT
        shape {
          dim {
            dim_value: 32
          }
          dim {
            dim_value: 128
          }
          dim {
            dim_value: 3
          }
          dim {
            dim_value: 3
          }
        }
      }
    }
  }
  input {
    name: "697"
    type {
      tensor_type {
        elem_type: FLOAT
        shape {
          dim {
            dim_value: 960
          }
        }
      }
    }
  }
  input {
    name: "698"
    type {
      tensor_type {
        elem_type: FLOAT
        shape {
          dim {
            dim_value: 960
          }
        }
      }
    }
  }
  input {
    name: "699"
    type {
      tensor_type {
        elem_type: FLOAT
        shape {
          dim {
            dim_value: 960
          }
        }
      }
    }
  }
  input {
    name: "700"
    type {
      tensor_type {
        elem_type: FLOAT
        shape {
          dim {
            dim_value: 960
          }
        }
      }
    }
  }
  input {
    name: "701"
    type {
      tensor_type {
        elem_type: INT64
        shape {
          dim {
            dim_value: 1
          }
        }
      }
    }
  }
  input {
    name: "702"
    type {
      tensor_type {
        elem_type: FLOAT
        shape {
          dim {
            dim_value: 128
          }
          dim {
            dim_value: 960
          }
          dim {
            dim_value: 1
          }
          dim {
            dim_value: 1
          }
        }
      }
    }
  }
  input {
    name: "703"
    type {
      tensor_type {
        elem_type: FLOAT
        shape {
          dim {
            dim_value: 128
          }
        }
      }
    }
  }
  input {
    name: "704"
    type {
      tensor_type {
        elem_type: FLOAT
        shape {
          dim {
            dim_value: 128
          }
        }
      }
    }
  }
  input {
    name: "705"
    type {
      tensor_type {
        elem_type: FLOAT
        shape {
          dim {
            dim_value: 128
          }
        }
      }
    }
  }
  input {
    name: "706"
    type {
      tensor_type {
        elem_type: FLOAT
        shape {
          dim {
            dim_value: 128
          }
        }
      }
    }
  }
  input {
    name: "707"
    type {
      tensor_type {
        elem_type: INT64
        shape {
          dim {
            dim_value: 1
          }
        }
      }
    }
  }
  input {
    name: "708"
    type {
      tensor_type {
        elem_type: FLOAT
        shape {
          dim {
            dim_value: 32
          }
          dim {
            dim_value: 128
          }
          dim {
            dim_value: 3
          }
          dim {
            dim_value: 3
          }
        }
      }
    }
  }
  input {
    name: "709"
    type {
      tensor_type {
        elem_type: FLOAT
        shape {
          dim {
            dim_value: 992
          }
        }
      }
    }
  }
  input {
    name: "710"
    type {
      tensor_type {
        elem_type: FLOAT
        shape {
          dim {
            dim_value: 992
          }
        }
      }
    }
  }
  input {
    name: "711"
    type {
      tensor_type {
        elem_type: FLOAT
        shape {
          dim {
            dim_value: 992
          }
        }
      }
    }
  }
  input {
    name: "712"
    type {
      tensor_type {
        elem_type: FLOAT
        shape {
          dim {
            dim_value: 992
          }
        }
      }
    }
  }
  input {
    name: "713"
    type {
      tensor_type {
        elem_type: INT64
        shape {
          dim {
            dim_value: 1
          }
        }
      }
    }
  }
  input {
    name: "714"
    type {
      tensor_type {
        elem_type: FLOAT
        shape {
          dim {
            dim_value: 128
          }
          dim {
            dim_value: 992
          }
          dim {
            dim_value: 1
          }
          dim {
            dim_value: 1
          }
        }
      }
    }
  }
  input {
    name: "715"
    type {
      tensor_type {
        elem_type: FLOAT
        shape {
          dim {
            dim_value: 128
          }
        }
      }
    }
  }
  input {
    name: "716"
    type {
      tensor_type {
        elem_type: FLOAT
        shape {
          dim {
            dim_value: 128
          }
        }
      }
    }
  }
  input {
    name: "717"
    type {
      tensor_type {
        elem_type: FLOAT
        shape {
          dim {
            dim_value: 128
          }
        }
      }
    }
  }
  input {
    name: "718"
    type {
      tensor_type {
        elem_type: FLOAT
        shape {
          dim {
            dim_value: 128
          }
        }
      }
    }
  }
  input {
    name: "719"
    type {
      tensor_type {
        elem_type: INT64
        shape {
          dim {
            dim_value: 1
          }
        }
      }
    }
  }
  input {
    name: "720"
    type {
      tensor_type {
        elem_type: FLOAT
        shape {
          dim {
            dim_value: 32
          }
          dim {
            dim_value: 128
          }
          dim {
            dim_value: 3
          }
          dim {
            dim_value: 3
          }
        }
      }
    }
  }
  input {
    name: "721"
    type {
      tensor_type {
        elem_type: FLOAT
        shape {
          dim {
            dim_value: 1024
          }
        }
      }
    }
  }
  input {
    name: "722"
    type {
      tensor_type {
        elem_type: FLOAT
        shape {
          dim {
            dim_value: 1024
          }
        }
      }
    }
  }
  input {
    name: "723"
    type {
      tensor_type {
        elem_type: FLOAT
        shape {
          dim {
            dim_value: 1024
          }
        }
      }
    }
  }
  input {
    name: "724"
    type {
      tensor_type {
        elem_type: FLOAT
        shape {
          dim {
            dim_value: 1024
          }
        }
      }
    }
  }
  input {
    name: "725"
    type {
      tensor_type {
        elem_type: INT64
        shape {
          dim {
            dim_value: 1
          }
        }
      }
    }
  }
  input {
    name: "726"
    type {
      tensor_type {
        elem_type: FLOAT
        shape {
          dim {
            dim_value: 1000
          }
          dim {
            dim_value: 1024
          }
        }
      }
    }
  }
  input {
    name: "727"
    type {
      tensor_type {
        elem_type: FLOAT
        shape {
          dim {
            dim_value: 1000
          }
        }
      }
    }
  }
  output {
    name: "1154"
    type {
      tensor_type {
        elem_type: FLOAT
        shape {
          dim {
            dim_value: 2
          }
          dim {
            dim_value: 1000
          }
        }
      }
    }
  }
}
opset_import {
  version: 5
}
