ir_version: 2
producer_name: "pytorch"
producer_version: "0.3"
graph {
  node {
    input: "0"
    input: "1"
    output: "581"
    op_type: "Conv"
    attribute {
      name: "dilations"
      ints: 1
      ints: 1
      type: INTS
    }
    attribute {
      name: "group"
      i: 1
      type: INT
    }
    attribute {
      name: "kernel_shape"
      ints: 3
      ints: 3
      type: INTS
    }
    attribute {
      name: "pads"
      ints: 0
      ints: 0
      ints: 0
      ints: 0
      type: INTS
    }
    attribute {
      name: "strides"
      ints: 2
      ints: 2
      type: INTS
    }
  }
  node {
    input: "581"
    input: "2"
    input: "3"
    input: "4"
    input: "5"
    output: "582"
    op_type: "BatchNormalization"
    attribute {
      name: "consumed_inputs"
      ints: 0
      ints: 0
      ints: 0
      ints: 1
      ints: 1
      type: INTS
    }
    attribute {
      name: "epsilon"
      f: 0.00100000004749745
      type: FLOAT
    }
    attribute {
      name: "is_test"
      i: 1
      type: INT
    }
    attribute {
      name: "momentum"
      f: 1
      type: FLOAT
    }
  }
  node {
    input: "582"
    output: "583"
    op_type: "Relu"
  }
  node {
    input: "583"
    input: "7"
    output: "584"
    op_type: "Conv"
    attribute {
      name: "dilations"
      ints: 1
      ints: 1
      type: INTS
    }
    attribute {
      name: "group"
      i: 1
      type: INT
    }
    attribute {
      name: "kernel_shape"
      ints: 3
      ints: 3
      type: INTS
    }
    attribute {
      name: "pads"
      ints: 0
      ints: 0
      ints: 0
      ints: 0
      type: INTS
    }
    attribute {
      name: "strides"
      ints: 1
      ints: 1
      type: INTS
    }
  }
  node {
    input: "584"
    input: "8"
    input: "9"
    input: "10"
    input: "11"
    output: "585"
    op_type: "BatchNormalization"
    attribute {
      name: "consumed_inputs"
      ints: 0
      ints: 0
      ints: 0
      ints: 1
      ints: 1
      type: INTS
    }
    attribute {
      name: "epsilon"
      f: 0.00100000004749745
      type: FLOAT
    }
    attribute {
      name: "is_test"
      i: 1
      type: INT
    }
    attribute {
      name: "momentum"
      f: 1
      type: FLOAT
    }
  }
  node {
    input: "585"
    output: "586"
    op_type: "Relu"
  }
  node {
    input: "586"
    input: "13"
    output: "587"
    op_type: "Conv"
    attribute {
      name: "dilations"
      ints: 1
      ints: 1
      type: INTS
    }
    attribute {
      name: "group"
      i: 1
      type: INT
    }
    attribute {
      name: "kernel_shape"
      ints: 3
      ints: 3
      type: INTS
    }
    attribute {
      name: "pads"
      ints: 1
      ints: 1
      ints: 1
      ints: 1
      type: INTS
    }
    attribute {
      name: "strides"
      ints: 1
      ints: 1
      type: INTS
    }
  }
  node {
    input: "587"
    input: "14"
    input: "15"
    input: "16"
    input: "17"
    output: "588"
    op_type: "BatchNormalization"
    attribute {
      name: "consumed_inputs"
      ints: 0
      ints: 0
      ints: 0
      ints: 1
      ints: 1
      type: INTS
    }
    attribute {
      name: "epsilon"
      f: 0.00100000004749745
      type: FLOAT
    }
    attribute {
      name: "is_test"
      i: 1
      type: INT
    }
    attribute {
      name: "momentum"
      f: 1
      type: FLOAT
    }
  }
  node {
    input: "588"
    output: "589"
    op_type: "Relu"
  }
  node {
    input: "589"
    output: "590"
    op_type: "MaxPool"
    attribute {
      name: "kernel_shape"
      ints: 3
      ints: 3
      type: INTS
    }
    attribute {
      name: "pads"
      ints: 0
      ints: 0
      ints: 0
      ints: 0
      type: INTS
    }
    attribute {
      name: "strides"
      ints: 2
      ints: 2
      type: INTS
    }
  }
  node {
    input: "590"
    input: "19"
    output: "591"
    op_type: "Conv"
    attribute {
      name: "dilations"
      ints: 1
      ints: 1
      type: INTS
    }
    attribute {
      name: "group"
      i: 1
      type: INT
    }
    attribute {
      name: "kernel_shape"
      ints: 1
      ints: 1
      type: INTS
    }
    attribute {
      name: "pads"
      ints: 0
      ints: 0
      ints: 0
      ints: 0
      type: INTS
    }
    attribute {
      name: "strides"
      ints: 1
      ints: 1
      type: INTS
    }
  }
  node {
    input: "591"
    input: "20"
    input: "21"
    input: "22"
    input: "23"
    output: "592"
    op_type: "BatchNormalization"
    attribute {
      name: "consumed_inputs"
      ints: 0
      ints: 0
      ints: 0
      ints: 1
      ints: 1
      type: INTS
    }
    attribute {
      name: "epsilon"
      f: 0.00100000004749745
      type: FLOAT
    }
    attribute {
      name: "is_test"
      i: 1
      type: INT
    }
    attribute {
      name: "momentum"
      f: 1
      type: FLOAT
    }
  }
  node {
    input: "592"
    output: "593"
    op_type: "Relu"
  }
  node {
    input: "593"
    input: "25"
    output: "594"
    op_type: "Conv"
    attribute {
      name: "dilations"
      ints: 1
      ints: 1
      type: INTS
    }
    attribute {
      name: "group"
      i: 1
      type: INT
    }
    attribute {
      name: "kernel_shape"
      ints: 3
      ints: 3
      type: INTS
    }
    attribute {
      name: "pads"
      ints: 0
      ints: 0
      ints: 0
      ints: 0
      type: INTS
    }
    attribute {
      name: "strides"
      ints: 1
      ints: 1
      type: INTS
    }
  }
  node {
    input: "594"
    input: "26"
    input: "27"
    input: "28"
    input: "29"
    output: "595"
    op_type: "BatchNormalization"
    attribute {
      name: "consumed_inputs"
      ints: 0
      ints: 0
      ints: 0
      ints: 1
      ints: 1
      type: INTS
    }
    attribute {
      name: "epsilon"
      f: 0.00100000004749745
      type: FLOAT
    }
    attribute {
      name: "is_test"
      i: 1
      type: INT
    }
    attribute {
      name: "momentum"
      f: 1
      type: FLOAT
    }
  }
  node {
    input: "595"
    output: "596"
    op_type: "Relu"
  }
  node {
    input: "596"
    output: "597"
    op_type: "MaxPool"
    attribute {
      name: "kernel_shape"
      ints: 3
      ints: 3
      type: INTS
    }
    attribute {
      name: "pads"
      ints: 0
      ints: 0
      ints: 0
      ints: 0
      type: INTS
    }
    attribute {
      name: "strides"
      ints: 2
      ints: 2
      type: INTS
    }
  }
  node {
    input: "597"
    input: "31"
    output: "598"
    op_type: "Conv"
    attribute {
      name: "dilations"
      ints: 1
      ints: 1
      type: INTS
    }
    attribute {
      name: "group"
      i: 1
      type: INT
    }
    attribute {
      name: "kernel_shape"
      ints: 1
      ints: 1
      type: INTS
    }
    attribute {
      name: "pads"
      ints: 0
      ints: 0
      ints: 0
      ints: 0
      type: INTS
    }
    attribute {
      name: "strides"
      ints: 1
      ints: 1
      type: INTS
    }
  }
  node {
    input: "598"
    input: "32"
    input: "33"
    input: "34"
    input: "35"
    output: "599"
    op_type: "BatchNormalization"
    attribute {
      name: "consumed_inputs"
      ints: 0
      ints: 0
      ints: 0
      ints: 1
      ints: 1
      type: INTS
    }
    attribute {
      name: "epsilon"
      f: 0.00100000004749745
      type: FLOAT
    }
    attribute {
      name: "is_test"
      i: 1
      type: INT
    }
    attribute {
      name: "momentum"
      f: 1
      type: FLOAT
    }
  }
  node {
    input: "599"
    output: "600"
    op_type: "Relu"
  }
  node {
    input: "597"
    input: "37"
    output: "601"
    op_type: "Conv"
    attribute {
      name: "dilations"
      ints: 1
      ints: 1
      type: INTS
    }
    attribute {
      name: "group"
      i: 1
      type: INT
    }
    attribute {
      name: "kernel_shape"
      ints: 1
      ints: 1
      type: INTS
    }
    attribute {
      name: "pads"
      ints: 0
      ints: 0
      ints: 0
      ints: 0
      type: INTS
    }
    attribute {
      name: "strides"
      ints: 1
      ints: 1
      type: INTS
    }
  }
  node {
    input: "601"
    input: "38"
    input: "39"
    input: "40"
    input: "41"
    output: "602"
    op_type: "BatchNormalization"
    attribute {
      name: "consumed_inputs"
      ints: 0
      ints: 0
      ints: 0
      ints: 1
      ints: 1
      type: INTS
    }
    attribute {
      name: "epsilon"
      f: 0.00100000004749745
      type: FLOAT
    }
    attribute {
      name: "is_test"
      i: 1
      type: INT
    }
    attribute {
      name: "momentum"
      f: 1
      type: FLOAT
    }
  }
  node {
    input: "602"
    output: "603"
    op_type: "Relu"
  }
  node {
    input: "603"
    input: "43"
    output: "604"
    op_type: "Conv"
    attribute {
      name: "dilations"
      ints: 1
      ints: 1
      type: INTS
    }
    attribute {
      name: "group"
      i: 1
      type: INT
    }
    attribute {
      name: "kernel_shape"
      ints: 5
      ints: 5
      type: INTS
    }
    attribute {
      name: "pads"
      ints: 2
      ints: 2
      ints: 2
      ints: 2
      type: INTS
    }
    attribute {
      name: "strides"
      ints: 1
      ints: 1
      type: INTS
    }
  }
  node {
    input: "604"
    input: "44"
    input: "45"
    input: "46"
    input: "47"
    output: "605"
    op_type: "BatchNormalization"
    attribute {
      name: "consumed_inputs"
      ints: 0
      ints: 0
      ints: 0
      ints: 1
      ints: 1
      type: INTS
    }
    attribute {
      name: "epsilon"
      f: 0.00100000004749745
      type: FLOAT
    }
    attribute {
      name: "is_test"
      i: 1
      type: INT
    }
    attribute {
      name: "momentum"
      f: 1
      type: FLOAT
    }
  }
  node {
    input: "605"
    output: "606"
    op_type: "Relu"
  }
  node {
    input: "597"
    input: "49"
    output: "607"
    op_type: "Conv"
    attribute {
      name: "dilations"
      ints: 1
      ints: 1
      type: INTS
    }
    attribute {
      name: "group"
      i: 1
      type: INT
    }
    attribute {
      name: "kernel_shape"
      ints: 1
      ints: 1
      type: INTS
    }
    attribute {
      name: "pads"
      ints: 0
      ints: 0
      ints: 0
      ints: 0
      type: INTS
    }
    attribute {
      name: "strides"
      ints: 1
      ints: 1
      type: INTS
    }
  }
  node {
    input: "607"
    input: "50"
    input: "51"
    input: "52"
    input: "53"
    output: "608"
    op_type: "BatchNormalization"
    attribute {
      name: "consumed_inputs"
      ints: 0
      ints: 0
      ints: 0
      ints: 1
      ints: 1
      type: INTS
    }
    attribute {
      name: "epsilon"
      f: 0.00100000004749745
      type: FLOAT
    }
    attribute {
      name: "is_test"
      i: 1
      type: INT
    }
    attribute {
      name: "momentum"
      f: 1
      type: FLOAT
    }
  }
  node {
    input: "608"
    output: "609"
    op_type: "Relu"
  }
  node {
    input: "609"
    input: "55"
    output: "610"
    op_type: "Conv"
    attribute {
      name: "dilations"
      ints: 1
      ints: 1
      type: INTS
    }
    attribute {
      name: "group"
      i: 1
      type: INT
    }
    attribute {
      name: "kernel_shape"
      ints: 3
      ints: 3
      type: INTS
    }
    attribute {
      name: "pads"
      ints: 1
      ints: 1
      ints: 1
      ints: 1
      type: INTS
    }
    attribute {
      name: "strides"
      ints: 1
      ints: 1
      type: INTS
    }
  }
  node {
    input: "610"
    input: "56"
    input: "57"
    input: "58"
    input: "59"
    output: "611"
    op_type: "BatchNormalization"
    attribute {
      name: "consumed_inputs"
      ints: 0
      ints: 0
      ints: 0
      ints: 1
      ints: 1
      type: INTS
    }
    attribute {
      name: "epsilon"
      f: 0.00100000004749745
      type: FLOAT
    }
    attribute {
      name: "is_test"
      i: 1
      type: INT
    }
    attribute {
      name: "momentum"
      f: 1
      type: FLOAT
    }
  }
  node {
    input: "611"
    output: "612"
    op_type: "Relu"
  }
  node {
    input: "612"
    input: "61"
    output: "613"
    op_type: "Conv"
    attribute {
      name: "dilations"
      ints: 1
      ints: 1
      type: INTS
    }
    attribute {
      name: "group"
      i: 1
      type: INT
    }
    attribute {
      name: "kernel_shape"
      ints: 3
      ints: 3
      type: INTS
    }
    attribute {
      name: "pads"
      ints: 1
      ints: 1
      ints: 1
      ints: 1
      type: INTS
    }
    attribute {
      name: "strides"
      ints: 1
      ints: 1
      type: INTS
    }
  }
  node {
    input: "613"
    input: "62"
    input: "63"
    input: "64"
    input: "65"
    output: "614"
    op_type: "BatchNormalization"
    attribute {
      name: "consumed_inputs"
      ints: 0
      ints: 0
      ints: 0
      ints: 1
      ints: 1
      type: INTS
    }
    attribute {
      name: "epsilon"
      f: 0.00100000004749745
      type: FLOAT
    }
    attribute {
      name: "is_test"
      i: 1
      type: INT
    }
    attribute {
      name: "momentum"
      f: 1
      type: FLOAT
    }
  }
  node {
    input: "614"
    output: "615"
    op_type: "Relu"
  }
  node {
    input: "597"
    output: "616"
    op_type: "AveragePool"
    attribute {
      name: "kernel_shape"
      ints: 3
      ints: 3
      type: INTS
    }
    attribute {
      name: "pads"
      ints: 1
      ints: 1
      ints: 1
      ints: 1
      type: INTS
    }
    attribute {
      name: "strides"
      ints: 1
      ints: 1
      type: INTS
    }
  }
  node {
    input: "616"
    input: "67"
    output: "617"
    op_type: "Conv"
    attribute {
      name: "dilations"
      ints: 1
      ints: 1
      type: INTS
    }
    attribute {
      name: "group"
      i: 1
      type: INT
    }
    attribute {
      name: "kernel_shape"
      ints: 1
      ints: 1
      type: INTS
    }
    attribute {
      name: "pads"
      ints: 0
      ints: 0
      ints: 0
      ints: 0
      type: INTS
    }
    attribute {
      name: "strides"
      ints: 1
      ints: 1
      type: INTS
    }
  }
  node {
    input: "617"
    input: "68"
    input: "69"
    input: "70"
    input: "71"
    output: "618"
    op_type: "BatchNormalization"
    attribute {
      name: "consumed_inputs"
      ints: 0
      ints: 0
      ints: 0
      ints: 1
      ints: 1
      type: INTS
    }
    attribute {
      name: "epsilon"
      f: 0.00100000004749745
      type: FLOAT
    }
    attribute {
      name: "is_test"
      i: 1
      type: INT
    }
    attribute {
      name: "momentum"
      f: 1
      type: FLOAT
    }
  }
  node {
    input: "618"
    output: "619"
    op_type: "Relu"
  }
  node {
    input: "600"
    input: "606"
    input: "615"
    input: "619"
    output: "620"
    op_type: "Concat"
    attribute {
      name: "axis"
      i: 1
      type: INT
    }
  }
  node {
    input: "620"
    input: "73"
    output: "621"
    op_type: "Conv"
    attribute {
      name: "dilations"
      ints: 1
      ints: 1
      type: INTS
    }
    attribute {
      name: "group"
      i: 1
      type: INT
    }
    attribute {
      name: "kernel_shape"
      ints: 1
      ints: 1
      type: INTS
    }
    attribute {
      name: "pads"
      ints: 0
      ints: 0
      ints: 0
      ints: 0
      type: INTS
    }
    attribute {
      name: "strides"
      ints: 1
      ints: 1
      type: INTS
    }
  }
  node {
    input: "621"
    input: "74"
    input: "75"
    input: "76"
    input: "77"
    output: "622"
    op_type: "BatchNormalization"
    attribute {
      name: "consumed_inputs"
      ints: 0
      ints: 0
      ints: 0
      ints: 1
      ints: 1
      type: INTS
    }
    attribute {
      name: "epsilon"
      f: 0.00100000004749745
      type: FLOAT
    }
    attribute {
      name: "is_test"
      i: 1
      type: INT
    }
    attribute {
      name: "momentum"
      f: 1
      type: FLOAT
    }
  }
  node {
    input: "622"
    output: "623"
    op_type: "Relu"
  }
  node {
    input: "620"
    input: "79"
    output: "624"
    op_type: "Conv"
    attribute {
      name: "dilations"
      ints: 1
      ints: 1
      type: INTS
    }
    attribute {
      name: "group"
      i: 1
      type: INT
    }
    attribute {
      name: "kernel_shape"
      ints: 1
      ints: 1
      type: INTS
    }
    attribute {
      name: "pads"
      ints: 0
      ints: 0
      ints: 0
      ints: 0
      type: INTS
    }
    attribute {
      name: "strides"
      ints: 1
      ints: 1
      type: INTS
    }
  }
  node {
    input: "624"
    input: "80"
    input: "81"
    input: "82"
    input: "83"
    output: "625"
    op_type: "BatchNormalization"
    attribute {
      name: "consumed_inputs"
      ints: 0
      ints: 0
      ints: 0
      ints: 1
      ints: 1
      type: INTS
    }
    attribute {
      name: "epsilon"
      f: 0.00100000004749745
      type: FLOAT
    }
    attribute {
      name: "is_test"
      i: 1
      type: INT
    }
    attribute {
      name: "momentum"
      f: 1
      type: FLOAT
    }
  }
  node {
    input: "625"
    output: "626"
    op_type: "Relu"
  }
  node {
    input: "626"
    input: "85"
    output: "627"
    op_type: "Conv"
    attribute {
      name: "dilations"
      ints: 1
      ints: 1
      type: INTS
    }
    attribute {
      name: "group"
      i: 1
      type: INT
    }
    attribute {
      name: "kernel_shape"
      ints: 5
      ints: 5
      type: INTS
    }
    attribute {
      name: "pads"
      ints: 2
      ints: 2
      ints: 2
      ints: 2
      type: INTS
    }
    attribute {
      name: "strides"
      ints: 1
      ints: 1
      type: INTS
    }
  }
  node {
    input: "627"
    input: "86"
    input: "87"
    input: "88"
    input: "89"
    output: "628"
    op_type: "BatchNormalization"
    attribute {
      name: "consumed_inputs"
      ints: 0
      ints: 0
      ints: 0
      ints: 1
      ints: 1
      type: INTS
    }
    attribute {
      name: "epsilon"
      f: 0.00100000004749745
      type: FLOAT
    }
    attribute {
      name: "is_test"
      i: 1
      type: INT
    }
    attribute {
      name: "momentum"
      f: 1
      type: FLOAT
    }
  }
  node {
    input: "628"
    output: "629"
    op_type: "Relu"
  }
  node {
    input: "620"
    input: "91"
    output: "630"
    op_type: "Conv"
    attribute {
      name: "dilations"
      ints: 1
      ints: 1
      type: INTS
    }
    attribute {
      name: "group"
      i: 1
      type: INT
    }
    attribute {
      name: "kernel_shape"
      ints: 1
      ints: 1
      type: INTS
    }
    attribute {
      name: "pads"
      ints: 0
      ints: 0
      ints: 0
      ints: 0
      type: INTS
    }
    attribute {
      name: "strides"
      ints: 1
      ints: 1
      type: INTS
    }
  }
  node {
    input: "630"
    input: "92"
    input: "93"
    input: "94"
    input: "95"
    output: "631"
    op_type: "BatchNormalization"
    attribute {
      name: "consumed_inputs"
      ints: 0
      ints: 0
      ints: 0
      ints: 1
      ints: 1
      type: INTS
    }
    attribute {
      name: "epsilon"
      f: 0.00100000004749745
      type: FLOAT
    }
    attribute {
      name: "is_test"
      i: 1
      type: INT
    }
    attribute {
      name: "momentum"
      f: 1
      type: FLOAT
    }
  }
  node {
    input: "631"
    output: "632"
    op_type: "Relu"
  }
  node {
    input: "632"
    input: "97"
    output: "633"
    op_type: "Conv"
    attribute {
      name: "dilations"
      ints: 1
      ints: 1
      type: INTS
    }
    attribute {
      name: "group"
      i: 1
      type: INT
    }
    attribute {
      name: "kernel_shape"
      ints: 3
      ints: 3
      type: INTS
    }
    attribute {
      name: "pads"
      ints: 1
      ints: 1
      ints: 1
      ints: 1
      type: INTS
    }
    attribute {
      name: "strides"
      ints: 1
      ints: 1
      type: INTS
    }
  }
  node {
    input: "633"
    input: "98"
    input: "99"
    input: "100"
    input: "101"
    output: "634"
    op_type: "BatchNormalization"
    attribute {
      name: "consumed_inputs"
      ints: 0
      ints: 0
      ints: 0
      ints: 1
      ints: 1
      type: INTS
    }
    attribute {
      name: "epsilon"
      f: 0.00100000004749745
      type: FLOAT
    }
    attribute {
      name: "is_test"
      i: 1
      type: INT
    }
    attribute {
      name: "momentum"
      f: 1
      type: FLOAT
    }
  }
  node {
    input: "634"
    output: "635"
    op_type: "Relu"
  }
  node {
    input: "635"
    input: "103"
    output: "636"
    op_type: "Conv"
    attribute {
      name: "dilations"
      ints: 1
      ints: 1
      type: INTS
    }
    attribute {
      name: "group"
      i: 1
      type: INT
    }
    attribute {
      name: "kernel_shape"
      ints: 3
      ints: 3
      type: INTS
    }
    attribute {
      name: "pads"
      ints: 1
      ints: 1
      ints: 1
      ints: 1
      type: INTS
    }
    attribute {
      name: "strides"
      ints: 1
      ints: 1
      type: INTS
    }
  }
  node {
    input: "636"
    input: "104"
    input: "105"
    input: "106"
    input: "107"
    output: "637"
    op_type: "BatchNormalization"
    attribute {
      name: "consumed_inputs"
      ints: 0
      ints: 0
      ints: 0
      ints: 1
      ints: 1
      type: INTS
    }
    attribute {
      name: "epsilon"
      f: 0.00100000004749745
      type: FLOAT
    }
    attribute {
      name: "is_test"
      i: 1
      type: INT
    }
    attribute {
      name: "momentum"
      f: 1
      type: FLOAT
    }
  }
  node {
    input: "637"
    output: "638"
    op_type: "Relu"
  }
  node {
    input: "620"
    output: "639"
    op_type: "AveragePool"
    attribute {
      name: "kernel_shape"
      ints: 3
      ints: 3
      type: INTS
    }
    attribute {
      name: "pads"
      ints: 1
      ints: 1
      ints: 1
      ints: 1
      type: INTS
    }
    attribute {
      name: "strides"
      ints: 1
      ints: 1
      type: INTS
    }
  }
  node {
    input: "639"
    input: "109"
    output: "640"
    op_type: "Conv"
    attribute {
      name: "dilations"
      ints: 1
      ints: 1
      type: INTS
    }
    attribute {
      name: "group"
      i: 1
      type: INT
    }
    attribute {
      name: "kernel_shape"
      ints: 1
      ints: 1
      type: INTS
    }
    attribute {
      name: "pads"
      ints: 0
      ints: 0
      ints: 0
      ints: 0
      type: INTS
    }
    attribute {
      name: "strides"
      ints: 1
      ints: 1
      type: INTS
    }
  }
  node {
    input: "640"
    input: "110"
    input: "111"
    input: "112"
    input: "113"
    output: "641"
    op_type: "BatchNormalization"
    attribute {
      name: "consumed_inputs"
      ints: 0
      ints: 0
      ints: 0
      ints: 1
      ints: 1
      type: INTS
    }
    attribute {
      name: "epsilon"
      f: 0.00100000004749745
      type: FLOAT
    }
    attribute {
      name: "is_test"
      i: 1
      type: INT
    }
    attribute {
      name: "momentum"
      f: 1
      type: FLOAT
    }
  }
  node {
    input: "641"
    output: "642"
    op_type: "Relu"
  }
  node {
    input: "623"
    input: "629"
    input: "638"
    input: "642"
    output: "643"
    op_type: "Concat"
    attribute {
      name: "axis"
      i: 1
      type: INT
    }
  }
  node {
    input: "643"
    input: "115"
    output: "644"
    op_type: "Conv"
    attribute {
      name: "dilations"
      ints: 1
      ints: 1
      type: INTS
    }
    attribute {
      name: "group"
      i: 1
      type: INT
    }
    attribute {
      name: "kernel_shape"
      ints: 1
      ints: 1
      type: INTS
    }
    attribute {
      name: "pads"
      ints: 0
      ints: 0
      ints: 0
      ints: 0
      type: INTS
    }
    attribute {
      name: "strides"
      ints: 1
      ints: 1
      type: INTS
    }
  }
  node {
    input: "644"
    input: "116"
    input: "117"
    input: "118"
    input: "119"
    output: "645"
    op_type: "BatchNormalization"
    attribute {
      name: "consumed_inputs"
      ints: 0
      ints: 0
      ints: 0
      ints: 1
      ints: 1
      type: INTS
    }
    attribute {
      name: "epsilon"
      f: 0.00100000004749745
      type: FLOAT
    }
    attribute {
      name: "is_test"
      i: 1
      type: INT
    }
    attribute {
      name: "momentum"
      f: 1
      type: FLOAT
    }
  }
  node {
    input: "645"
    output: "646"
    op_type: "Relu"
  }
  node {
    input: "643"
    input: "121"
    output: "647"
    op_type: "Conv"
    attribute {
      name: "dilations"
      ints: 1
      ints: 1
      type: INTS
    }
    attribute {
      name: "group"
      i: 1
      type: INT
    }
    attribute {
      name: "kernel_shape"
      ints: 1
      ints: 1
      type: INTS
    }
    attribute {
      name: "pads"
      ints: 0
      ints: 0
      ints: 0
      ints: 0
      type: INTS
    }
    attribute {
      name: "strides"
      ints: 1
      ints: 1
      type: INTS
    }
  }
  node {
    input: "647"
    input: "122"
    input: "123"
    input: "124"
    input: "125"
    output: "648"
    op_type: "BatchNormalization"
    attribute {
      name: "consumed_inputs"
      ints: 0
      ints: 0
      ints: 0
      ints: 1
      ints: 1
      type: INTS
    }
    attribute {
      name: "epsilon"
      f: 0.00100000004749745
      type: FLOAT
    }
    attribute {
      name: "is_test"
      i: 1
      type: INT
    }
    attribute {
      name: "momentum"
      f: 1
      type: FLOAT
    }
  }
  node {
    input: "648"
    output: "649"
    op_type: "Relu"
  }
  node {
    input: "649"
    input: "127"
    output: "650"
    op_type: "Conv"
    attribute {
      name: "dilations"
      ints: 1
      ints: 1
      type: INTS
    }
    attribute {
      name: "group"
      i: 1
      type: INT
    }
    attribute {
      name: "kernel_shape"
      ints: 5
      ints: 5
      type: INTS
    }
    attribute {
      name: "pads"
      ints: 2
      ints: 2
      ints: 2
      ints: 2
      type: INTS
    }
    attribute {
      name: "strides"
      ints: 1
      ints: 1
      type: INTS
    }
  }
  node {
    input: "650"
    input: "128"
    input: "129"
    input: "130"
    input: "131"
    output: "651"
    op_type: "BatchNormalization"
    attribute {
      name: "consumed_inputs"
      ints: 0
      ints: 0
      ints: 0
      ints: 1
      ints: 1
      type: INTS
    }
    attribute {
      name: "epsilon"
      f: 0.00100000004749745
      type: FLOAT
    }
    attribute {
      name: "is_test"
      i: 1
      type: INT
    }
    attribute {
      name: "momentum"
      f: 1
      type: FLOAT
    }
  }
  node {
    input: "651"
    output: "652"
    op_type: "Relu"
  }
  node {
    input: "643"
    input: "133"
    output: "653"
    op_type: "Conv"
    attribute {
      name: "dilations"
      ints: 1
      ints: 1
      type: INTS
    }
    attribute {
      name: "group"
      i: 1
      type: INT
    }
    attribute {
      name: "kernel_shape"
      ints: 1
      ints: 1
      type: INTS
    }
    attribute {
      name: "pads"
      ints: 0
      ints: 0
      ints: 0
      ints: 0
      type: INTS
    }
    attribute {
      name: "strides"
      ints: 1
      ints: 1
      type: INTS
    }
  }
  node {
    input: "653"
    input: "134"
    input: "135"
    input: "136"
    input: "137"
    output: "654"
    op_type: "BatchNormalization"
    attribute {
      name: "consumed_inputs"
      ints: 0
      ints: 0
      ints: 0
      ints: 1
      ints: 1
      type: INTS
    }
    attribute {
      name: "epsilon"
      f: 0.00100000004749745
      type: FLOAT
    }
    attribute {
      name: "is_test"
      i: 1
      type: INT
    }
    attribute {
      name: "momentum"
      f: 1
      type: FLOAT
    }
  }
  node {
    input: "654"
    output: "655"
    op_type: "Relu"
  }
  node {
    input: "655"
    input: "139"
    output: "656"
    op_type: "Conv"
    attribute {
      name: "dilations"
      ints: 1
      ints: 1
      type: INTS
    }
    attribute {
      name: "group"
      i: 1
      type: INT
    }
    attribute {
      name: "kernel_shape"
      ints: 3
      ints: 3
      type: INTS
    }
    attribute {
      name: "pads"
      ints: 1
      ints: 1
      ints: 1
      ints: 1
      type: INTS
    }
    attribute {
      name: "strides"
      ints: 1
      ints: 1
      type: INTS
    }
  }
  node {
    input: "656"
    input: "140"
    input: "141"
    input: "142"
    input: "143"
    output: "657"
    op_type: "BatchNormalization"
    attribute {
      name: "consumed_inputs"
      ints: 0
      ints: 0
      ints: 0
      ints: 1
      ints: 1
      type: INTS
    }
    attribute {
      name: "epsilon"
      f: 0.00100000004749745
      type: FLOAT
    }
    attribute {
      name: "is_test"
      i: 1
      type: INT
    }
    attribute {
      name: "momentum"
      f: 1
      type: FLOAT
    }
  }
  node {
    input: "657"
    output: "658"
    op_type: "Relu"
  }
  node {
    input: "658"
    input: "145"
    output: "659"
    op_type: "Conv"
    attribute {
      name: "dilations"
      ints: 1
      ints: 1
      type: INTS
    }
    attribute {
      name: "group"
      i: 1
      type: INT
    }
    attribute {
      name: "kernel_shape"
      ints: 3
      ints: 3
      type: INTS
    }
    attribute {
      name: "pads"
      ints: 1
      ints: 1
      ints: 1
      ints: 1
      type: INTS
    }
    attribute {
      name: "strides"
      ints: 1
      ints: 1
      type: INTS
    }
  }
  node {
    input: "659"
    input: "146"
    input: "147"
    input: "148"
    input: "149"
    output: "660"
    op_type: "BatchNormalization"
    attribute {
      name: "consumed_inputs"
      ints: 0
      ints: 0
      ints: 0
      ints: 1
      ints: 1
      type: INTS
    }
    attribute {
      name: "epsilon"
      f: 0.00100000004749745
      type: FLOAT
    }
    attribute {
      name: "is_test"
      i: 1
      type: INT
    }
    attribute {
      name: "momentum"
      f: 1
      type: FLOAT
    }
  }
  node {
    input: "660"
    output: "661"
    op_type: "Relu"
  }
  node {
    input: "643"
    output: "662"
    op_type: "AveragePool"
    attribute {
      name: "kernel_shape"
      ints: 3
      ints: 3
      type: INTS
    }
    attribute {
      name: "pads"
      ints: 1
      ints: 1
      ints: 1
      ints: 1
      type: INTS
    }
    attribute {
      name: "strides"
      ints: 1
      ints: 1
      type: INTS
    }
  }
  node {
    input: "662"
    input: "151"
    output: "663"
    op_type: "Conv"
    attribute {
      name: "dilations"
      ints: 1
      ints: 1
      type: INTS
    }
    attribute {
      name: "group"
      i: 1
      type: INT
    }
    attribute {
      name: "kernel_shape"
      ints: 1
      ints: 1
      type: INTS
    }
    attribute {
      name: "pads"
      ints: 0
      ints: 0
      ints: 0
      ints: 0
      type: INTS
    }
    attribute {
      name: "strides"
      ints: 1
      ints: 1
      type: INTS
    }
  }
  node {
    input: "663"
    input: "152"
    input: "153"
    input: "154"
    input: "155"
    output: "664"
    op_type: "BatchNormalization"
    attribute {
      name: "consumed_inputs"
      ints: 0
      ints: 0
      ints: 0
      ints: 1
      ints: 1
      type: INTS
    }
    attribute {
      name: "epsilon"
      f: 0.00100000004749745
      type: FLOAT
    }
    attribute {
      name: "is_test"
      i: 1
      type: INT
    }
    attribute {
      name: "momentum"
      f: 1
      type: FLOAT
    }
  }
  node {
    input: "664"
    output: "665"
    op_type: "Relu"
  }
  node {
    input: "646"
    input: "652"
    input: "661"
    input: "665"
    output: "666"
    op_type: "Concat"
    attribute {
      name: "axis"
      i: 1
      type: INT
    }
  }
  node {
    input: "666"
    input: "157"
    output: "667"
    op_type: "Conv"
    attribute {
      name: "dilations"
      ints: 1
      ints: 1
      type: INTS
    }
    attribute {
      name: "group"
      i: 1
      type: INT
    }
    attribute {
      name: "kernel_shape"
      ints: 3
      ints: 3
      type: INTS
    }
    attribute {
      name: "pads"
      ints: 0
      ints: 0
      ints: 0
      ints: 0
      type: INTS
    }
    attribute {
      name: "strides"
      ints: 2
      ints: 2
      type: INTS
    }
  }
  node {
    input: "667"
    input: "158"
    input: "159"
    input: "160"
    input: "161"
    output: "668"
    op_type: "BatchNormalization"
    attribute {
      name: "consumed_inputs"
      ints: 0
      ints: 0
      ints: 0
      ints: 1
      ints: 1
      type: INTS
    }
    attribute {
      name: "epsilon"
      f: 0.00100000004749745
      type: FLOAT
    }
    attribute {
      name: "is_test"
      i: 1
      type: INT
    }
    attribute {
      name: "momentum"
      f: 1
      type: FLOAT
    }
  }
  node {
    input: "668"
    output: "669"
    op_type: "Relu"
  }
  node {
    input: "666"
    input: "163"
    output: "670"
    op_type: "Conv"
    attribute {
      name: "dilations"
      ints: 1
      ints: 1
      type: INTS
    }
    attribute {
      name: "group"
      i: 1
      type: INT
    }
    attribute {
      name: "kernel_shape"
      ints: 1
      ints: 1
      type: INTS
    }
    attribute {
      name: "pads"
      ints: 0
      ints: 0
      ints: 0
      ints: 0
      type: INTS
    }
    attribute {
      name: "strides"
      ints: 1
      ints: 1
      type: INTS
    }
  }
  node {
    input: "670"
    input: "164"
    input: "165"
    input: "166"
    input: "167"
    output: "671"
    op_type: "BatchNormalization"
    attribute {
      name: "consumed_inputs"
      ints: 0
      ints: 0
      ints: 0
      ints: 1
      ints: 1
      type: INTS
    }
    attribute {
      name: "epsilon"
      f: 0.00100000004749745
      type: FLOAT
    }
    attribute {
      name: "is_test"
      i: 1
      type: INT
    }
    attribute {
      name: "momentum"
      f: 1
      type: FLOAT
    }
  }
  node {
    input: "671"
    output: "672"
    op_type: "Relu"
  }
  node {
    input: "672"
    input: "169"
    output: "673"
    op_type: "Conv"
    attribute {
      name: "dilations"
      ints: 1
      ints: 1
      type: INTS
    }
    attribute {
      name: "group"
      i: 1
      type: INT
    }
    attribute {
      name: "kernel_shape"
      ints: 3
      ints: 3
      type: INTS
    }
    attribute {
      name: "pads"
      ints: 1
      ints: 1
      ints: 1
      ints: 1
      type: INTS
    }
    attribute {
      name: "strides"
      ints: 1
      ints: 1
      type: INTS
    }
  }
  node {
    input: "673"
    input: "170"
    input: "171"
    input: "172"
    input: "173"
    output: "674"
    op_type: "BatchNormalization"
    attribute {
      name: "consumed_inputs"
      ints: 0
      ints: 0
      ints: 0
      ints: 1
      ints: 1
      type: INTS
    }
    attribute {
      name: "epsilon"
      f: 0.00100000004749745
      type: FLOAT
    }
    attribute {
      name: "is_test"
      i: 1
      type: INT
    }
    attribute {
      name: "momentum"
      f: 1
      type: FLOAT
    }
  }
  node {
    input: "674"
    output: "675"
    op_type: "Relu"
  }
  node {
    input: "675"
    input: "175"
    output: "676"
    op_type: "Conv"
    attribute {
      name: "dilations"
      ints: 1
      ints: 1
      type: INTS
    }
    attribute {
      name: "group"
      i: 1
      type: INT
    }
    attribute {
      name: "kernel_shape"
      ints: 3
      ints: 3
      type: INTS
    }
    attribute {
      name: "pads"
      ints: 0
      ints: 0
      ints: 0
      ints: 0
      type: INTS
    }
    attribute {
      name: "strides"
      ints: 2
      ints: 2
      type: INTS
    }
  }
  node {
    input: "676"
    input: "176"
    input: "177"
    input: "178"
    input: "179"
    output: "677"
    op_type: "BatchNormalization"
    attribute {
      name: "consumed_inputs"
      ints: 0
      ints: 0
      ints: 0
      ints: 1
      ints: 1
      type: INTS
    }
    attribute {
      name: "epsilon"
      f: 0.00100000004749745
      type: FLOAT
    }
    attribute {
      name: "is_test"
      i: 1
      type: INT
    }
    attribute {
      name: "momentum"
      f: 1
      type: FLOAT
    }
  }
  node {
    input: "677"
    output: "678"
    op_type: "Relu"
  }
  node {
    input: "666"
    output: "679"
    op_type: "MaxPool"
    attribute {
      name: "kernel_shape"
      ints: 3
      ints: 3
      type: INTS
    }
    attribute {
      name: "pads"
      ints: 0
      ints: 0
      ints: 0
      ints: 0
      type: INTS
    }
    attribute {
      name: "strides"
      ints: 2
      ints: 2
      type: INTS
    }
  }
  node {
    input: "669"
    input: "678"
    input: "679"
    output: "680"
    op_type: "Concat"
    attribute {
      name: "axis"
      i: 1
      type: INT
    }
  }
  node {
    input: "680"
    input: "181"
    output: "681"
    op_type: "Conv"
    attribute {
      name: "dilations"
      ints: 1
      ints: 1
      type: INTS
    }
    attribute {
      name: "group"
      i: 1
      type: INT
    }
    attribute {
      name: "kernel_shape"
      ints: 1
      ints: 1
      type: INTS
    }
    attribute {
      name: "pads"
      ints: 0
      ints: 0
      ints: 0
      ints: 0
      type: INTS
    }
    attribute {
      name: "strides"
      ints: 1
      ints: 1
      type: INTS
    }
  }
  node {
    input: "681"
    input: "182"
    input: "183"
    input: "184"
    input: "185"
    output: "682"
    op_type: "BatchNormalization"
    attribute {
      name: "consumed_inputs"
      ints: 0
      ints: 0
      ints: 0
      ints: 1
      ints: 1
      type: INTS
    }
    attribute {
      name: "epsilon"
      f: 0.00100000004749745
      type: FLOAT
    }
    attribute {
      name: "is_test"
      i: 1
      type: INT
    }
    attribute {
      name: "momentum"
      f: 1
      type: FLOAT
    }
  }
  node {
    input: "682"
    output: "683"
    op_type: "Relu"
  }
  node {
    input: "680"
    input: "187"
    output: "684"
    op_type: "Conv"
    attribute {
      name: "dilations"
      ints: 1
      ints: 1
      type: INTS
    }
    attribute {
      name: "group"
      i: 1
      type: INT
    }
    attribute {
      name: "kernel_shape"
      ints: 1
      ints: 1
      type: INTS
    }
    attribute {
      name: "pads"
      ints: 0
      ints: 0
      ints: 0
      ints: 0
      type: INTS
    }
    attribute {
      name: "strides"
      ints: 1
      ints: 1
      type: INTS
    }
  }
  node {
    input: "684"
    input: "188"
    input: "189"
    input: "190"
    input: "191"
    output: "685"
    op_type: "BatchNormalization"
    attribute {
      name: "consumed_inputs"
      ints: 0
      ints: 0
      ints: 0
      ints: 1
      ints: 1
      type: INTS
    }
    attribute {
      name: "epsilon"
      f: 0.00100000004749745
      type: FLOAT
    }
    attribute {
      name: "is_test"
      i: 1
      type: INT
    }
    attribute {
      name: "momentum"
      f: 1
      type: FLOAT
    }
  }
  node {
    input: "685"
    output: "686"
    op_type: "Relu"
  }
  node {
    input: "686"
    input: "193"
    output: "687"
    op_type: "Conv"
    attribute {
      name: "dilations"
      ints: 1
      ints: 1
      type: INTS
    }
    attribute {
      name: "group"
      i: 1
      type: INT
    }
    attribute {
      name: "kernel_shape"
      ints: 1
      ints: 7
      type: INTS
    }
    attribute {
      name: "pads"
      ints: 0
      ints: 3
      ints: 0
      ints: 3
      type: INTS
    }
    attribute {
      name: "strides"
      ints: 1
      ints: 1
      type: INTS
    }
  }
  node {
    input: "687"
    input: "194"
    input: "195"
    input: "196"
    input: "197"
    output: "688"
    op_type: "BatchNormalization"
    attribute {
      name: "consumed_inputs"
      ints: 0
      ints: 0
      ints: 0
      ints: 1
      ints: 1
      type: INTS
    }
    attribute {
      name: "epsilon"
      f: 0.00100000004749745
      type: FLOAT
    }
    attribute {
      name: "is_test"
      i: 1
      type: INT
    }
    attribute {
      name: "momentum"
      f: 1
      type: FLOAT
    }
  }
  node {
    input: "688"
    output: "689"
    op_type: "Relu"
  }
  node {
    input: "689"
    input: "199"
    output: "690"
    op_type: "Conv"
    attribute {
      name: "dilations"
      ints: 1
      ints: 1
      type: INTS
    }
    attribute {
      name: "group"
      i: 1
      type: INT
    }
    attribute {
      name: "kernel_shape"
      ints: 7
      ints: 1
      type: INTS
    }
    attribute {
      name: "pads"
      ints: 3
      ints: 0
      ints: 3
      ints: 0
      type: INTS
    }
    attribute {
      name: "strides"
      ints: 1
      ints: 1
      type: INTS
    }
  }
  node {
    input: "690"
    input: "200"
    input: "201"
    input: "202"
    input: "203"
    output: "691"
    op_type: "BatchNormalization"
    attribute {
      name: "consumed_inputs"
      ints: 0
      ints: 0
      ints: 0
      ints: 1
      ints: 1
      type: INTS
    }
    attribute {
      name: "epsilon"
      f: 0.00100000004749745
      type: FLOAT
    }
    attribute {
      name: "is_test"
      i: 1
      type: INT
    }
    attribute {
      name: "momentum"
      f: 1
      type: FLOAT
    }
  }
  node {
    input: "691"
    output: "692"
    op_type: "Relu"
  }
  node {
    input: "680"
    input: "205"
    output: "693"
    op_type: "Conv"
    attribute {
      name: "dilations"
      ints: 1
      ints: 1
      type: INTS
    }
    attribute {
      name: "group"
      i: 1
      type: INT
    }
    attribute {
      name: "kernel_shape"
      ints: 1
      ints: 1
      type: INTS
    }
    attribute {
      name: "pads"
      ints: 0
      ints: 0
      ints: 0
      ints: 0
      type: INTS
    }
    attribute {
      name: "strides"
      ints: 1
      ints: 1
      type: INTS
    }
  }
  node {
    input: "693"
    input: "206"
    input: "207"
    input: "208"
    input: "209"
    output: "694"
    op_type: "BatchNormalization"
    attribute {
      name: "consumed_inputs"
      ints: 0
      ints: 0
      ints: 0
      ints: 1
      ints: 1
      type: INTS
    }
    attribute {
      name: "epsilon"
      f: 0.00100000004749745
      type: FLOAT
    }
    attribute {
      name: "is_test"
      i: 1
      type: INT
    }
    attribute {
      name: "momentum"
      f: 1
      type: FLOAT
    }
  }
  node {
    input: "694"
    output: "695"
    op_type: "Relu"
  }
  node {
    input: "695"
    input: "211"
    output: "696"
    op_type: "Conv"
    attribute {
      name: "dilations"
      ints: 1
      ints: 1
      type: INTS
    }
    attribute {
      name: "group"
      i: 1
      type: INT
    }
    attribute {
      name: "kernel_shape"
      ints: 7
      ints: 1
      type: INTS
    }
    attribute {
      name: "pads"
      ints: 3
      ints: 0
      ints: 3
      ints: 0
      type: INTS
    }
    attribute {
      name: "strides"
      ints: 1
      ints: 1
      type: INTS
    }
  }
  node {
    input: "696"
    input: "212"
    input: "213"
    input: "214"
    input: "215"
    output: "697"
    op_type: "BatchNormalization"
    attribute {
      name: "consumed_inputs"
      ints: 0
      ints: 0
      ints: 0
      ints: 1
      ints: 1
      type: INTS
    }
    attribute {
      name: "epsilon"
      f: 0.00100000004749745
      type: FLOAT
    }
    attribute {
      name: "is_test"
      i: 1
      type: INT
    }
    attribute {
      name: "momentum"
      f: 1
      type: FLOAT
    }
  }
  node {
    input: "697"
    output: "698"
    op_type: "Relu"
  }
  node {
    input: "698"
    input: "217"
    output: "699"
    op_type: "Conv"
    attribute {
      name: "dilations"
      ints: 1
      ints: 1
      type: INTS
    }
    attribute {
      name: "group"
      i: 1
      type: INT
    }
    attribute {
      name: "kernel_shape"
      ints: 1
      ints: 7
      type: INTS
    }
    attribute {
      name: "pads"
      ints: 0
      ints: 3
      ints: 0
      ints: 3
      type: INTS
    }
    attribute {
      name: "strides"
      ints: 1
      ints: 1
      type: INTS
    }
  }
  node {
    input: "699"
    input: "218"
    input: "219"
    input: "220"
    input: "221"
    output: "700"
    op_type: "BatchNormalization"
    attribute {
      name: "consumed_inputs"
      ints: 0
      ints: 0
      ints: 0
      ints: 1
      ints: 1
      type: INTS
    }
    attribute {
      name: "epsilon"
      f: 0.00100000004749745
      type: FLOAT
    }
    attribute {
      name: "is_test"
      i: 1
      type: INT
    }
    attribute {
      name: "momentum"
      f: 1
      type: FLOAT
    }
  }
  node {
    input: "700"
    output: "701"
    op_type: "Relu"
  }
  node {
    input: "701"
    input: "223"
    output: "702"
    op_type: "Conv"
    attribute {
      name: "dilations"
      ints: 1
      ints: 1
      type: INTS
    }
    attribute {
      name: "group"
      i: 1
      type: INT
    }
    attribute {
      name: "kernel_shape"
      ints: 7
      ints: 1
      type: INTS
    }
    attribute {
      name: "pads"
      ints: 3
      ints: 0
      ints: 3
      ints: 0
      type: INTS
    }
    attribute {
      name: "strides"
      ints: 1
      ints: 1
      type: INTS
    }
  }
  node {
    input: "702"
    input: "224"
    input: "225"
    input: "226"
    input: "227"
    output: "703"
    op_type: "BatchNormalization"
    attribute {
      name: "consumed_inputs"
      ints: 0
      ints: 0
      ints: 0
      ints: 1
      ints: 1
      type: INTS
    }
    attribute {
      name: "epsilon"
      f: 0.00100000004749745
      type: FLOAT
    }
    attribute {
      name: "is_test"
      i: 1
      type: INT
    }
    attribute {
      name: "momentum"
      f: 1
      type: FLOAT
    }
  }
  node {
    input: "703"
    output: "704"
    op_type: "Relu"
  }
  node {
    input: "704"
    input: "229"
    output: "705"
    op_type: "Conv"
    attribute {
      name: "dilations"
      ints: 1
      ints: 1
      type: INTS
    }
    attribute {
      name: "group"
      i: 1
      type: INT
    }
    attribute {
      name: "kernel_shape"
      ints: 1
      ints: 7
      type: INTS
    }
    attribute {
      name: "pads"
      ints: 0
      ints: 3
      ints: 0
      ints: 3
      type: INTS
    }
    attribute {
      name: "strides"
      ints: 1
      ints: 1
      type: INTS
    }
  }
  node {
    input: "705"
    input: "230"
    input: "231"
    input: "232"
    input: "233"
    output: "706"
    op_type: "BatchNormalization"
    attribute {
      name: "consumed_inputs"
      ints: 0
      ints: 0
      ints: 0
      ints: 1
      ints: 1
      type: INTS
    }
    attribute {
      name: "epsilon"
      f: 0.00100000004749745
      type: FLOAT
    }
    attribute {
      name: "is_test"
      i: 1
      type: INT
    }
    attribute {
      name: "momentum"
      f: 1
      type: FLOAT
    }
  }
  node {
    input: "706"
    output: "707"
    op_type: "Relu"
  }
  node {
    input: "680"
    output: "708"
    op_type: "AveragePool"
    attribute {
      name: "kernel_shape"
      ints: 3
      ints: 3
      type: INTS
    }
    attribute {
      name: "pads"
      ints: 1
      ints: 1
      ints: 1
      ints: 1
      type: INTS
    }
    attribute {
      name: "strides"
      ints: 1
      ints: 1
      type: INTS
    }
  }
  node {
    input: "708"
    input: "235"
    output: "709"
    op_type: "Conv"
    attribute {
      name: "dilations"
      ints: 1
      ints: 1
      type: INTS
    }
    attribute {
      name: "group"
      i: 1
      type: INT
    }
    attribute {
      name: "kernel_shape"
      ints: 1
      ints: 1
      type: INTS
    }
    attribute {
      name: "pads"
      ints: 0
      ints: 0
      ints: 0
      ints: 0
      type: INTS
    }
    attribute {
      name: "strides"
      ints: 1
      ints: 1
      type: INTS
    }
  }
  node {
    input: "709"
    input: "236"
    input: "237"
    input: "238"
    input: "239"
    output: "710"
    op_type: "BatchNormalization"
    attribute {
      name: "consumed_inputs"
      ints: 0
      ints: 0
      ints: 0
      ints: 1
      ints: 1
      type: INTS
    }
    attribute {
      name: "epsilon"
      f: 0.00100000004749745
      type: FLOAT
    }
    attribute {
      name: "is_test"
      i: 1
      type: INT
    }
    attribute {
      name: "momentum"
      f: 1
      type: FLOAT
    }
  }
  node {
    input: "710"
    output: "711"
    op_type: "Relu"
  }
  node {
    input: "683"
    input: "692"
    input: "707"
    input: "711"
    output: "712"
    op_type: "Concat"
    attribute {
      name: "axis"
      i: 1
      type: INT
    }
  }
  node {
    input: "712"
    input: "241"
    output: "713"
    op_type: "Conv"
    attribute {
      name: "dilations"
      ints: 1
      ints: 1
      type: INTS
    }
    attribute {
      name: "group"
      i: 1
      type: INT
    }
    attribute {
      name: "kernel_shape"
      ints: 1
      ints: 1
      type: INTS
    }
    attribute {
      name: "pads"
      ints: 0
      ints: 0
      ints: 0
      ints: 0
      type: INTS
    }
    attribute {
      name: "strides"
      ints: 1
      ints: 1
      type: INTS
    }
  }
  node {
    input: "713"
    input: "242"
    input: "243"
    input: "244"
    input: "245"
    output: "714"
    op_type: "BatchNormalization"
    attribute {
      name: "consumed_inputs"
      ints: 0
      ints: 0
      ints: 0
      ints: 1
      ints: 1
      type: INTS
    }
    attribute {
      name: "epsilon"
      f: 0.00100000004749745
      type: FLOAT
    }
    attribute {
      name: "is_test"
      i: 1
      type: INT
    }
    attribute {
      name: "momentum"
      f: 1
      type: FLOAT
    }
  }
  node {
    input: "714"
    output: "715"
    op_type: "Relu"
  }
  node {
    input: "712"
    input: "247"
    output: "716"
    op_type: "Conv"
    attribute {
      name: "dilations"
      ints: 1
      ints: 1
      type: INTS
    }
    attribute {
      name: "group"
      i: 1
      type: INT
    }
    attribute {
      name: "kernel_shape"
      ints: 1
      ints: 1
      type: INTS
    }
    attribute {
      name: "pads"
      ints: 0
      ints: 0
      ints: 0
      ints: 0
      type: INTS
    }
    attribute {
      name: "strides"
      ints: 1
      ints: 1
      type: INTS
    }
  }
  node {
    input: "716"
    input: "248"
    input: "249"
    input: "250"
    input: "251"
    output: "717"
    op_type: "BatchNormalization"
    attribute {
      name: "consumed_inputs"
      ints: 0
      ints: 0
      ints: 0
      ints: 1
      ints: 1
      type: INTS
    }
    attribute {
      name: "epsilon"
      f: 0.00100000004749745
      type: FLOAT
    }
    attribute {
      name: "is_test"
      i: 1
      type: INT
    }
    attribute {
      name: "momentum"
      f: 1
      type: FLOAT
    }
  }
  node {
    input: "717"
    output: "718"
    op_type: "Relu"
  }
  node {
    input: "718"
    input: "253"
    output: "719"
    op_type: "Conv"
    attribute {
      name: "dilations"
      ints: 1
      ints: 1
      type: INTS
    }
    attribute {
      name: "group"
      i: 1
      type: INT
    }
    attribute {
      name: "kernel_shape"
      ints: 1
      ints: 7
      type: INTS
    }
    attribute {
      name: "pads"
      ints: 0
      ints: 3
      ints: 0
      ints: 3
      type: INTS
    }
    attribute {
      name: "strides"
      ints: 1
      ints: 1
      type: INTS
    }
  }
  node {
    input: "719"
    input: "254"
    input: "255"
    input: "256"
    input: "257"
    output: "720"
    op_type: "BatchNormalization"
    attribute {
      name: "consumed_inputs"
      ints: 0
      ints: 0
      ints: 0
      ints: 1
      ints: 1
      type: INTS
    }
    attribute {
      name: "epsilon"
      f: 0.00100000004749745
      type: FLOAT
    }
    attribute {
      name: "is_test"
      i: 1
      type: INT
    }
    attribute {
      name: "momentum"
      f: 1
      type: FLOAT
    }
  }
  node {
    input: "720"
    output: "721"
    op_type: "Relu"
  }
  node {
    input: "721"
    input: "259"
    output: "722"
    op_type: "Conv"
    attribute {
      name: "dilations"
      ints: 1
      ints: 1
      type: INTS
    }
    attribute {
      name: "group"
      i: 1
      type: INT
    }
    attribute {
      name: "kernel_shape"
      ints: 7
      ints: 1
      type: INTS
    }
    attribute {
      name: "pads"
      ints: 3
      ints: 0
      ints: 3
      ints: 0
      type: INTS
    }
    attribute {
      name: "strides"
      ints: 1
      ints: 1
      type: INTS
    }
  }
  node {
    input: "722"
    input: "260"
    input: "261"
    input: "262"
    input: "263"
    output: "723"
    op_type: "BatchNormalization"
    attribute {
      name: "consumed_inputs"
      ints: 0
      ints: 0
      ints: 0
      ints: 1
      ints: 1
      type: INTS
    }
    attribute {
      name: "epsilon"
      f: 0.00100000004749745
      type: FLOAT
    }
    attribute {
      name: "is_test"
      i: 1
      type: INT
    }
    attribute {
      name: "momentum"
      f: 1
      type: FLOAT
    }
  }
  node {
    input: "723"
    output: "724"
    op_type: "Relu"
  }
  node {
    input: "712"
    input: "265"
    output: "725"
    op_type: "Conv"
    attribute {
      name: "dilations"
      ints: 1
      ints: 1
      type: INTS
    }
    attribute {
      name: "group"
      i: 1
      type: INT
    }
    attribute {
      name: "kernel_shape"
      ints: 1
      ints: 1
      type: INTS
    }
    attribute {
      name: "pads"
      ints: 0
      ints: 0
      ints: 0
      ints: 0
      type: INTS
    }
    attribute {
      name: "strides"
      ints: 1
      ints: 1
      type: INTS
    }
  }
  node {
    input: "725"
    input: "266"
    input: "267"
    input: "268"
    input: "269"
    output: "726"
    op_type: "BatchNormalization"
    attribute {
      name: "consumed_inputs"
      ints: 0
      ints: 0
      ints: 0
      ints: 1
      ints: 1
      type: INTS
    }
    attribute {
      name: "epsilon"
      f: 0.00100000004749745
      type: FLOAT
    }
    attribute {
      name: "is_test"
      i: 1
      type: INT
    }
    attribute {
      name: "momentum"
      f: 1
      type: FLOAT
    }
  }
  node {
    input: "726"
    output: "727"
    op_type: "Relu"
  }
  node {
    input: "727"
    input: "271"
    output: "728"
    op_type: "Conv"
    attribute {
      name: "dilations"
      ints: 1
      ints: 1
      type: INTS
    }
    attribute {
      name: "group"
      i: 1
      type: INT
    }
    attribute {
      name: "kernel_shape"
      ints: 7
      ints: 1
      type: INTS
    }
    attribute {
      name: "pads"
      ints: 3
      ints: 0
      ints: 3
      ints: 0
      type: INTS
    }
    attribute {
      name: "strides"
      ints: 1
      ints: 1
      type: INTS
    }
  }
  node {
    input: "728"
    input: "272"
    input: "273"
    input: "274"
    input: "275"
    output: "729"
    op_type: "BatchNormalization"
    attribute {
      name: "consumed_inputs"
      ints: 0
      ints: 0
      ints: 0
      ints: 1
      ints: 1
      type: INTS
    }
    attribute {
      name: "epsilon"
      f: 0.00100000004749745
      type: FLOAT
    }
    attribute {
      name: "is_test"
      i: 1
      type: INT
    }
    attribute {
      name: "momentum"
      f: 1
      type: FLOAT
    }
  }
  node {
    input: "729"
    output: "730"
    op_type: "Relu"
  }
  node {
    input: "730"
    input: "277"
    output: "731"
    op_type: "Conv"
    attribute {
      name: "dilations"
      ints: 1
      ints: 1
      type: INTS
    }
    attribute {
      name: "group"
      i: 1
      type: INT
    }
    attribute {
      name: "kernel_shape"
      ints: 1
      ints: 7
      type: INTS
    }
    attribute {
      name: "pads"
      ints: 0
      ints: 3
      ints: 0
      ints: 3
      type: INTS
    }
    attribute {
      name: "strides"
      ints: 1
      ints: 1
      type: INTS
    }
  }
  node {
    input: "731"
    input: "278"
    input: "279"
    input: "280"
    input: "281"
    output: "732"
    op_type: "BatchNormalization"
    attribute {
      name: "consumed_inputs"
      ints: 0
      ints: 0
      ints: 0
      ints: 1
      ints: 1
      type: INTS
    }
    attribute {
      name: "epsilon"
      f: 0.00100000004749745
      type: FLOAT
    }
    attribute {
      name: "is_test"
      i: 1
      type: INT
    }
    attribute {
      name: "momentum"
      f: 1
      type: FLOAT
    }
  }
  node {
    input: "732"
    output: "733"
    op_type: "Relu"
  }
  node {
    input: "733"
    input: "283"
    output: "734"
    op_type: "Conv"
    attribute {
      name: "dilations"
      ints: 1
      ints: 1
      type: INTS
    }
    attribute {
      name: "group"
      i: 1
      type: INT
    }
    attribute {
      name: "kernel_shape"
      ints: 7
      ints: 1
      type: INTS
    }
    attribute {
      name: "pads"
      ints: 3
      ints: 0
      ints: 3
      ints: 0
      type: INTS
    }
    attribute {
      name: "strides"
      ints: 1
      ints: 1
      type: INTS
    }
  }
  node {
    input: "734"
    input: "284"
    input: "285"
    input: "286"
    input: "287"
    output: "735"
    op_type: "BatchNormalization"
    attribute {
      name: "consumed_inputs"
      ints: 0
      ints: 0
      ints: 0
      ints: 1
      ints: 1
      type: INTS
    }
    attribute {
      name: "epsilon"
      f: 0.00100000004749745
      type: FLOAT
    }
    attribute {
      name: "is_test"
      i: 1
      type: INT
    }
    attribute {
      name: "momentum"
      f: 1
      type: FLOAT
    }
  }
  node {
    input: "735"
    output: "736"
    op_type: "Relu"
  }
  node {
    input: "736"
    input: "289"
    output: "737"
    op_type: "Conv"
    attribute {
      name: "dilations"
      ints: 1
      ints: 1
      type: INTS
    }
    attribute {
      name: "group"
      i: 1
      type: INT
    }
    attribute {
      name: "kernel_shape"
      ints: 1
      ints: 7
      type: INTS
    }
    attribute {
      name: "pads"
      ints: 0
      ints: 3
      ints: 0
      ints: 3
      type: INTS
    }
    attribute {
      name: "strides"
      ints: 1
      ints: 1
      type: INTS
    }
  }
  node {
    input: "737"
    input: "290"
    input: "291"
    input: "292"
    input: "293"
    output: "738"
    op_type: "BatchNormalization"
    attribute {
      name: "consumed_inputs"
      ints: 0
      ints: 0
      ints: 0
      ints: 1
      ints: 1
      type: INTS
    }
    attribute {
      name: "epsilon"
      f: 0.00100000004749745
      type: FLOAT
    }
    attribute {
      name: "is_test"
      i: 1
      type: INT
    }
    attribute {
      name: "momentum"
      f: 1
      type: FLOAT
    }
  }
  node {
    input: "738"
    output: "739"
    op_type: "Relu"
  }
  node {
    input: "712"
    output: "740"
    op_type: "AveragePool"
    attribute {
      name: "kernel_shape"
      ints: 3
      ints: 3
      type: INTS
    }
    attribute {
      name: "pads"
      ints: 1
      ints: 1
      ints: 1
      ints: 1
      type: INTS
    }
    attribute {
      name: "strides"
      ints: 1
      ints: 1
      type: INTS
    }
  }
  node {
    input: "740"
    input: "295"
    output: "741"
    op_type: "Conv"
    attribute {
      name: "dilations"
      ints: 1
      ints: 1
      type: INTS
    }
    attribute {
      name: "group"
      i: 1
      type: INT
    }
    attribute {
      name: "kernel_shape"
      ints: 1
      ints: 1
      type: INTS
    }
    attribute {
      name: "pads"
      ints: 0
      ints: 0
      ints: 0
      ints: 0
      type: INTS
    }
    attribute {
      name: "strides"
      ints: 1
      ints: 1
      type: INTS
    }
  }
  node {
    input: "741"
    input: "296"
    input: "297"
    input: "298"
    input: "299"
    output: "742"
    op_type: "BatchNormalization"
    attribute {
      name: "consumed_inputs"
      ints: 0
      ints: 0
      ints: 0
      ints: 1
      ints: 1
      type: INTS
    }
    attribute {
      name: "epsilon"
      f: 0.00100000004749745
      type: FLOAT
    }
    attribute {
      name: "is_test"
      i: 1
      type: INT
    }
    attribute {
      name: "momentum"
      f: 1
      type: FLOAT
    }
  }
  node {
    input: "742"
    output: "743"
    op_type: "Relu"
  }
  node {
    input: "715"
    input: "724"
    input: "739"
    input: "743"
    output: "744"
    op_type: "Concat"
    attribute {
      name: "axis"
      i: 1
      type: INT
    }
  }
  node {
    input: "744"
    input: "301"
    output: "745"
    op_type: "Conv"
    attribute {
      name: "dilations"
      ints: 1
      ints: 1
      type: INTS
    }
    attribute {
      name: "group"
      i: 1
      type: INT
    }
    attribute {
      name: "kernel_shape"
      ints: 1
      ints: 1
      type: INTS
    }
    attribute {
      name: "pads"
      ints: 0
      ints: 0
      ints: 0
      ints: 0
      type: INTS
    }
    attribute {
      name: "strides"
      ints: 1
      ints: 1
      type: INTS
    }
  }
  node {
    input: "745"
    input: "302"
    input: "303"
    input: "304"
    input: "305"
    output: "746"
    op_type: "BatchNormalization"
    attribute {
      name: "consumed_inputs"
      ints: 0
      ints: 0
      ints: 0
      ints: 1
      ints: 1
      type: INTS
    }
    attribute {
      name: "epsilon"
      f: 0.00100000004749745
      type: FLOAT
    }
    attribute {
      name: "is_test"
      i: 1
      type: INT
    }
    attribute {
      name: "momentum"
      f: 1
      type: FLOAT
    }
  }
  node {
    input: "746"
    output: "747"
    op_type: "Relu"
  }
  node {
    input: "744"
    input: "307"
    output: "748"
    op_type: "Conv"
    attribute {
      name: "dilations"
      ints: 1
      ints: 1
      type: INTS
    }
    attribute {
      name: "group"
      i: 1
      type: INT
    }
    attribute {
      name: "kernel_shape"
      ints: 1
      ints: 1
      type: INTS
    }
    attribute {
      name: "pads"
      ints: 0
      ints: 0
      ints: 0
      ints: 0
      type: INTS
    }
    attribute {
      name: "strides"
      ints: 1
      ints: 1
      type: INTS
    }
  }
  node {
    input: "748"
    input: "308"
    input: "309"
    input: "310"
    input: "311"
    output: "749"
    op_type: "BatchNormalization"
    attribute {
      name: "consumed_inputs"
      ints: 0
      ints: 0
      ints: 0
      ints: 1
      ints: 1
      type: INTS
    }
    attribute {
      name: "epsilon"
      f: 0.00100000004749745
      type: FLOAT
    }
    attribute {
      name: "is_test"
      i: 1
      type: INT
    }
    attribute {
      name: "momentum"
      f: 1
      type: FLOAT
    }
  }
  node {
    input: "749"
    output: "750"
    op_type: "Relu"
  }
  node {
    input: "750"
    input: "313"
    output: "751"
    op_type: "Conv"
    attribute {
      name: "dilations"
      ints: 1
      ints: 1
      type: INTS
    }
    attribute {
      name: "group"
      i: 1
      type: INT
    }
    attribute {
      name: "kernel_shape"
      ints: 1
      ints: 7
      type: INTS
    }
    attribute {
      name: "pads"
      ints: 0
      ints: 3
      ints: 0
      ints: 3
      type: INTS
    }
    attribute {
      name: "strides"
      ints: 1
      ints: 1
      type: INTS
    }
  }
  node {
    input: "751"
    input: "314"
    input: "315"
    input: "316"
    input: "317"
    output: "752"
    op_type: "BatchNormalization"
    attribute {
      name: "consumed_inputs"
      ints: 0
      ints: 0
      ints: 0
      ints: 1
      ints: 1
      type: INTS
    }
    attribute {
      name: "epsilon"
      f: 0.00100000004749745
      type: FLOAT
    }
    attribute {
      name: "is_test"
      i: 1
      type: INT
    }
    attribute {
      name: "momentum"
      f: 1
      type: FLOAT
    }
  }
  node {
    input: "752"
    output: "753"
    op_type: "Relu"
  }
  node {
    input: "753"
    input: "319"
    output: "754"
    op_type: "Conv"
    attribute {
      name: "dilations"
      ints: 1
      ints: 1
      type: INTS
    }
    attribute {
      name: "group"
      i: 1
      type: INT
    }
    attribute {
      name: "kernel_shape"
      ints: 7
      ints: 1
      type: INTS
    }
    attribute {
      name: "pads"
      ints: 3
      ints: 0
      ints: 3
      ints: 0
      type: INTS
    }
    attribute {
      name: "strides"
      ints: 1
      ints: 1
      type: INTS
    }
  }
  node {
    input: "754"
    input: "320"
    input: "321"
    input: "322"
    input: "323"
    output: "755"
    op_type: "BatchNormalization"
    attribute {
      name: "consumed_inputs"
      ints: 0
      ints: 0
      ints: 0
      ints: 1
      ints: 1
      type: INTS
    }
    attribute {
      name: "epsilon"
      f: 0.00100000004749745
      type: FLOAT
    }
    attribute {
      name: "is_test"
      i: 1
      type: INT
    }
    attribute {
      name: "momentum"
      f: 1
      type: FLOAT
    }
  }
  node {
    input: "755"
    output: "756"
    op_type: "Relu"
  }
  node {
    input: "744"
    input: "325"
    output: "757"
    op_type: "Conv"
    attribute {
      name: "dilations"
      ints: 1
      ints: 1
      type: INTS
    }
    attribute {
      name: "group"
      i: 1
      type: INT
    }
    attribute {
      name: "kernel_shape"
      ints: 1
      ints: 1
      type: INTS
    }
    attribute {
      name: "pads"
      ints: 0
      ints: 0
      ints: 0
      ints: 0
      type: INTS
    }
    attribute {
      name: "strides"
      ints: 1
      ints: 1
      type: INTS
    }
  }
  node {
    input: "757"
    input: "326"
    input: "327"
    input: "328"
    input: "329"
    output: "758"
    op_type: "BatchNormalization"
    attribute {
      name: "consumed_inputs"
      ints: 0
      ints: 0
      ints: 0
      ints: 1
      ints: 1
      type: INTS
    }
    attribute {
      name: "epsilon"
      f: 0.00100000004749745
      type: FLOAT
    }
    attribute {
      name: "is_test"
      i: 1
      type: INT
    }
    attribute {
      name: "momentum"
      f: 1
      type: FLOAT
    }
  }
  node {
    input: "758"
    output: "759"
    op_type: "Relu"
  }
  node {
    input: "759"
    input: "331"
    output: "760"
    op_type: "Conv"
    attribute {
      name: "dilations"
      ints: 1
      ints: 1
      type: INTS
    }
    attribute {
      name: "group"
      i: 1
      type: INT
    }
    attribute {
      name: "kernel_shape"
      ints: 7
      ints: 1
      type: INTS
    }
    attribute {
      name: "pads"
      ints: 3
      ints: 0
      ints: 3
      ints: 0
      type: INTS
    }
    attribute {
      name: "strides"
      ints: 1
      ints: 1
      type: INTS
    }
  }
  node {
    input: "760"
    input: "332"
    input: "333"
    input: "334"
    input: "335"
    output: "761"
    op_type: "BatchNormalization"
    attribute {
      name: "consumed_inputs"
      ints: 0
      ints: 0
      ints: 0
      ints: 1
      ints: 1
      type: INTS
    }
    attribute {
      name: "epsilon"
      f: 0.00100000004749745
      type: FLOAT
    }
    attribute {
      name: "is_test"
      i: 1
      type: INT
    }
    attribute {
      name: "momentum"
      f: 1
      type: FLOAT
    }
  }
  node {
    input: "761"
    output: "762"
    op_type: "Relu"
  }
  node {
    input: "762"
    input: "337"
    output: "763"
    op_type: "Conv"
    attribute {
      name: "dilations"
      ints: 1
      ints: 1
      type: INTS
    }
    attribute {
      name: "group"
      i: 1
      type: INT
    }
    attribute {
      name: "kernel_shape"
      ints: 1
      ints: 7
      type: INTS
    }
    attribute {
      name: "pads"
      ints: 0
      ints: 3
      ints: 0
      ints: 3
      type: INTS
    }
    attribute {
      name: "strides"
      ints: 1
      ints: 1
      type: INTS
    }
  }
  node {
    input: "763"
    input: "338"
    input: "339"
    input: "340"
    input: "341"
    output: "764"
    op_type: "BatchNormalization"
    attribute {
      name: "consumed_inputs"
      ints: 0
      ints: 0
      ints: 0
      ints: 1
      ints: 1
      type: INTS
    }
    attribute {
      name: "epsilon"
      f: 0.00100000004749745
      type: FLOAT
    }
    attribute {
      name: "is_test"
      i: 1
      type: INT
    }
    attribute {
      name: "momentum"
      f: 1
      type: FLOAT
    }
  }
  node {
    input: "764"
    output: "765"
    op_type: "Relu"
  }
  node {
    input: "765"
    input: "343"
    output: "766"
    op_type: "Conv"
    attribute {
      name: "dilations"
      ints: 1
      ints: 1
      type: INTS
    }
    attribute {
      name: "group"
      i: 1
      type: INT
    }
    attribute {
      name: "kernel_shape"
      ints: 7
      ints: 1
      type: INTS
    }
    attribute {
      name: "pads"
      ints: 3
      ints: 0
      ints: 3
      ints: 0
      type: INTS
    }
    attribute {
      name: "strides"
      ints: 1
      ints: 1
      type: INTS
    }
  }
  node {
    input: "766"
    input: "344"
    input: "345"
    input: "346"
    input: "347"
    output: "767"
    op_type: "BatchNormalization"
    attribute {
      name: "consumed_inputs"
      ints: 0
      ints: 0
      ints: 0
      ints: 1
      ints: 1
      type: INTS
    }
    attribute {
      name: "epsilon"
      f: 0.00100000004749745
      type: FLOAT
    }
    attribute {
      name: "is_test"
      i: 1
      type: INT
    }
    attribute {
      name: "momentum"
      f: 1
      type: FLOAT
    }
  }
  node {
    input: "767"
    output: "768"
    op_type: "Relu"
  }
  node {
    input: "768"
    input: "349"
    output: "769"
    op_type: "Conv"
    attribute {
      name: "dilations"
      ints: 1
      ints: 1
      type: INTS
    }
    attribute {
      name: "group"
      i: 1
      type: INT
    }
    attribute {
      name: "kernel_shape"
      ints: 1
      ints: 7
      type: INTS
    }
    attribute {
      name: "pads"
      ints: 0
      ints: 3
      ints: 0
      ints: 3
      type: INTS
    }
    attribute {
      name: "strides"
      ints: 1
      ints: 1
      type: INTS
    }
  }
  node {
    input: "769"
    input: "350"
    input: "351"
    input: "352"
    input: "353"
    output: "770"
    op_type: "BatchNormalization"
    attribute {
      name: "consumed_inputs"
      ints: 0
      ints: 0
      ints: 0
      ints: 1
      ints: 1
      type: INTS
    }
    attribute {
      name: "epsilon"
      f: 0.00100000004749745
      type: FLOAT
    }
    attribute {
      name: "is_test"
      i: 1
      type: INT
    }
    attribute {
      name: "momentum"
      f: 1
      type: FLOAT
    }
  }
  node {
    input: "770"
    output: "771"
    op_type: "Relu"
  }
  node {
    input: "744"
    output: "772"
    op_type: "AveragePool"
    attribute {
      name: "kernel_shape"
      ints: 3
      ints: 3
      type: INTS
    }
    attribute {
      name: "pads"
      ints: 1
      ints: 1
      ints: 1
      ints: 1
      type: INTS
    }
    attribute {
      name: "strides"
      ints: 1
      ints: 1
      type: INTS
    }
  }
  node {
    input: "772"
    input: "355"
    output: "773"
    op_type: "Conv"
    attribute {
      name: "dilations"
      ints: 1
      ints: 1
      type: INTS
    }
    attribute {
      name: "group"
      i: 1
      type: INT
    }
    attribute {
      name: "kernel_shape"
      ints: 1
      ints: 1
      type: INTS
    }
    attribute {
      name: "pads"
      ints: 0
      ints: 0
      ints: 0
      ints: 0
      type: INTS
    }
    attribute {
      name: "strides"
      ints: 1
      ints: 1
      type: INTS
    }
  }
  node {
    input: "773"
    input: "356"
    input: "357"
    input: "358"
    input: "359"
    output: "774"
    op_type: "BatchNormalization"
    attribute {
      name: "consumed_inputs"
      ints: 0
      ints: 0
      ints: 0
      ints: 1
      ints: 1
      type: INTS
    }
    attribute {
      name: "epsilon"
      f: 0.00100000004749745
      type: FLOAT
    }
    attribute {
      name: "is_test"
      i: 1
      type: INT
    }
    attribute {
      name: "momentum"
      f: 1
      type: FLOAT
    }
  }
  node {
    input: "774"
    output: "775"
    op_type: "Relu"
  }
  node {
    input: "747"
    input: "756"
    input: "771"
    input: "775"
    output: "776"
    op_type: "Concat"
    attribute {
      name: "axis"
      i: 1
      type: INT
    }
  }
  node {
    input: "776"
    input: "361"
    output: "777"
    op_type: "Conv"
    attribute {
      name: "dilations"
      ints: 1
      ints: 1
      type: INTS
    }
    attribute {
      name: "group"
      i: 1
      type: INT
    }
    attribute {
      name: "kernel_shape"
      ints: 1
      ints: 1
      type: INTS
    }
    attribute {
      name: "pads"
      ints: 0
      ints: 0
      ints: 0
      ints: 0
      type: INTS
    }
    attribute {
      name: "strides"
      ints: 1
      ints: 1
      type: INTS
    }
  }
  node {
    input: "777"
    input: "362"
    input: "363"
    input: "364"
    input: "365"
    output: "778"
    op_type: "BatchNormalization"
    attribute {
      name: "consumed_inputs"
      ints: 0
      ints: 0
      ints: 0
      ints: 1
      ints: 1
      type: INTS
    }
    attribute {
      name: "epsilon"
      f: 0.00100000004749745
      type: FLOAT
    }
    attribute {
      name: "is_test"
      i: 1
      type: INT
    }
    attribute {
      name: "momentum"
      f: 1
      type: FLOAT
    }
  }
  node {
    input: "778"
    output: "779"
    op_type: "Relu"
  }
  node {
    input: "776"
    input: "367"
    output: "780"
    op_type: "Conv"
    attribute {
      name: "dilations"
      ints: 1
      ints: 1
      type: INTS
    }
    attribute {
      name: "group"
      i: 1
      type: INT
    }
    attribute {
      name: "kernel_shape"
      ints: 1
      ints: 1
      type: INTS
    }
    attribute {
      name: "pads"
      ints: 0
      ints: 0
      ints: 0
      ints: 0
      type: INTS
    }
    attribute {
      name: "strides"
      ints: 1
      ints: 1
      type: INTS
    }
  }
  node {
    input: "780"
    input: "368"
    input: "369"
    input: "370"
    input: "371"
    output: "781"
    op_type: "BatchNormalization"
    attribute {
      name: "consumed_inputs"
      ints: 0
      ints: 0
      ints: 0
      ints: 1
      ints: 1
      type: INTS
    }
    attribute {
      name: "epsilon"
      f: 0.00100000004749745
      type: FLOAT
    }
    attribute {
      name: "is_test"
      i: 1
      type: INT
    }
    attribute {
      name: "momentum"
      f: 1
      type: FLOAT
    }
  }
  node {
    input: "781"
    output: "782"
    op_type: "Relu"
  }
  node {
    input: "782"
    input: "373"
    output: "783"
    op_type: "Conv"
    attribute {
      name: "dilations"
      ints: 1
      ints: 1
      type: INTS
    }
    attribute {
      name: "group"
      i: 1
      type: INT
    }
    attribute {
      name: "kernel_shape"
      ints: 1
      ints: 7
      type: INTS
    }
    attribute {
      name: "pads"
      ints: 0
      ints: 3
      ints: 0
      ints: 3
      type: INTS
    }
    attribute {
      name: "strides"
      ints: 1
      ints: 1
      type: INTS
    }
  }
  node {
    input: "783"
    input: "374"
    input: "375"
    input: "376"
    input: "377"
    output: "784"
    op_type: "BatchNormalization"
    attribute {
      name: "consumed_inputs"
      ints: 0
      ints: 0
      ints: 0
      ints: 1
      ints: 1
      type: INTS
    }
    attribute {
      name: "epsilon"
      f: 0.00100000004749745
      type: FLOAT
    }
    attribute {
      name: "is_test"
      i: 1
      type: INT
    }
    attribute {
      name: "momentum"
      f: 1
      type: FLOAT
    }
  }
  node {
    input: "784"
    output: "785"
    op_type: "Relu"
  }
  node {
    input: "785"
    input: "379"
    output: "786"
    op_type: "Conv"
    attribute {
      name: "dilations"
      ints: 1
      ints: 1
      type: INTS
    }
    attribute {
      name: "group"
      i: 1
      type: INT
    }
    attribute {
      name: "kernel_shape"
      ints: 7
      ints: 1
      type: INTS
    }
    attribute {
      name: "pads"
      ints: 3
      ints: 0
      ints: 3
      ints: 0
      type: INTS
    }
    attribute {
      name: "strides"
      ints: 1
      ints: 1
      type: INTS
    }
  }
  node {
    input: "786"
    input: "380"
    input: "381"
    input: "382"
    input: "383"
    output: "787"
    op_type: "BatchNormalization"
    attribute {
      name: "consumed_inputs"
      ints: 0
      ints: 0
      ints: 0
      ints: 1
      ints: 1
      type: INTS
    }
    attribute {
      name: "epsilon"
      f: 0.00100000004749745
      type: FLOAT
    }
    attribute {
      name: "is_test"
      i: 1
      type: INT
    }
    attribute {
      name: "momentum"
      f: 1
      type: FLOAT
    }
  }
  node {
    input: "787"
    output: "788"
    op_type: "Relu"
  }
  node {
    input: "776"
    input: "385"
    output: "789"
    op_type: "Conv"
    attribute {
      name: "dilations"
      ints: 1
      ints: 1
      type: INTS
    }
    attribute {
      name: "group"
      i: 1
      type: INT
    }
    attribute {
      name: "kernel_shape"
      ints: 1
      ints: 1
      type: INTS
    }
    attribute {
      name: "pads"
      ints: 0
      ints: 0
      ints: 0
      ints: 0
      type: INTS
    }
    attribute {
      name: "strides"
      ints: 1
      ints: 1
      type: INTS
    }
  }
  node {
    input: "789"
    input: "386"
    input: "387"
    input: "388"
    input: "389"
    output: "790"
    op_type: "BatchNormalization"
    attribute {
      name: "consumed_inputs"
      ints: 0
      ints: 0
      ints: 0
      ints: 1
      ints: 1
      type: INTS
    }
    attribute {
      name: "epsilon"
      f: 0.00100000004749745
      type: FLOAT
    }
    attribute {
      name: "is_test"
      i: 1
      type: INT
    }
    attribute {
      name: "momentum"
      f: 1
      type: FLOAT
    }
  }
  node {
    input: "790"
    output: "791"
    op_type: "Relu"
  }
  node {
    input: "791"
    input: "391"
    output: "792"
    op_type: "Conv"
    attribute {
      name: "dilations"
      ints: 1
      ints: 1
      type: INTS
    }
    attribute {
      name: "group"
      i: 1
      type: INT
    }
    attribute {
      name: "kernel_shape"
      ints: 7
      ints: 1
      type: INTS
    }
    attribute {
      name: "pads"
      ints: 3
      ints: 0
      ints: 3
      ints: 0
      type: INTS
    }
    attribute {
      name: "strides"
      ints: 1
      ints: 1
      type: INTS
    }
  }
  node {
    input: "792"
    input: "392"
    input: "393"
    input: "394"
    input: "395"
    output: "793"
    op_type: "BatchNormalization"
    attribute {
      name: "consumed_inputs"
      ints: 0
      ints: 0
      ints: 0
      ints: 1
      ints: 1
      type: INTS
    }
    attribute {
      name: "epsilon"
      f: 0.00100000004749745
      type: FLOAT
    }
    attribute {
      name: "is_test"
      i: 1
      type: INT
    }
    attribute {
      name: "momentum"
      f: 1
      type: FLOAT
    }
  }
  node {
    input: "793"
    output: "794"
    op_type: "Relu"
  }
  node {
    input: "794"
    input: "397"
    output: "795"
    op_type: "Conv"
    attribute {
      name: "dilations"
      ints: 1
      ints: 1
      type: INTS
    }
    attribute {
      name: "group"
      i: 1
      type: INT
    }
    attribute {
      name: "kernel_shape"
      ints: 1
      ints: 7
      type: INTS
    }
    attribute {
      name: "pads"
      ints: 0
      ints: 3
      ints: 0
      ints: 3
      type: INTS
    }
    attribute {
      name: "strides"
      ints: 1
      ints: 1
      type: INTS
    }
  }
  node {
    input: "795"
    input: "398"
    input: "399"
    input: "400"
    input: "401"
    output: "796"
    op_type: "BatchNormalization"
    attribute {
      name: "consumed_inputs"
      ints: 0
      ints: 0
      ints: 0
      ints: 1
      ints: 1
      type: INTS
    }
    attribute {
      name: "epsilon"
      f: 0.00100000004749745
      type: FLOAT
    }
    attribute {
      name: "is_test"
      i: 1
      type: INT
    }
    attribute {
      name: "momentum"
      f: 1
      type: FLOAT
    }
  }
  node {
    input: "796"
    output: "797"
    op_type: "Relu"
  }
  node {
    input: "797"
    input: "403"
    output: "798"
    op_type: "Conv"
    attribute {
      name: "dilations"
      ints: 1
      ints: 1
      type: INTS
    }
    attribute {
      name: "group"
      i: 1
      type: INT
    }
    attribute {
      name: "kernel_shape"
      ints: 7
      ints: 1
      type: INTS
    }
    attribute {
      name: "pads"
      ints: 3
      ints: 0
      ints: 3
      ints: 0
      type: INTS
    }
    attribute {
      name: "strides"
      ints: 1
      ints: 1
      type: INTS
    }
  }
  node {
    input: "798"
    input: "404"
    input: "405"
    input: "406"
    input: "407"
    output: "799"
    op_type: "BatchNormalization"
    attribute {
      name: "consumed_inputs"
      ints: 0
      ints: 0
      ints: 0
      ints: 1
      ints: 1
      type: INTS
    }
    attribute {
      name: "epsilon"
      f: 0.00100000004749745
      type: FLOAT
    }
    attribute {
      name: "is_test"
      i: 1
      type: INT
    }
    attribute {
      name: "momentum"
      f: 1
      type: FLOAT
    }
  }
  node {
    input: "799"
    output: "800"
    op_type: "Relu"
  }
  node {
    input: "800"
    input: "409"
    output: "801"
    op_type: "Conv"
    attribute {
      name: "dilations"
      ints: 1
      ints: 1
      type: INTS
    }
    attribute {
      name: "group"
      i: 1
      type: INT
    }
    attribute {
      name: "kernel_shape"
      ints: 1
      ints: 7
      type: INTS
    }
    attribute {
      name: "pads"
      ints: 0
      ints: 3
      ints: 0
      ints: 3
      type: INTS
    }
    attribute {
      name: "strides"
      ints: 1
      ints: 1
      type: INTS
    }
  }
  node {
    input: "801"
    input: "410"
    input: "411"
    input: "412"
    input: "413"
    output: "802"
    op_type: "BatchNormalization"
    attribute {
      name: "consumed_inputs"
      ints: 0
      ints: 0
      ints: 0
      ints: 1
      ints: 1
      type: INTS
    }
    attribute {
      name: "epsilon"
      f: 0.00100000004749745
      type: FLOAT
    }
    attribute {
      name: "is_test"
      i: 1
      type: INT
    }
    attribute {
      name: "momentum"
      f: 1
      type: FLOAT
    }
  }
  node {
    input: "802"
    output: "803"
    op_type: "Relu"
  }
  node {
    input: "776"
    output: "804"
    op_type: "AveragePool"
    attribute {
      name: "kernel_shape"
      ints: 3
      ints: 3
      type: INTS
    }
    attribute {
      name: "pads"
      ints: 1
      ints: 1
      ints: 1
      ints: 1
      type: INTS
    }
    attribute {
      name: "strides"
      ints: 1
      ints: 1
      type: INTS
    }
  }
  node {
    input: "804"
    input: "415"
    output: "805"
    op_type: "Conv"
    attribute {
      name: "dilations"
      ints: 1
      ints: 1
      type: INTS
    }
    attribute {
      name: "group"
      i: 1
      type: INT
    }
    attribute {
      name: "kernel_shape"
      ints: 1
      ints: 1
      type: INTS
    }
    attribute {
      name: "pads"
      ints: 0
      ints: 0
      ints: 0
      ints: 0
      type: INTS
    }
    attribute {
      name: "strides"
      ints: 1
      ints: 1
      type: INTS
    }
  }
  node {
    input: "805"
    input: "416"
    input: "417"
    input: "418"
    input: "419"
    output: "806"
    op_type: "BatchNormalization"
    attribute {
      name: "consumed_inputs"
      ints: 0
      ints: 0
      ints: 0
      ints: 1
      ints: 1
      type: INTS
    }
    attribute {
      name: "epsilon"
      f: 0.00100000004749745
      type: FLOAT
    }
    attribute {
      name: "is_test"
      i: 1
      type: INT
    }
    attribute {
      name: "momentum"
      f: 1
      type: FLOAT
    }
  }
  node {
    input: "806"
    output: "807"
    op_type: "Relu"
  }
  node {
    input: "779"
    input: "788"
    input: "803"
    input: "807"
    output: "808"
    op_type: "Concat"
    attribute {
      name: "axis"
      i: 1
      type: INT
    }
  }
  node {
    input: "808"
    input: "435"
    output: "809"
    op_type: "Conv"
    attribute {
      name: "dilations"
      ints: 1
      ints: 1
      type: INTS
    }
    attribute {
      name: "group"
      i: 1
      type: INT
    }
    attribute {
      name: "kernel_shape"
      ints: 1
      ints: 1
      type: INTS
    }
    attribute {
      name: "pads"
      ints: 0
      ints: 0
      ints: 0
      ints: 0
      type: INTS
    }
    attribute {
      name: "strides"
      ints: 1
      ints: 1
      type: INTS
    }
  }
  node {
    input: "809"
    input: "436"
    input: "437"
    input: "438"
    input: "439"
    output: "810"
    op_type: "BatchNormalization"
    attribute {
      name: "consumed_inputs"
      ints: 0
      ints: 0
      ints: 0
      ints: 1
      ints: 1
      type: INTS
    }
    attribute {
      name: "epsilon"
      f: 0.00100000004749745
      type: FLOAT
    }
    attribute {
      name: "is_test"
      i: 1
      type: INT
    }
    attribute {
      name: "momentum"
      f: 1
      type: FLOAT
    }
  }
  node {
    input: "810"
    output: "811"
    op_type: "Relu"
  }
  node {
    input: "811"
    input: "441"
    output: "812"
    op_type: "Conv"
    attribute {
      name: "dilations"
      ints: 1
      ints: 1
      type: INTS
    }
    attribute {
      name: "group"
      i: 1
      type: INT
    }
    attribute {
      name: "kernel_shape"
      ints: 3
      ints: 3
      type: INTS
    }
    attribute {
      name: "pads"
      ints: 0
      ints: 0
      ints: 0
      ints: 0
      type: INTS
    }
    attribute {
      name: "strides"
      ints: 2
      ints: 2
      type: INTS
    }
  }
  node {
    input: "812"
    input: "442"
    input: "443"
    input: "444"
    input: "445"
    output: "813"
    op_type: "BatchNormalization"
    attribute {
      name: "consumed_inputs"
      ints: 0
      ints: 0
      ints: 0
      ints: 1
      ints: 1
      type: INTS
    }
    attribute {
      name: "epsilon"
      f: 0.00100000004749745
      type: FLOAT
    }
    attribute {
      name: "is_test"
      i: 1
      type: INT
    }
    attribute {
      name: "momentum"
      f: 1
      type: FLOAT
    }
  }
  node {
    input: "813"
    output: "814"
    op_type: "Relu"
  }
  node {
    input: "808"
    input: "447"
    output: "815"
    op_type: "Conv"
    attribute {
      name: "dilations"
      ints: 1
      ints: 1
      type: INTS
    }
    attribute {
      name: "group"
      i: 1
      type: INT
    }
    attribute {
      name: "kernel_shape"
      ints: 1
      ints: 1
      type: INTS
    }
    attribute {
      name: "pads"
      ints: 0
      ints: 0
      ints: 0
      ints: 0
      type: INTS
    }
    attribute {
      name: "strides"
      ints: 1
      ints: 1
      type: INTS
    }
  }
  node {
    input: "815"
    input: "448"
    input: "449"
    input: "450"
    input: "451"
    output: "816"
    op_type: "BatchNormalization"
    attribute {
      name: "consumed_inputs"
      ints: 0
      ints: 0
      ints: 0
      ints: 1
      ints: 1
      type: INTS
    }
    attribute {
      name: "epsilon"
      f: 0.00100000004749745
      type: FLOAT
    }
    attribute {
      name: "is_test"
      i: 1
      type: INT
    }
    attribute {
      name: "momentum"
      f: 1
      type: FLOAT
    }
  }
  node {
    input: "816"
    output: "817"
    op_type: "Relu"
  }
  node {
    input: "817"
    input: "453"
    output: "818"
    op_type: "Conv"
    attribute {
      name: "dilations"
      ints: 1
      ints: 1
      type: INTS
    }
    attribute {
      name: "group"
      i: 1
      type: INT
    }
    attribute {
      name: "kernel_shape"
      ints: 1
      ints: 7
      type: INTS
    }
    attribute {
      name: "pads"
      ints: 0
      ints: 3
      ints: 0
      ints: 3
      type: INTS
    }
    attribute {
      name: "strides"
      ints: 1
      ints: 1
      type: INTS
    }
  }
  node {
    input: "818"
    input: "454"
    input: "455"
    input: "456"
    input: "457"
    output: "819"
    op_type: "BatchNormalization"
    attribute {
      name: "consumed_inputs"
      ints: 0
      ints: 0
      ints: 0
      ints: 1
      ints: 1
      type: INTS
    }
    attribute {
      name: "epsilon"
      f: 0.00100000004749745
      type: FLOAT
    }
    attribute {
      name: "is_test"
      i: 1
      type: INT
    }
    attribute {
      name: "momentum"
      f: 1
      type: FLOAT
    }
  }
  node {
    input: "819"
    output: "820"
    op_type: "Relu"
  }
  node {
    input: "820"
    input: "459"
    output: "821"
    op_type: "Conv"
    attribute {
      name: "dilations"
      ints: 1
      ints: 1
      type: INTS
    }
    attribute {
      name: "group"
      i: 1
      type: INT
    }
    attribute {
      name: "kernel_shape"
      ints: 7
      ints: 1
      type: INTS
    }
    attribute {
      name: "pads"
      ints: 3
      ints: 0
      ints: 3
      ints: 0
      type: INTS
    }
    attribute {
      name: "strides"
      ints: 1
      ints: 1
      type: INTS
    }
  }
  node {
    input: "821"
    input: "460"
    input: "461"
    input: "462"
    input: "463"
    output: "822"
    op_type: "BatchNormalization"
    attribute {
      name: "consumed_inputs"
      ints: 0
      ints: 0
      ints: 0
      ints: 1
      ints: 1
      type: INTS
    }
    attribute {
      name: "epsilon"
      f: 0.00100000004749745
      type: FLOAT
    }
    attribute {
      name: "is_test"
      i: 1
      type: INT
    }
    attribute {
      name: "momentum"
      f: 1
      type: FLOAT
    }
  }
  node {
    input: "822"
    output: "823"
    op_type: "Relu"
  }
  node {
    input: "823"
    input: "465"
    output: "824"
    op_type: "Conv"
    attribute {
      name: "dilations"
      ints: 1
      ints: 1
      type: INTS
    }
    attribute {
      name: "group"
      i: 1
      type: INT
    }
    attribute {
      name: "kernel_shape"
      ints: 3
      ints: 3
      type: INTS
    }
    attribute {
      name: "pads"
      ints: 0
      ints: 0
      ints: 0
      ints: 0
      type: INTS
    }
    attribute {
      name: "strides"
      ints: 2
      ints: 2
      type: INTS
    }
  }
  node {
    input: "824"
    input: "466"
    input: "467"
    input: "468"
    input: "469"
    output: "825"
    op_type: "BatchNormalization"
    attribute {
      name: "consumed_inputs"
      ints: 0
      ints: 0
      ints: 0
      ints: 1
      ints: 1
      type: INTS
    }
    attribute {
      name: "epsilon"
      f: 0.00100000004749745
      type: FLOAT
    }
    attribute {
      name: "is_test"
      i: 1
      type: INT
    }
    attribute {
      name: "momentum"
      f: 1
      type: FLOAT
    }
  }
  node {
    input: "825"
    output: "826"
    op_type: "Relu"
  }
  node {
    input: "808"
    output: "827"
    op_type: "MaxPool"
    attribute {
      name: "kernel_shape"
      ints: 3
      ints: 3
      type: INTS
    }
    attribute {
      name: "pads"
      ints: 0
      ints: 0
      ints: 0
      ints: 0
      type: INTS
    }
    attribute {
      name: "strides"
      ints: 2
      ints: 2
      type: INTS
    }
  }
  node {
    input: "814"
    input: "826"
    input: "827"
    output: "828"
    op_type: "Concat"
    attribute {
      name: "axis"
      i: 1
      type: INT
    }
  }
  node {
    input: "828"
    input: "471"
    output: "829"
    op_type: "Conv"
    attribute {
      name: "dilations"
      ints: 1
      ints: 1
      type: INTS
    }
    attribute {
      name: "group"
      i: 1
      type: INT
    }
    attribute {
      name: "kernel_shape"
      ints: 1
      ints: 1
      type: INTS
    }
    attribute {
      name: "pads"
      ints: 0
      ints: 0
      ints: 0
      ints: 0
      type: INTS
    }
    attribute {
      name: "strides"
      ints: 1
      ints: 1
      type: INTS
    }
  }
  node {
    input: "829"
    input: "472"
    input: "473"
    input: "474"
    input: "475"
    output: "830"
    op_type: "BatchNormalization"
    attribute {
      name: "consumed_inputs"
      ints: 0
      ints: 0
      ints: 0
      ints: 1
      ints: 1
      type: INTS
    }
    attribute {
      name: "epsilon"
      f: 0.00100000004749745
      type: FLOAT
    }
    attribute {
      name: "is_test"
      i: 1
      type: INT
    }
    attribute {
      name: "momentum"
      f: 1
      type: FLOAT
    }
  }
  node {
    input: "830"
    output: "831"
    op_type: "Relu"
  }
  node {
    input: "828"
    input: "477"
    output: "832"
    op_type: "Conv"
    attribute {
      name: "dilations"
      ints: 1
      ints: 1
      type: INTS
    }
    attribute {
      name: "group"
      i: 1
      type: INT
    }
    attribute {
      name: "kernel_shape"
      ints: 1
      ints: 1
      type: INTS
    }
    attribute {
      name: "pads"
      ints: 0
      ints: 0
      ints: 0
      ints: 0
      type: INTS
    }
    attribute {
      name: "strides"
      ints: 1
      ints: 1
      type: INTS
    }
  }
  node {
    input: "832"
    input: "478"
    input: "479"
    input: "480"
    input: "481"
    output: "833"
    op_type: "BatchNormalization"
    attribute {
      name: "consumed_inputs"
      ints: 0
      ints: 0
      ints: 0
      ints: 1
      ints: 1
      type: INTS
    }
    attribute {
      name: "epsilon"
      f: 0.00100000004749745
      type: FLOAT
    }
    attribute {
      name: "is_test"
      i: 1
      type: INT
    }
    attribute {
      name: "momentum"
      f: 1
      type: FLOAT
    }
  }
  node {
    input: "833"
    output: "834"
    op_type: "Relu"
  }
  node {
    input: "834"
    input: "483"
    output: "835"
    op_type: "Conv"
    attribute {
      name: "dilations"
      ints: 1
      ints: 1
      type: INTS
    }
    attribute {
      name: "group"
      i: 1
      type: INT
    }
    attribute {
      name: "kernel_shape"
      ints: 1
      ints: 3
      type: INTS
    }
    attribute {
      name: "pads"
      ints: 0
      ints: 1
      ints: 0
      ints: 1
      type: INTS
    }
    attribute {
      name: "strides"
      ints: 1
      ints: 1
      type: INTS
    }
  }
  node {
    input: "835"
    input: "484"
    input: "485"
    input: "486"
    input: "487"
    output: "836"
    op_type: "BatchNormalization"
    attribute {
      name: "consumed_inputs"
      ints: 0
      ints: 0
      ints: 0
      ints: 1
      ints: 1
      type: INTS
    }
    attribute {
      name: "epsilon"
      f: 0.00100000004749745
      type: FLOAT
    }
    attribute {
      name: "is_test"
      i: 1
      type: INT
    }
    attribute {
      name: "momentum"
      f: 1
      type: FLOAT
    }
  }
  node {
    input: "836"
    output: "837"
    op_type: "Relu"
  }
  node {
    input: "834"
    input: "489"
    output: "838"
    op_type: "Conv"
    attribute {
      name: "dilations"
      ints: 1
      ints: 1
      type: INTS
    }
    attribute {
      name: "group"
      i: 1
      type: INT
    }
    attribute {
      name: "kernel_shape"
      ints: 3
      ints: 1
      type: INTS
    }
    attribute {
      name: "pads"
      ints: 1
      ints: 0
      ints: 1
      ints: 0
      type: INTS
    }
    attribute {
      name: "strides"
      ints: 1
      ints: 1
      type: INTS
    }
  }
  node {
    input: "838"
    input: "490"
    input: "491"
    input: "492"
    input: "493"
    output: "839"
    op_type: "BatchNormalization"
    attribute {
      name: "consumed_inputs"
      ints: 0
      ints: 0
      ints: 0
      ints: 1
      ints: 1
      type: INTS
    }
    attribute {
      name: "epsilon"
      f: 0.00100000004749745
      type: FLOAT
    }
    attribute {
      name: "is_test"
      i: 1
      type: INT
    }
    attribute {
      name: "momentum"
      f: 1
      type: FLOAT
    }
  }
  node {
    input: "839"
    output: "840"
    op_type: "Relu"
  }
  node {
    input: "837"
    input: "840"
    output: "841"
    op_type: "Concat"
    attribute {
      name: "axis"
      i: 1
      type: INT
    }
  }
  node {
    input: "828"
    input: "495"
    output: "842"
    op_type: "Conv"
    attribute {
      name: "dilations"
      ints: 1
      ints: 1
      type: INTS
    }
    attribute {
      name: "group"
      i: 1
      type: INT
    }
    attribute {
      name: "kernel_shape"
      ints: 1
      ints: 1
      type: INTS
    }
    attribute {
      name: "pads"
      ints: 0
      ints: 0
      ints: 0
      ints: 0
      type: INTS
    }
    attribute {
      name: "strides"
      ints: 1
      ints: 1
      type: INTS
    }
  }
  node {
    input: "842"
    input: "496"
    input: "497"
    input: "498"
    input: "499"
    output: "843"
    op_type: "BatchNormalization"
    attribute {
      name: "consumed_inputs"
      ints: 0
      ints: 0
      ints: 0
      ints: 1
      ints: 1
      type: INTS
    }
    attribute {
      name: "epsilon"
      f: 0.00100000004749745
      type: FLOAT
    }
    attribute {
      name: "is_test"
      i: 1
      type: INT
    }
    attribute {
      name: "momentum"
      f: 1
      type: FLOAT
    }
  }
  node {
    input: "843"
    output: "844"
    op_type: "Relu"
  }
  node {
    input: "844"
    input: "501"
    output: "845"
    op_type: "Conv"
    attribute {
      name: "dilations"
      ints: 1
      ints: 1
      type: INTS
    }
    attribute {
      name: "group"
      i: 1
      type: INT
    }
    attribute {
      name: "kernel_shape"
      ints: 3
      ints: 3
      type: INTS
    }
    attribute {
      name: "pads"
      ints: 1
      ints: 1
      ints: 1
      ints: 1
      type: INTS
    }
    attribute {
      name: "strides"
      ints: 1
      ints: 1
      type: INTS
    }
  }
  node {
    input: "845"
    input: "502"
    input: "503"
    input: "504"
    input: "505"
    output: "846"
    op_type: "BatchNormalization"
    attribute {
      name: "consumed_inputs"
      ints: 0
      ints: 0
      ints: 0
      ints: 1
      ints: 1
      type: INTS
    }
    attribute {
      name: "epsilon"
      f: 0.00100000004749745
      type: FLOAT
    }
    attribute {
      name: "is_test"
      i: 1
      type: INT
    }
    attribute {
      name: "momentum"
      f: 1
      type: FLOAT
    }
  }
  node {
    input: "846"
    output: "847"
    op_type: "Relu"
  }
  node {
    input: "847"
    input: "507"
    output: "848"
    op_type: "Conv"
    attribute {
      name: "dilations"
      ints: 1
      ints: 1
      type: INTS
    }
    attribute {
      name: "group"
      i: 1
      type: INT
    }
    attribute {
      name: "kernel_shape"
      ints: 1
      ints: 3
      type: INTS
    }
    attribute {
      name: "pads"
      ints: 0
      ints: 1
      ints: 0
      ints: 1
      type: INTS
    }
    attribute {
      name: "strides"
      ints: 1
      ints: 1
      type: INTS
    }
  }
  node {
    input: "848"
    input: "508"
    input: "509"
    input: "510"
    input: "511"
    output: "849"
    op_type: "BatchNormalization"
    attribute {
      name: "consumed_inputs"
      ints: 0
      ints: 0
      ints: 0
      ints: 1
      ints: 1
      type: INTS
    }
    attribute {
      name: "epsilon"
      f: 0.00100000004749745
      type: FLOAT
    }
    attribute {
      name: "is_test"
      i: 1
      type: INT
    }
    attribute {
      name: "momentum"
      f: 1
      type: FLOAT
    }
  }
  node {
    input: "849"
    output: "850"
    op_type: "Relu"
  }
  node {
    input: "847"
    input: "513"
    output: "851"
    op_type: "Conv"
    attribute {
      name: "dilations"
      ints: 1
      ints: 1
      type: INTS
    }
    attribute {
      name: "group"
      i: 1
      type: INT
    }
    attribute {
      name: "kernel_shape"
      ints: 3
      ints: 1
      type: INTS
    }
    attribute {
      name: "pads"
      ints: 1
      ints: 0
      ints: 1
      ints: 0
      type: INTS
    }
    attribute {
      name: "strides"
      ints: 1
      ints: 1
      type: INTS
    }
  }
  node {
    input: "851"
    input: "514"
    input: "515"
    input: "516"
    input: "517"
    output: "852"
    op_type: "BatchNormalization"
    attribute {
      name: "consumed_inputs"
      ints: 0
      ints: 0
      ints: 0
      ints: 1
      ints: 1
      type: INTS
    }
    attribute {
      name: "epsilon"
      f: 0.00100000004749745
      type: FLOAT
    }
    attribute {
      name: "is_test"
      i: 1
      type: INT
    }
    attribute {
      name: "momentum"
      f: 1
      type: FLOAT
    }
  }
  node {
    input: "852"
    output: "853"
    op_type: "Relu"
  }
  node {
    input: "850"
    input: "853"
    output: "854"
    op_type: "Concat"
    attribute {
      name: "axis"
      i: 1
      type: INT
    }
  }
  node {
    input: "828"
    output: "855"
    op_type: "AveragePool"
    attribute {
      name: "kernel_shape"
      ints: 3
      ints: 3
      type: INTS
    }
    attribute {
      name: "pads"
      ints: 1
      ints: 1
      ints: 1
      ints: 1
      type: INTS
    }
    attribute {
      name: "strides"
      ints: 1
      ints: 1
      type: INTS
    }
  }
  node {
    input: "855"
    input: "519"
    output: "856"
    op_type: "Conv"
    attribute {
      name: "dilations"
      ints: 1
      ints: 1
      type: INTS
    }
    attribute {
      name: "group"
      i: 1
      type: INT
    }
    attribute {
      name: "kernel_shape"
      ints: 1
      ints: 1
      type: INTS
    }
    attribute {
      name: "pads"
      ints: 0
      ints: 0
      ints: 0
      ints: 0
      type: INTS
    }
    attribute {
      name: "strides"
      ints: 1
      ints: 1
      type: INTS
    }
  }
  node {
    input: "856"
    input: "520"
    input: "521"
    input: "522"
    input: "523"
    output: "857"
    op_type: "BatchNormalization"
    attribute {
      name: "consumed_inputs"
      ints: 0
      ints: 0
      ints: 0
      ints: 1
      ints: 1
      type: INTS
    }
    attribute {
      name: "epsilon"
      f: 0.00100000004749745
      type: FLOAT
    }
    attribute {
      name: "is_test"
      i: 1
      type: INT
    }
    attribute {
      name: "momentum"
      f: 1
      type: FLOAT
    }
  }
  node {
    input: "857"
    output: "858"
    op_type: "Relu"
  }
  node {
    input: "831"
    input: "841"
    input: "854"
    input: "858"
    output: "859"
    op_type: "Concat"
    attribute {
      name: "axis"
      i: 1
      type: INT
    }
  }
  node {
    input: "859"
    input: "525"
    output: "860"
    op_type: "Conv"
    attribute {
      name: "dilations"
      ints: 1
      ints: 1
      type: INTS
    }
    attribute {
      name: "group"
      i: 1
      type: INT
    }
    attribute {
      name: "kernel_shape"
      ints: 1
      ints: 1
      type: INTS
    }
    attribute {
      name: "pads"
      ints: 0
      ints: 0
      ints: 0
      ints: 0
      type: INTS
    }
    attribute {
      name: "strides"
      ints: 1
      ints: 1
      type: INTS
    }
  }
  node {
    input: "860"
    input: "526"
    input: "527"
    input: "528"
    input: "529"
    output: "861"
    op_type: "BatchNormalization"
    attribute {
      name: "consumed_inputs"
      ints: 0
      ints: 0
      ints: 0
      ints: 1
      ints: 1
      type: INTS
    }
    attribute {
      name: "epsilon"
      f: 0.00100000004749745
      type: FLOAT
    }
    attribute {
      name: "is_test"
      i: 1
      type: INT
    }
    attribute {
      name: "momentum"
      f: 1
      type: FLOAT
    }
  }
  node {
    input: "861"
    output: "862"
    op_type: "Relu"
  }
  node {
    input: "859"
    input: "531"
    output: "863"
    op_type: "Conv"
    attribute {
      name: "dilations"
      ints: 1
      ints: 1
      type: INTS
    }
    attribute {
      name: "group"
      i: 1
      type: INT
    }
    attribute {
      name: "kernel_shape"
      ints: 1
      ints: 1
      type: INTS
    }
    attribute {
      name: "pads"
      ints: 0
      ints: 0
      ints: 0
      ints: 0
      type: INTS
    }
    attribute {
      name: "strides"
      ints: 1
      ints: 1
      type: INTS
    }
  }
  node {
    input: "863"
    input: "532"
    input: "533"
    input: "534"
    input: "535"
    output: "864"
    op_type: "BatchNormalization"
    attribute {
      name: "consumed_inputs"
      ints: 0
      ints: 0
      ints: 0
      ints: 1
      ints: 1
      type: INTS
    }
    attribute {
      name: "epsilon"
      f: 0.00100000004749745
      type: FLOAT
    }
    attribute {
      name: "is_test"
      i: 1
      type: INT
    }
    attribute {
      name: "momentum"
      f: 1
      type: FLOAT
    }
  }
  node {
    input: "864"
    output: "865"
    op_type: "Relu"
  }
  node {
    input: "865"
    input: "537"
    output: "866"
    op_type: "Conv"
    attribute {
      name: "dilations"
      ints: 1
      ints: 1
      type: INTS
    }
    attribute {
      name: "group"
      i: 1
      type: INT
    }
    attribute {
      name: "kernel_shape"
      ints: 1
      ints: 3
      type: INTS
    }
    attribute {
      name: "pads"
      ints: 0
      ints: 1
      ints: 0
      ints: 1
      type: INTS
    }
    attribute {
      name: "strides"
      ints: 1
      ints: 1
      type: INTS
    }
  }
  node {
    input: "866"
    input: "538"
    input: "539"
    input: "540"
    input: "541"
    output: "867"
    op_type: "BatchNormalization"
    attribute {
      name: "consumed_inputs"
      ints: 0
      ints: 0
      ints: 0
      ints: 1
      ints: 1
      type: INTS
    }
    attribute {
      name: "epsilon"
      f: 0.00100000004749745
      type: FLOAT
    }
    attribute {
      name: "is_test"
      i: 1
      type: INT
    }
    attribute {
      name: "momentum"
      f: 1
      type: FLOAT
    }
  }
  node {
    input: "867"
    output: "868"
    op_type: "Relu"
  }
  node {
    input: "865"
    input: "543"
    output: "869"
    op_type: "Conv"
    attribute {
      name: "dilations"
      ints: 1
      ints: 1
      type: INTS
    }
    attribute {
      name: "group"
      i: 1
      type: INT
    }
    attribute {
      name: "kernel_shape"
      ints: 3
      ints: 1
      type: INTS
    }
    attribute {
      name: "pads"
      ints: 1
      ints: 0
      ints: 1
      ints: 0
      type: INTS
    }
    attribute {
      name: "strides"
      ints: 1
      ints: 1
      type: INTS
    }
  }
  node {
    input: "869"
    input: "544"
    input: "545"
    input: "546"
    input: "547"
    output: "870"
    op_type: "BatchNormalization"
    attribute {
      name: "consumed_inputs"
      ints: 0
      ints: 0
      ints: 0
      ints: 1
      ints: 1
      type: INTS
    }
    attribute {
      name: "epsilon"
      f: 0.00100000004749745
      type: FLOAT
    }
    attribute {
      name: "is_test"
      i: 1
      type: INT
    }
    attribute {
      name: "momentum"
      f: 1
      type: FLOAT
    }
  }
  node {
    input: "870"
    output: "871"
    op_type: "Relu"
  }
  node {
    input: "868"
    input: "871"
    output: "872"
    op_type: "Concat"
    attribute {
      name: "axis"
      i: 1
      type: INT
    }
  }
  node {
    input: "859"
    input: "549"
    output: "873"
    op_type: "Conv"
    attribute {
      name: "dilations"
      ints: 1
      ints: 1
      type: INTS
    }
    attribute {
      name: "group"
      i: 1
      type: INT
    }
    attribute {
      name: "kernel_shape"
      ints: 1
      ints: 1
      type: INTS
    }
    attribute {
      name: "pads"
      ints: 0
      ints: 0
      ints: 0
      ints: 0
      type: INTS
    }
    attribute {
      name: "strides"
      ints: 1
      ints: 1
      type: INTS
    }
  }
  node {
    input: "873"
    input: "550"
    input: "551"
    input: "552"
    input: "553"
    output: "874"
    op_type: "BatchNormalization"
    attribute {
      name: "consumed_inputs"
      ints: 0
      ints: 0
      ints: 0
      ints: 1
      ints: 1
      type: INTS
    }
    attribute {
      name: "epsilon"
      f: 0.00100000004749745
      type: FLOAT
    }
    attribute {
      name: "is_test"
      i: 1
      type: INT
    }
    attribute {
      name: "momentum"
      f: 1
      type: FLOAT
    }
  }
  node {
    input: "874"
    output: "875"
    op_type: "Relu"
  }
  node {
    input: "875"
    input: "555"
    output: "876"
    op_type: "Conv"
    attribute {
      name: "dilations"
      ints: 1
      ints: 1
      type: INTS
    }
    attribute {
      name: "group"
      i: 1
      type: INT
    }
    attribute {
      name: "kernel_shape"
      ints: 3
      ints: 3
      type: INTS
    }
    attribute {
      name: "pads"
      ints: 1
      ints: 1
      ints: 1
      ints: 1
      type: INTS
    }
    attribute {
      name: "strides"
      ints: 1
      ints: 1
      type: INTS
    }
  }
  node {
    input: "876"
    input: "556"
    input: "557"
    input: "558"
    input: "559"
    output: "877"
    op_type: "BatchNormalization"
    attribute {
      name: "consumed_inputs"
      ints: 0
      ints: 0
      ints: 0
      ints: 1
      ints: 1
      type: INTS
    }
    attribute {
      name: "epsilon"
      f: 0.00100000004749745
      type: FLOAT
    }
    attribute {
      name: "is_test"
      i: 1
      type: INT
    }
    attribute {
      name: "momentum"
      f: 1
      type: FLOAT
    }
  }
  node {
    input: "877"
    output: "878"
    op_type: "Relu"
  }
  node {
    input: "878"
    input: "561"
    output: "879"
    op_type: "Conv"
    attribute {
      name: "dilations"
      ints: 1
      ints: 1
      type: INTS
    }
    attribute {
      name: "group"
      i: 1
      type: INT
    }
    attribute {
      name: "kernel_shape"
      ints: 1
      ints: 3
      type: INTS
    }
    attribute {
      name: "pads"
      ints: 0
      ints: 1
      ints: 0
      ints: 1
      type: INTS
    }
    attribute {
      name: "strides"
      ints: 1
      ints: 1
      type: INTS
    }
  }
  node {
    input: "879"
    input: "562"
    input: "563"
    input: "564"
    input: "565"
    output: "880"
    op_type: "BatchNormalization"
    attribute {
      name: "consumed_inputs"
      ints: 0
      ints: 0
      ints: 0
      ints: 1
      ints: 1
      type: INTS
    }
    attribute {
      name: "epsilon"
      f: 0.00100000004749745
      type: FLOAT
    }
    attribute {
      name: "is_test"
      i: 1
      type: INT
    }
    attribute {
      name: "momentum"
      f: 1
      type: FLOAT
    }
  }
  node {
    input: "880"
    output: "881"
    op_type: "Relu"
  }
  node {
    input: "878"
    input: "567"
    output: "882"
    op_type: "Conv"
    attribute {
      name: "dilations"
      ints: 1
      ints: 1
      type: INTS
    }
    attribute {
      name: "group"
      i: 1
      type: INT
    }
    attribute {
      name: "kernel_shape"
      ints: 3
      ints: 1
      type: INTS
    }
    attribute {
      name: "pads"
      ints: 1
      ints: 0
      ints: 1
      ints: 0
      type: INTS
    }
    attribute {
      name: "strides"
      ints: 1
      ints: 1
      type: INTS
    }
  }
  node {
    input: "882"
    input: "568"
    input: "569"
    input: "570"
    input: "571"
    output: "883"
    op_type: "BatchNormalization"
    attribute {
      name: "consumed_inputs"
      ints: 0
      ints: 0
      ints: 0
      ints: 1
      ints: 1
      type: INTS
    }
    attribute {
      name: "epsilon"
      f: 0.00100000004749745
      type: FLOAT
    }
    attribute {
      name: "is_test"
      i: 1
      type: INT
    }
    attribute {
      name: "momentum"
      f: 1
      type: FLOAT
    }
  }
  node {
    input: "883"
    output: "884"
    op_type: "Relu"
  }
  node {
    input: "881"
    input: "884"
    output: "885"
    op_type: "Concat"
    attribute {
      name: "axis"
      i: 1
      type: INT
    }
  }
  node {
    input: "859"
    output: "886"
    op_type: "AveragePool"
    attribute {
      name: "kernel_shape"
      ints: 3
      ints: 3
      type: INTS
    }
    attribute {
      name: "pads"
      ints: 1
      ints: 1
      ints: 1
      ints: 1
      type: INTS
    }
    attribute {
      name: "strides"
      ints: 1
      ints: 1
      type: INTS
    }
  }
  node {
    input: "886"
    input: "573"
    output: "887"
    op_type: "Conv"
    attribute {
      name: "dilations"
      ints: 1
      ints: 1
      type: INTS
    }
    attribute {
      name: "group"
      i: 1
      type: INT
    }
    attribute {
      name: "kernel_shape"
      ints: 1
      ints: 1
      type: INTS
    }
    attribute {
      name: "pads"
      ints: 0
      ints: 0
      ints: 0
      ints: 0
      type: INTS
    }
    attribute {
      name: "strides"
      ints: 1
      ints: 1
      type: INTS
    }
  }
  node {
    input: "887"
    input: "574"
    input: "575"
    input: "576"
    input: "577"
    output: "888"
    op_type: "BatchNormalization"
    attribute {
      name: "consumed_inputs"
      ints: 0
      ints: 0
      ints: 0
      ints: 1
      ints: 1
      type: INTS
    }
    attribute {
      name: "epsilon"
      f: 0.00100000004749745
      type: FLOAT
    }
    attribute {
      name: "is_test"
      i: 1
      type: INT
    }
    attribute {
      name: "momentum"
      f: 1
      type: FLOAT
    }
  }
  node {
    input: "888"
    output: "889"
    op_type: "Relu"
  }
  node {
    input: "862"
    input: "872"
    input: "885"
    input: "889"
    output: "890"
    op_type: "Concat"
    attribute {
      name: "axis"
      i: 1
      type: INT
    }
  }
  node {
    input: "890"
    output: "891"
    op_type: "AveragePool"
    attribute {
      name: "kernel_shape"
      ints: 8
      ints: 8
      type: INTS
    }
    attribute {
      name: "pads"
      ints: 0
      ints: 0
      ints: 0
      ints: 0
      type: INTS
    }
    attribute {
      name: "strides"
      ints: 8
      ints: 8
      type: INTS
    }
  }
  node {
    input: "891"
    output: "892"
    output: "893"
    op_type: "Dropout"
    attribute {
      name: "is_test"
      i: 1
      type: INT
    }
    attribute {
      name: "ratio"
      f: 0.5
      type: FLOAT
    }
  }
  node {
    input: "892"
    output: "894"
    op_type: "Flatten"
    attribute {
      name: "axis"
      i: 1
      type: INT
    }
  }
  node {
    input: "894"
    input: "579"
    input: "580"
    output: "895"
    op_type: "Gemm"
    attribute {
      name: "alpha"
      f: 1
      type: FLOAT
    }
    attribute {
      name: "beta"
      f: 1
      type: FLOAT
    }
    attribute {
      name: "broadcast"
      i: 1
      type: INT
    }
    attribute {
      name: "transB"
      i: 1
      type: INT
    }
  }
  name: "torch-jit-export"
  input {
    name: "0"
    type {
      tensor_type {
        elem_type: FLOAT
        shape {
          dim {
            dim_value: 2
          }
          dim {
            dim_value: 3
          }
          dim {
            dim_value: 299
          }
          dim {
            dim_value: 299
          }
        }
      }
    }
  }
  input {
    name: "1"
    type {
      tensor_type {
        elem_type: FLOAT
        shape {
          dim {
            dim_value: 32
          }
          dim {
            dim_value: 3
          }
          dim {
            dim_value: 3
          }
          dim {
            dim_value: 3
          }
        }
      }
    }
  }
  input {
    name: "2"
    type {
      tensor_type {
        elem_type: FLOAT
        shape {
          dim {
            dim_value: 32
          }
        }
      }
    }
  }
  input {
    name: "3"
    type {
      tensor_type {
        elem_type: FLOAT
        shape {
          dim {
            dim_value: 32
          }
        }
      }
    }
  }
  input {
    name: "4"
    type {
      tensor_type {
        elem_type: FLOAT
        shape {
          dim {
            dim_value: 32
          }
        }
      }
    }
  }
  input {
    name: "5"
    type {
      tensor_type {
        elem_type: FLOAT
        shape {
          dim {
            dim_value: 32
          }
        }
      }
    }
  }
  input {
    name: "6"
    type {
      tensor_type {
        elem_type: INT64
        shape {
          dim {
            dim_value: 1
          }
        }
      }
    }
  }
  input {
    name: "7"
    type {
      tensor_type {
        elem_type: FLOAT
        shape {
          dim {
            dim_value: 32
          }
          dim {
            dim_value: 32
          }
          dim {
            dim_value: 3
          }
          dim {
            dim_value: 3
          }
        }
      }
    }
  }
  input {
    name: "8"
    type {
      tensor_type {
        elem_type: FLOAT
        shape {
          dim {
            dim_value: 32
          }
        }
      }
    }
  }
  input {
    name: "9"
    type {
      tensor_type {
        elem_type: FLOAT
        shape {
          dim {
            dim_value: 32
          }
        }
      }
    }
  }
  input {
    name: "10"
    type {
      tensor_type {
        elem_type: FLOAT
        shape {
          dim {
            dim_value: 32
          }
        }
      }
    }
  }
  input {
    name: "11"
    type {
      tensor_type {
        elem_type: FLOAT
        shape {
          dim {
            dim_value: 32
          }
        }
      }
    }
  }
  input {
    name: "12"
    type {
      tensor_type {
        elem_type: INT64
        shape {
          dim {
            dim_value: 1
          }
        }
      }
    }
  }
  input {
    name: "13"
    type {
      tensor_type {
        elem_type: FLOAT
        shape {
          dim {
            dim_value: 64
          }
          dim {
            dim_value: 32
          }
          dim {
            dim_value: 3
          }
          dim {
            dim_value: 3
          }
        }
      }
    }
  }
  input {
    name: "14"
    type {
      tensor_type {
        elem_type: FLOAT
        shape {
          dim {
            dim_value: 64
          }
        }
      }
    }
  }
  input {
    name: "15"
    type {
      tensor_type {
        elem_type: FLOAT
        shape {
          dim {
            dim_value: 64
          }
        }
      }
    }
  }
  input {
    name: "16"
    type {
      tensor_type {
        elem_type: FLOAT
        shape {
          dim {
            dim_value: 64
          }
        }
      }
    }
  }
  input {
    name: "17"
    type {
      tensor_type {
        elem_type: FLOAT
        shape {
          dim {
            dim_value: 64
          }
        }
      }
    }
  }
  input {
    name: "18"
    type {
      tensor_type {
        elem_type: INT64
        shape {
          dim {
            dim_value: 1
          }
        }
      }
    }
  }
  input {
    name: "19"
    type {
      tensor_type {
        elem_type: FLOAT
        shape {
          dim {
            dim_value: 80
          }
          dim {
            dim_value: 64
          }
          dim {
            dim_value: 1
          }
          dim {
            dim_value: 1
          }
        }
      }
    }
  }
  input {
    name: "20"
    type {
      tensor_type {
        elem_type: FLOAT
        shape {
          dim {
            dim_value: 80
          }
        }
      }
    }
  }
  input {
    name: "21"
    type {
      tensor_type {
        elem_type: FLOAT
        shape {
          dim {
            dim_value: 80
          }
        }
      }
    }
  }
  input {
    name: "22"
    type {
      tensor_type {
        elem_type: FLOAT
        shape {
          dim {
            dim_value: 80
          }
        }
      }
    }
  }
  input {
    name: "23"
    type {
      tensor_type {
        elem_type: FLOAT
        shape {
          dim {
            dim_value: 80
          }
        }
      }
    }
  }
  input {
    name: "24"
    type {
      tensor_type {
        elem_type: INT64
        shape {
          dim {
            dim_value: 1
          }
        }
      }
    }
  }
  input {
    name: "25"
    type {
      tensor_type {
        elem_type: FLOAT
        shape {
          dim {
            dim_value: 192
          }
          dim {
            dim_value: 80
          }
          dim {
            dim_value: 3
          }
          dim {
            dim_value: 3
          }
        }
      }
    }
  }
  input {
    name: "26"
    type {
      tensor_type {
        elem_type: FLOAT
        shape {
          dim {
            dim_value: 192
          }
        }
      }
    }
  }
  input {
    name: "27"
    type {
      tensor_type {
        elem_type: FLOAT
        shape {
          dim {
            dim_value: 192
          }
        }
      }
    }
  }
  input {
    name: "28"
    type {
      tensor_type {
        elem_type: FLOAT
        shape {
          dim {
            dim_value: 192
          }
        }
      }
    }
  }
  input {
    name: "29"
    type {
      tensor_type {
        elem_type: FLOAT
        shape {
          dim {
            dim_value: 192
          }
        }
      }
    }
  }
  input {
    name: "30"
    type {
      tensor_type {
        elem_type: INT64
        shape {
          dim {
            dim_value: 1
          }
        }
      }
    }
  }
  input {
    name: "31"
    type {
      tensor_type {
        elem_type: FLOAT
        shape {
          dim {
            dim_value: 64
          }
          dim {
            dim_value: 192
          }
          dim {
            dim_value: 1
          }
          dim {
            dim_value: 1
          }
        }
      }
    }
  }
  input {
    name: "32"
    type {
      tensor_type {
        elem_type: FLOAT
        shape {
          dim {
            dim_value: 64
          }
        }
      }
    }
  }
  input {
    name: "33"
    type {
      tensor_type {
        elem_type: FLOAT
        shape {
          dim {
            dim_value: 64
          }
        }
      }
    }
  }
  input {
    name: "34"
    type {
      tensor_type {
        elem_type: FLOAT
        shape {
          dim {
            dim_value: 64
          }
        }
      }
    }
  }
  input {
    name: "35"
    type {
      tensor_type {
        elem_type: FLOAT
        shape {
          dim {
            dim_value: 64
          }
        }
      }
    }
  }
  input {
    name: "36"
    type {
      tensor_type {
        elem_type: INT64
        shape {
          dim {
            dim_value: 1
          }
        }
      }
    }
  }
  input {
    name: "37"
    type {
      tensor_type {
        elem_type: FLOAT
        shape {
          dim {
            dim_value: 48
          }
          dim {
            dim_value: 192
          }
          dim {
            dim_value: 1
          }
          dim {
            dim_value: 1
          }
        }
      }
    }
  }
  input {
    name: "38"
    type {
      tensor_type {
        elem_type: FLOAT
        shape {
          dim {
            dim_value: 48
          }
        }
      }
    }
  }
  input {
    name: "39"
    type {
      tensor_type {
        elem_type: FLOAT
        shape {
          dim {
            dim_value: 48
          }
        }
      }
    }
  }
  input {
    name: "40"
    type {
      tensor_type {
        elem_type: FLOAT
        shape {
          dim {
            dim_value: 48
          }
        }
      }
    }
  }
  input {
    name: "41"
    type {
      tensor_type {
        elem_type: FLOAT
        shape {
          dim {
            dim_value: 48
          }
        }
      }
    }
  }
  input {
    name: "42"
    type {
      tensor_type {
        elem_type: INT64
        shape {
          dim {
            dim_value: 1
          }
        }
      }
    }
  }
  input {
    name: "43"
    type {
      tensor_type {
        elem_type: FLOAT
        shape {
          dim {
            dim_value: 64
          }
          dim {
            dim_value: 48
          }
          dim {
            dim_value: 5
          }
          dim {
            dim_value: 5
          }
        }
      }
    }
  }
  input {
    name: "44"
    type {
      tensor_type {
        elem_type: FLOAT
        shape {
          dim {
            dim_value: 64
          }
        }
      }
    }
  }
  input {
    name: "45"
    type {
      tensor_type {
        elem_type: FLOAT
        shape {
          dim {
            dim_value: 64
          }
        }
      }
    }
  }
  input {
    name: "46"
    type {
      tensor_type {
        elem_type: FLOAT
        shape {
          dim {
            dim_value: 64
          }
        }
      }
    }
  }
  input {
    name: "47"
    type {
      tensor_type {
        elem_type: FLOAT
        shape {
          dim {
            dim_value: 64
          }
        }
      }
    }
  }
  input {
    name: "48"
    type {
      tensor_type {
        elem_type: INT64
        shape {
          dim {
            dim_value: 1
          }
        }
      }
    }
  }
  input {
    name: "49"
    type {
      tensor_type {
        elem_type: FLOAT
        shape {
          dim {
            dim_value: 64
          }
          dim {
            dim_value: 192
          }
          dim {
            dim_value: 1
          }
          dim {
            dim_value: 1
          }
        }
      }
    }
  }
  input {
    name: "50"
    type {
      tensor_type {
        elem_type: FLOAT
        shape {
          dim {
            dim_value: 64
          }
        }
      }
    }
  }
  input {
    name: "51"
    type {
      tensor_type {
        elem_type: FLOAT
        shape {
          dim {
            dim_value: 64
          }
        }
      }
    }
  }
  input {
    name: "52"
    type {
      tensor_type {
        elem_type: FLOAT
        shape {
          dim {
            dim_value: 64
          }
        }
      }
    }
  }
  input {
    name: "53"
    type {
      tensor_type {
        elem_type: FLOAT
        shape {
          dim {
            dim_value: 64
          }
        }
      }
    }
  }
  input {
    name: "54"
    type {
      tensor_type {
        elem_type: INT64
        shape {
          dim {
            dim_value: 1
          }
        }
      }
    }
  }
  input {
    name: "55"
    type {
      tensor_type {
        elem_type: FLOAT
        shape {
          dim {
            dim_value: 96
          }
          dim {
            dim_value: 64
          }
          dim {
            dim_value: 3
          }
          dim {
            dim_value: 3
          }
        }
      }
    }
  }
  input {
    name: "56"
    type {
      tensor_type {
        elem_type: FLOAT
        shape {
          dim {
            dim_value: 96
          }
        }
      }
    }
  }
  input {
    name: "57"
    type {
      tensor_type {
        elem_type: FLOAT
        shape {
          dim {
            dim_value: 96
          }
        }
      }
    }
  }
  input {
    name: "58"
    type {
      tensor_type {
        elem_type: FLOAT
        shape {
          dim {
            dim_value: 96
          }
        }
      }
    }
  }
  input {
    name: "59"
    type {
      tensor_type {
        elem_type: FLOAT
        shape {
          dim {
            dim_value: 96
          }
        }
      }
    }
  }
  input {
    name: "60"
    type {
      tensor_type {
        elem_type: INT64
        shape {
          dim {
            dim_value: 1
          }
        }
      }
    }
  }
  input {
    name: "61"
    type {
      tensor_type {
        elem_type: FLOAT
        shape {
          dim {
            dim_value: 96
          }
          dim {
            dim_value: 96
          }
          dim {
            dim_value: 3
          }
          dim {
            dim_value: 3
          }
        }
      }
    }
  }
  input {
    name: "62"
    type {
      tensor_type {
        elem_type: FLOAT
        shape {
          dim {
            dim_value: 96
          }
        }
      }
    }
  }
  input {
    name: "63"
    type {
      tensor_type {
        elem_type: FLOAT
        shape {
          dim {
            dim_value: 96
          }
        }
      }
    }
  }
  input {
    name: "64"
    type {
      tensor_type {
        elem_type: FLOAT
        shape {
          dim {
            dim_value: 96
          }
        }
      }
    }
  }
  input {
    name: "65"
    type {
      tensor_type {
        elem_type: FLOAT
        shape {
          dim {
            dim_value: 96
          }
        }
      }
    }
  }
  input {
    name: "66"
    type {
      tensor_type {
        elem_type: INT64
        shape {
          dim {
            dim_value: 1
          }
        }
      }
    }
  }
  input {
    name: "67"
    type {
      tensor_type {
        elem_type: FLOAT
        shape {
          dim {
            dim_value: 32
          }
          dim {
            dim_value: 192
          }
          dim {
            dim_value: 1
          }
          dim {
            dim_value: 1
          }
        }
      }
    }
  }
  input {
    name: "68"
    type {
      tensor_type {
        elem_type: FLOAT
        shape {
          dim {
            dim_value: 32
          }
        }
      }
    }
  }
  input {
    name: "69"
    type {
      tensor_type {
        elem_type: FLOAT
        shape {
          dim {
            dim_value: 32
          }
        }
      }
    }
  }
  input {
    name: "70"
    type {
      tensor_type {
        elem_type: FLOAT
        shape {
          dim {
            dim_value: 32
          }
        }
      }
    }
  }
  input {
    name: "71"
    type {
      tensor_type {
        elem_type: FLOAT
        shape {
          dim {
            dim_value: 32
          }
        }
      }
    }
  }
  input {
    name: "72"
    type {
      tensor_type {
        elem_type: INT64
        shape {
          dim {
            dim_value: 1
          }
        }
      }
    }
  }
  input {
    name: "73"
    type {
      tensor_type {
        elem_type: FLOAT
        shape {
          dim {
            dim_value: 64
          }
          dim {
            dim_value: 256
          }
          dim {
            dim_value: 1
          }
          dim {
            dim_value: 1
          }
        }
      }
    }
  }
  input {
    name: "74"
    type {
      tensor_type {
        elem_type: FLOAT
        shape {
          dim {
            dim_value: 64
          }
        }
      }
    }
  }
  input {
    name: "75"
    type {
      tensor_type {
        elem_type: FLOAT
        shape {
          dim {
            dim_value: 64
          }
        }
      }
    }
  }
  input {
    name: "76"
    type {
      tensor_type {
        elem_type: FLOAT
        shape {
          dim {
            dim_value: 64
          }
        }
      }
    }
  }
  input {
    name: "77"
    type {
      tensor_type {
        elem_type: FLOAT
        shape {
          dim {
            dim_value: 64
          }
        }
      }
    }
  }
  input {
    name: "78"
    type {
      tensor_type {
        elem_type: INT64
        shape {
          dim {
            dim_value: 1
          }
        }
      }
    }
  }
  input {
    name: "79"
    type {
      tensor_type {
        elem_type: FLOAT
        shape {
          dim {
            dim_value: 48
          }
          dim {
            dim_value: 256
          }
          dim {
            dim_value: 1
          }
          dim {
            dim_value: 1
          }
        }
      }
    }
  }
  input {
    name: "80"
    type {
      tensor_type {
        elem_type: FLOAT
        shape {
          dim {
            dim_value: 48
          }
        }
      }
    }
  }
  input {
    name: "81"
    type {
      tensor_type {
        elem_type: FLOAT
        shape {
          dim {
            dim_value: 48
          }
        }
      }
    }
  }
  input {
    name: "82"
    type {
      tensor_type {
        elem_type: FLOAT
        shape {
          dim {
            dim_value: 48
          }
        }
      }
    }
  }
  input {
    name: "83"
    type {
      tensor_type {
        elem_type: FLOAT
        shape {
          dim {
            dim_value: 48
          }
        }
      }
    }
  }
  input {
    name: "84"
    type {
      tensor_type {
        elem_type: INT64
        shape {
          dim {
            dim_value: 1
          }
        }
      }
    }
  }
  input {
    name: "85"
    type {
      tensor_type {
        elem_type: FLOAT
        shape {
          dim {
            dim_value: 64
          }
          dim {
            dim_value: 48
          }
          dim {
            dim_value: 5
          }
          dim {
            dim_value: 5
          }
        }
      }
    }
  }
  input {
    name: "86"
    type {
      tensor_type {
        elem_type: FLOAT
        shape {
          dim {
            dim_value: 64
          }
        }
      }
    }
  }
  input {
    name: "87"
    type {
      tensor_type {
        elem_type: FLOAT
        shape {
          dim {
            dim_value: 64
          }
        }
      }
    }
  }
  input {
    name: "88"
    type {
      tensor_type {
        elem_type: FLOAT
        shape {
          dim {
            dim_value: 64
          }
        }
      }
    }
  }
  input {
    name: "89"
    type {
      tensor_type {
        elem_type: FLOAT
        shape {
          dim {
            dim_value: 64
          }
        }
      }
    }
  }
  input {
    name: "90"
    type {
      tensor_type {
        elem_type: INT64
        shape {
          dim {
            dim_value: 1
          }
        }
      }
    }
  }
  input {
    name: "91"
    type {
      tensor_type {
        elem_type: FLOAT
        shape {
          dim {
            dim_value: 64
          }
          dim {
            dim_value: 256
          }
          dim {
            dim_value: 1
          }
          dim {
            dim_value: 1
          }
        }
      }
    }
  }
  input {
    name: "92"
    type {
      tensor_type {
        elem_type: FLOAT
        shape {
          dim {
            dim_value: 64
          }
        }
      }
    }
  }
  input {
    name: "93"
    type {
      tensor_type {
        elem_type: FLOAT
        shape {
          dim {
            dim_value: 64
          }
        }
      }
    }
  }
  input {
    name: "94"
    type {
      tensor_type {
        elem_type: FLOAT
        shape {
          dim {
            dim_value: 64
          }
        }
      }
    }
  }
  input {
    name: "95"
    type {
      tensor_type {
        elem_type: FLOAT
        shape {
          dim {
            dim_value: 64
          }
        }
      }
    }
  }
  input {
    name: "96"
    type {
      tensor_type {
        elem_type: INT64
        shape {
          dim {
            dim_value: 1
          }
        }
      }
    }
  }
  input {
    name: "97"
    type {
      tensor_type {
        elem_type: FLOAT
        shape {
          dim {
            dim_value: 96
          }
          dim {
            dim_value: 64
          }
          dim {
            dim_value: 3
          }
          dim {
            dim_value: 3
          }
        }
      }
    }
  }
  input {
    name: "98"
    type {
      tensor_type {
        elem_type: FLOAT
        shape {
          dim {
            dim_value: 96
          }
        }
      }
    }
  }
  input {
    name: "99"
    type {
      tensor_type {
        elem_type: FLOAT
        shape {
          dim {
            dim_value: 96
          }
        }
      }
    }
  }
  input {
    name: "100"
    type {
      tensor_type {
        elem_type: FLOAT
        shape {
          dim {
            dim_value: 96
          }
        }
      }
    }
  }
  input {
    name: "101"
    type {
      tensor_type {
        elem_type: FLOAT
        shape {
          dim {
            dim_value: 96
          }
        }
      }
    }
  }
  input {
    name: "102"
    type {
      tensor_type {
        elem_type: INT64
        shape {
          dim {
            dim_value: 1
          }
        }
      }
    }
  }
  input {
    name: "103"
    type {
      tensor_type {
        elem_type: FLOAT
        shape {
          dim {
            dim_value: 96
          }
          dim {
            dim_value: 96
          }
          dim {
            dim_value: 3
          }
          dim {
            dim_value: 3
          }
        }
      }
    }
  }
  input {
    name: "104"
    type {
      tensor_type {
        elem_type: FLOAT
        shape {
          dim {
            dim_value: 96
          }
        }
      }
    }
  }
  input {
    name: "105"
    type {
      tensor_type {
        elem_type: FLOAT
        shape {
          dim {
            dim_value: 96
          }
        }
      }
    }
  }
  input {
    name: "106"
    type {
      tensor_type {
        elem_type: FLOAT
        shape {
          dim {
            dim_value: 96
          }
        }
      }
    }
  }
  input {
    name: "107"
    type {
      tensor_type {
        elem_type: FLOAT
        shape {
          dim {
            dim_value: 96
          }
        }
      }
    }
  }
  input {
    name: "108"
    type {
      tensor_type {
        elem_type: INT64
        shape {
          dim {
            dim_value: 1
          }
        }
      }
    }
  }
  input {
    name: "109"
    type {
      tensor_type {
        elem_type: FLOAT
        shape {
          dim {
            dim_value: 64
          }
          dim {
            dim_value: 256
          }
          dim {
            dim_value: 1
          }
          dim {
            dim_value: 1
          }
        }
      }
    }
  }
  input {
    name: "110"
    type {
      tensor_type {
        elem_type: FLOAT
        shape {
          dim {
            dim_value: 64
          }
        }
      }
    }
  }
  input {
    name: "111"
    type {
      tensor_type {
        elem_type: FLOAT
        shape {
          dim {
            dim_value: 64
          }
        }
      }
    }
  }
  input {
    name: "112"
    type {
      tensor_type {
        elem_type: FLOAT
        shape {
          dim {
            dim_value: 64
          }
        }
      }
    }
  }
  input {
    name: "113"
    type {
      tensor_type {
        elem_type: FLOAT
        shape {
          dim {
            dim_value: 64
          }
        }
      }
    }
  }
  input {
    name: "114"
    type {
      tensor_type {
        elem_type: INT64
        shape {
          dim {
            dim_value: 1
          }
        }
      }
    }
  }
  input {
    name: "115"
    type {
      tensor_type {
        elem_type: FLOAT
        shape {
          dim {
            dim_value: 64
          }
          dim {
            dim_value: 288
          }
          dim {
            dim_value: 1
          }
          dim {
            dim_value: 1
          }
        }
      }
    }
  }
  input {
    name: "116"
    type {
      tensor_type {
        elem_type: FLOAT
        shape {
          dim {
            dim_value: 64
          }
        }
      }
    }
  }
  input {
    name: "117"
    type {
      tensor_type {
        elem_type: FLOAT
        shape {
          dim {
            dim_value: 64
          }
        }
      }
    }
  }
  input {
    name: "118"
    type {
      tensor_type {
        elem_type: FLOAT
        shape {
          dim {
            dim_value: 64
          }
        }
      }
    }
  }
  input {
    name: "119"
    type {
      tensor_type {
        elem_type: FLOAT
        shape {
          dim {
            dim_value: 64
          }
        }
      }
    }
  }
  input {
    name: "120"
    type {
      tensor_type {
        elem_type: INT64
        shape {
          dim {
            dim_value: 1
          }
        }
      }
    }
  }
  input {
    name: "121"
    type {
      tensor_type {
        elem_type: FLOAT
        shape {
          dim {
            dim_value: 48
          }
          dim {
            dim_value: 288
          }
          dim {
            dim_value: 1
          }
          dim {
            dim_value: 1
          }
        }
      }
    }
  }
  input {
    name: "122"
    type {
      tensor_type {
        elem_type: FLOAT
        shape {
          dim {
            dim_value: 48
          }
        }
      }
    }
  }
  input {
    name: "123"
    type {
      tensor_type {
        elem_type: FLOAT
        shape {
          dim {
            dim_value: 48
          }
        }
      }
    }
  }
  input {
    name: "124"
    type {
      tensor_type {
        elem_type: FLOAT
        shape {
          dim {
            dim_value: 48
          }
        }
      }
    }
  }
  input {
    name: "125"
    type {
      tensor_type {
        elem_type: FLOAT
        shape {
          dim {
            dim_value: 48
          }
        }
      }
    }
  }
  input {
    name: "126"
    type {
      tensor_type {
        elem_type: INT64
        shape {
          dim {
            dim_value: 1
          }
        }
      }
    }
  }
  input {
    name: "127"
    type {
      tensor_type {
        elem_type: FLOAT
        shape {
          dim {
            dim_value: 64
          }
          dim {
            dim_value: 48
          }
          dim {
            dim_value: 5
          }
          dim {
            dim_value: 5
          }
        }
      }
    }
  }
  input {
    name: "128"
    type {
      tensor_type {
        elem_type: FLOAT
        shape {
          dim {
            dim_value: 64
          }
        }
      }
    }
  }
  input {
    name: "129"
    type {
      tensor_type {
        elem_type: FLOAT
        shape {
          dim {
            dim_value: 64
          }
        }
      }
    }
  }
  input {
    name: "130"
    type {
      tensor_type {
        elem_type: FLOAT
        shape {
          dim {
            dim_value: 64
          }
        }
      }
    }
  }
  input {
    name: "131"
    type {
      tensor_type {
        elem_type: FLOAT
        shape {
          dim {
            dim_value: 64
          }
        }
      }
    }
  }
  input {
    name: "132"
    type {
      tensor_type {
        elem_type: INT64
        shape {
          dim {
            dim_value: 1
          }
        }
      }
    }
  }
  input {
    name: "133"
    type {
      tensor_type {
        elem_type: FLOAT
        shape {
          dim {
            dim_value: 64
          }
          dim {
            dim_value: 288
          }
          dim {
            dim_value: 1
          }
          dim {
            dim_value: 1
          }
        }
      }
    }
  }
  input {
    name: "134"
    type {
      tensor_type {
        elem_type: FLOAT
        shape {
          dim {
            dim_value: 64
          }
        }
      }
    }
  }
  input {
    name: "135"
    type {
      tensor_type {
        elem_type: FLOAT
        shape {
          dim {
            dim_value: 64
          }
        }
      }
    }
  }
  input {
    name: "136"
    type {
      tensor_type {
        elem_type: FLOAT
        shape {
          dim {
            dim_value: 64
          }
        }
      }
    }
  }
  input {
    name: "137"
    type {
      tensor_type {
        elem_type: FLOAT
        shape {
          dim {
            dim_value: 64
          }
        }
      }
    }
  }
  input {
    name: "138"
    type {
      tensor_type {
        elem_type: INT64
        shape {
          dim {
            dim_value: 1
          }
        }
      }
    }
  }
  input {
    name: "139"
    type {
      tensor_type {
        elem_type: FLOAT
        shape {
          dim {
            dim_value: 96
          }
          dim {
            dim_value: 64
          }
          dim {
            dim_value: 3
          }
          dim {
            dim_value: 3
          }
        }
      }
    }
  }
  input {
    name: "140"
    type {
      tensor_type {
        elem_type: FLOAT
        shape {
          dim {
            dim_value: 96
          }
        }
      }
    }
  }
  input {
    name: "141"
    type {
      tensor_type {
        elem_type: FLOAT
        shape {
          dim {
            dim_value: 96
          }
        }
      }
    }
  }
  input {
    name: "142"
    type {
      tensor_type {
        elem_type: FLOAT
        shape {
          dim {
            dim_value: 96
          }
        }
      }
    }
  }
  input {
    name: "143"
    type {
      tensor_type {
        elem_type: FLOAT
        shape {
          dim {
            dim_value: 96
          }
        }
      }
    }
  }
  input {
    name: "144"
    type {
      tensor_type {
        elem_type: INT64
        shape {
          dim {
            dim_value: 1
          }
        }
      }
    }
  }
  input {
    name: "145"
    type {
      tensor_type {
        elem_type: FLOAT
        shape {
          dim {
            dim_value: 96
          }
          dim {
            dim_value: 96
          }
          dim {
            dim_value: 3
          }
          dim {
            dim_value: 3
          }
        }
      }
    }
  }
  input {
    name: "146"
    type {
      tensor_type {
        elem_type: FLOAT
        shape {
          dim {
            dim_value: 96
          }
        }
      }
    }
  }
  input {
    name: "147"
    type {
      tensor_type {
        elem_type: FLOAT
        shape {
          dim {
            dim_value: 96
          }
        }
      }
    }
  }
  input {
    name: "148"
    type {
      tensor_type {
        elem_type: FLOAT
        shape {
          dim {
            dim_value: 96
          }
        }
      }
    }
  }
  input {
    name: "149"
    type {
      tensor_type {
        elem_type: FLOAT
        shape {
          dim {
            dim_value: 96
          }
        }
      }
    }
  }
  input {
    name: "150"
    type {
      tensor_type {
        elem_type: INT64
        shape {
          dim {
            dim_value: 1
          }
        }
      }
    }
  }
  input {
    name: "151"
    type {
      tensor_type {
        elem_type: FLOAT
        shape {
          dim {
            dim_value: 64
          }
          dim {
            dim_value: 288
          }
          dim {
            dim_value: 1
          }
          dim {
            dim_value: 1
          }
        }
      }
    }
  }
  input {
    name: "152"
    type {
      tensor_type {
        elem_type: FLOAT
        shape {
          dim {
            dim_value: 64
          }
        }
      }
    }
  }
  input {
    name: "153"
    type {
      tensor_type {
        elem_type: FLOAT
        shape {
          dim {
            dim_value: 64
          }
        }
      }
    }
  }
  input {
    name: "154"
    type {
      tensor_type {
        elem_type: FLOAT
        shape {
          dim {
            dim_value: 64
          }
        }
      }
    }
  }
  input {
    name: "155"
    type {
      tensor_type {
        elem_type: FLOAT
        shape {
          dim {
            dim_value: 64
          }
        }
      }
    }
  }
  input {
    name: "156"
    type {
      tensor_type {
        elem_type: INT64
        shape {
          dim {
            dim_value: 1
          }
        }
      }
    }
  }
  input {
    name: "157"
    type {
      tensor_type {
        elem_type: FLOAT
        shape {
          dim {
            dim_value: 384
          }
          dim {
            dim_value: 288
          }
          dim {
            dim_value: 3
          }
          dim {
            dim_value: 3
          }
        }
      }
    }
  }
  input {
    name: "158"
    type {
      tensor_type {
        elem_type: FLOAT
        shape {
          dim {
            dim_value: 384
          }
        }
      }
    }
  }
  input {
    name: "159"
    type {
      tensor_type {
        elem_type: FLOAT
        shape {
          dim {
            dim_value: 384
          }
        }
      }
    }
  }
  input {
    name: "160"
    type {
      tensor_type {
        elem_type: FLOAT
        shape {
          dim {
            dim_value: 384
          }
        }
      }
    }
  }
  input {
    name: "161"
    type {
      tensor_type {
        elem_type: FLOAT
        shape {
          dim {
            dim_value: 384
          }
        }
      }
    }
  }
  input {
    name: "162"
    type {
      tensor_type {
        elem_type: INT64
        shape {
          dim {
            dim_value: 1
          }
        }
      }
    }
  }
  input {
    name: "163"
    type {
      tensor_type {
        elem_type: FLOAT
        shape {
          dim {
            dim_value: 64
          }
          dim {
            dim_value: 288
          }
          dim {
            dim_value: 1
          }
          dim {
            dim_value: 1
          }
        }
      }
    }
  }
  input {
    name: "164"
    type {
      tensor_type {
        elem_type: FLOAT
        shape {
          dim {
            dim_value: 64
          }
        }
      }
    }
  }
  input {
    name: "165"
    type {
      tensor_type {
        elem_type: FLOAT
        shape {
          dim {
            dim_value: 64
          }
        }
      }
    }
  }
  input {
    name: "166"
    type {
      tensor_type {
        elem_type: FLOAT
        shape {
          dim {
            dim_value: 64
          }
        }
      }
    }
  }
  input {
    name: "167"
    type {
      tensor_type {
        elem_type: FLOAT
        shape {
…
    type {
      tensor_type {
        elem_type: FLOAT
        shape {
          dim {
            dim_value: 160
          }
        }
      }
    }
  }
  input {
    name: "342"
    type {
      tensor_type {
        elem_type: INT64
        shape {
          dim {
            dim_value: 1
          }
        }
      }
    }
  }
  input {
    name: "343"
    type {
      tensor_type {
        elem_type: FLOAT
        shape {
          dim {
            dim_value: 160
          }
          dim {
            dim_value: 160
          }
          dim {
            dim_value: 7
          }
          dim {
            dim_value: 1
          }
        }
      }
    }
  }
  input {
    name: "344"
    type {
      tensor_type {
        elem_type: FLOAT
        shape {
          dim {
            dim_value: 160
          }
        }
      }
    }
  }
  input {
    name: "345"
    type {
      tensor_type {
        elem_type: FLOAT
        shape {
          dim {
            dim_value: 160
          }
        }
      }
    }
  }
  input {
    name: "346"
    type {
      tensor_type {
        elem_type: FLOAT
        shape {
          dim {
            dim_value: 160
          }
        }
      }
    }
  }
  input {
    name: "347"
    type {
      tensor_type {
        elem_type: FLOAT
        shape {
          dim {
            dim_value: 160
          }
        }
      }
    }
  }
  input {
    name: "348"
    type {
      tensor_type {
        elem_type: INT64
        shape {
          dim {
            dim_value: 1
          }
        }
      }
    }
  }
  input {
    name: "349"
    type {
      tensor_type {
        elem_type: FLOAT
        shape {
          dim {
            dim_value: 192
          }
          dim {
            dim_value: 160
          }
          dim {
            dim_value: 1
          }
          dim {
            dim_value: 7
          }
        }
      }
    }
  }
  input {
    name: "350"
    type {
      tensor_type {
        elem_type: FLOAT
        shape {
          dim {
            dim_value: 192
          }
        }
      }
    }
  }
  input {
    name: "351"
    type {
      tensor_type {
        elem_type: FLOAT
        shape {
          dim {
            dim_value: 192
          }
        }
      }
    }
  }
  input {
    name: "352"
    type {
      tensor_type {
        elem_type: FLOAT
        shape {
          dim {
            dim_value: 192
          }
        }
      }
    }
  }
  input {
    name: "353"
    type {
      tensor_type {
        elem_type: FLOAT
        shape {
          dim {
            dim_value: 192
          }
        }
      }
    }
  }
  input {
    name: "354"
    type {
      tensor_type {
        elem_type: INT64
        shape {
          dim {
            dim_value: 1
          }
        }
      }
    }
  }
  input {
    name: "355"
    type {
      tensor_type {
        elem_type: FLOAT
        shape {
          dim {
            dim_value: 192
          }
          dim {
            dim_value: 768
          }
          dim {
            dim_value: 1
          }
          dim {
            dim_value: 1
          }
        }
      }
    }
  }
  input {
    name: "356"
    type {
      tensor_type {
        elem_type: FLOAT
        shape {
          dim {
            dim_value: 192
          }
        }
      }
    }
  }
  input {
    name: "357"
    type {
      tensor_type {
        elem_type: FLOAT
        shape {
          dim {
            dim_value: 192
          }
        }
      }
    }
  }
  input {
    name: "358"
    type {
      tensor_type {
        elem_type: FLOAT
        shape {
          dim {
            dim_value: 192
          }
        }
      }
    }
  }
  input {
    name: "359"
    type {
      tensor_type {
        elem_type: FLOAT
        shape {
          dim {
            dim_value: 192
          }
        }
      }
    }
  }
  input {
    name: "360"
    type {
      tensor_type {
        elem_type: INT64
        shape {
          dim {
            dim_value: 1
          }
        }
      }
    }
  }
  input {
    name: "361"
    type {
      tensor_type {
        elem_type: FLOAT
        shape {
          dim {
            dim_value: 192
          }
          dim {
            dim_value: 768
          }
          dim {
            dim_value: 1
          }
          dim {
            dim_value: 1
          }
        }
      }
    }
  }
  input {
    name: "362"
    type {
      tensor_type {
        elem_type: FLOAT
        shape {
          dim {
            dim_value: 192
          }
        }
      }
    }
  }
  input {
    name: "363"
    type {
      tensor_type {
        elem_type: FLOAT
        shape {
          dim {
            dim_value: 192
          }
        }
      }
    }
  }
  input {
    name: "364"
    type {
      tensor_type {
        elem_type: FLOAT
        shape {
          dim {
            dim_value: 192
          }
        }
      }
    }
  }
  input {
    name: "365"
    type {
      tensor_type {
        elem_type: FLOAT
        shape {
          dim {
            dim_value: 192
          }
        }
      }
    }
  }
  input {
    name: "366"
    type {
      tensor_type {
        elem_type: INT64
        shape {
          dim {
            dim_value: 1
          }
        }
      }
    }
  }
  input {
    name: "367"
    type {
      tensor_type {
        elem_type: FLOAT
        shape {
          dim {
            dim_value: 192
          }
          dim {
            dim_value: 768
          }
          dim {
            dim_value: 1
          }
          dim {
            dim_value: 1
          }
        }
      }
    }
  }
  input {
    name: "368"
    type {
      tensor_type {
        elem_type: FLOAT
        shape {
          dim {
            dim_value: 192
          }
        }
      }
    }
  }
  input {
    name: "369"
    type {
      tensor_type {
        elem_type: FLOAT
        shape {
          dim {
            dim_value: 192
          }
        }
      }
    }
  }
  input {
    name: "370"
    type {
      tensor_type {
        elem_type: FLOAT
        shape {
          dim {
            dim_value: 192
          }
        }
      }
    }
  }
  input {
    name: "371"
    type {
      tensor_type {
        elem_type: FLOAT
        shape {
          dim {
            dim_value: 192
          }
        }
      }
    }
  }
  input {
    name: "372"
    type {
      tensor_type {
        elem_type: INT64
        shape {
          dim {
            dim_value: 1
          }
        }
      }
    }
  }
  input {
    name: "373"
    type {
      tensor_type {
        elem_type: FLOAT
        shape {
          dim {
            dim_value: 192
          }
          dim {
            dim_value: 192
          }
          dim {
            dim_value: 1
          }
          dim {
            dim_value: 7
          }
        }
      }
    }
  }
  input {
    name: "374"
    type {
      tensor_type {
        elem_type: FLOAT
        shape {
          dim {
            dim_value: 192
          }
        }
      }
    }
  }
  input {
    name: "375"
    type {
      tensor_type {
        elem_type: FLOAT
        shape {
          dim {
            dim_value: 192
          }
        }
      }
    }
  }
  input {
    name: "376"
    type {
      tensor_type {
        elem_type: FLOAT
        shape {
          dim {
            dim_value: 192
          }
        }
      }
    }
  }
  input {
    name: "377"
    type {
      tensor_type {
        elem_type: FLOAT
        shape {
          dim {
            dim_value: 192
          }
        }
      }
    }
  }
  input {
    name: "378"
    type {
      tensor_type {
        elem_type: INT64
        shape {
          dim {
            dim_value: 1
          }
        }
      }
    }
  }
  input {
    name: "379"
    type {
      tensor_type {
        elem_type: FLOAT
        shape {
          dim {
            dim_value: 192
          }
          dim {
            dim_value: 192
          }
          dim {
            dim_value: 7
          }
          dim {
            dim_value: 1
          }
        }
      }
    }
  }
  input {
    name: "380"
    type {
      tensor_type {
        elem_type: FLOAT
        shape {
          dim {
            dim_value: 192
          }
        }
      }
    }
  }
  input {
    name: "381"
    type {
      tensor_type {
        elem_type: FLOAT
        shape {
          dim {
            dim_value: 192
          }
        }
      }
    }
  }
  input {
    name: "382"
    type {
      tensor_type {
        elem_type: FLOAT
        shape {
          dim {
            dim_value: 192
          }
        }
      }
    }
  }
  input {
    name: "383"
    type {
      tensor_type {
        elem_type: FLOAT
        shape {
          dim {
            dim_value: 192
          }
        }
      }
    }
  }
  input {
    name: "384"
    type {
      tensor_type {
        elem_type: INT64
        shape {
          dim {
            dim_value: 1
          }
        }
      }
    }
  }
  input {
    name: "385"
    type {
      tensor_type {
        elem_type: FLOAT
        shape {
          dim {
            dim_value: 192
          }
          dim {
            dim_value: 768
          }
          dim {
            dim_value: 1
          }
          dim {
            dim_value: 1
          }
        }
      }
    }
  }
  input {
    name: "386"
    type {
      tensor_type {
        elem_type: FLOAT
        shape {
          dim {
            dim_value: 192
          }
        }
      }
    }
  }
  input {
    name: "387"
    type {
      tensor_type {
        elem_type: FLOAT
        shape {
          dim {
            dim_value: 192
          }
        }
      }
    }
  }
  input {
    name: "388"
    type {
      tensor_type {
        elem_type: FLOAT
        shape {
          dim {
            dim_value: 192
          }
        }
      }
    }
  }
  input {
    name: "389"
    type {
      tensor_type {
        elem_type: FLOAT
        shape {
          dim {
            dim_value: 192
          }
        }
      }
    }
  }
  input {
    name: "390"
    type {
      tensor_type {
        elem_type: INT64
        shape {
          dim {
            dim_value: 1
          }
        }
      }
    }
  }
  input {
    name: "391"
    type {
      tensor_type {
        elem_type: FLOAT
        shape {
          dim {
            dim_value: 192
          }
          dim {
            dim_value: 192
          }
          dim {
            dim_value: 7
          }
          dim {
            dim_value: 1
          }
        }
      }
    }
  }
  input {
    name: "392"
    type {
      tensor_type {
        elem_type: FLOAT
        shape {
          dim {
            dim_value: 192
          }
        }
      }
    }
  }
  input {
    name: "393"
    type {
      tensor_type {
        elem_type: FLOAT
        shape {
          dim {
            dim_value: 192
          }
        }
      }
    }
  }
  input {
    name: "394"
    type {
      tensor_type {
        elem_type: FLOAT
        shape {
          dim {
            dim_value: 192
          }
        }
      }
    }
  }
  input {
    name: "395"
    type {
      tensor_type {
        elem_type: FLOAT
        shape {
          dim {
            dim_value: 192
          }
        }
      }
    }
  }
  input {
    name: "396"
    type {
      tensor_type {
        elem_type: INT64
        shape {
          dim {
            dim_value: 1
          }
        }
      }
    }
  }
  input {
    name: "397"
    type {
      tensor_type {
        elem_type: FLOAT
        shape {
          dim {
            dim_value: 192
          }
          dim {
            dim_value: 192
          }
          dim {
            dim_value: 1
          }
          dim {
            dim_value: 7
          }
        }
      }
    }
  }
  input {
    name: "398"
    type {
      tensor_type {
        elem_type: FLOAT
        shape {
          dim {
            dim_value: 192
          }
        }
      }
    }
  }
  input {
    name: "399"
    type {
      tensor_type {
        elem_type: FLOAT
        shape {
          dim {
            dim_value: 192
          }
        }
      }
    }
  }
  input {
    name: "400"
    type {
      tensor_type {
        elem_type: FLOAT
        shape {
          dim {
            dim_value: 192
          }
        }
      }
    }
  }
  input {
    name: "401"
    type {
      tensor_type {
        elem_type: FLOAT
        shape {
          dim {
            dim_value: 192
          }
        }
      }
    }
  }
  input {
    name: "402"
    type {
      tensor_type {
        elem_type: INT64
        shape {
          dim {
            dim_value: 1
          }
        }
      }
    }
  }
  input {
    name: "403"
    type {
      tensor_type {
        elem_type: FLOAT
        shape {
          dim {
            dim_value: 192
          }
          dim {
            dim_value: 192
          }
          dim {
            dim_value: 7
          }
          dim {
            dim_value: 1
          }
        }
      }
    }
  }
  input {
    name: "404"
    type {
      tensor_type {
        elem_type: FLOAT
        shape {
          dim {
            dim_value: 192
          }
        }
      }
    }
  }
  input {
    name: "405"
    type {
      tensor_type {
        elem_type: FLOAT
        shape {
          dim {
            dim_value: 192
          }
        }
      }
    }
  }
  input {
    name: "406"
    type {
      tensor_type {
        elem_type: FLOAT
        shape {
          dim {
            dim_value: 192
          }
        }
      }
    }
  }
  input {
    name: "407"
    type {
      tensor_type {
        elem_type: FLOAT
        shape {
          dim {
            dim_value: 192
          }
        }
      }
    }
  }
  input {
    name: "408"
    type {
      tensor_type {
        elem_type: INT64
        shape {
          dim {
            dim_value: 1
          }
        }
      }
    }
  }
  input {
    name: "409"
    type {
      tensor_type {
        elem_type: FLOAT
        shape {
          dim {
            dim_value: 192
          }
          dim {
            dim_value: 192
          }
          dim {
            dim_value: 1
          }
          dim {
            dim_value: 7
          }
        }
      }
    }
  }
  input {
    name: "410"
    type {
      tensor_type {
        elem_type: FLOAT
        shape {
          dim {
            dim_value: 192
          }
        }
      }
    }
  }
  input {
    name: "411"
    type {
      tensor_type {
        elem_type: FLOAT
        shape {
          dim {
            dim_value: 192
          }
        }
      }
    }
  }
  input {
    name: "412"
    type {
      tensor_type {
        elem_type: FLOAT
        shape {
          dim {
            dim_value: 192
          }
        }
      }
    }
  }
  input {
    name: "413"
    type {
      tensor_type {
        elem_type: FLOAT
        shape {
          dim {
            dim_value: 192
          }
        }
      }
    }
  }
  input {
    name: "414"
    type {
      tensor_type {
        elem_type: INT64
        shape {
          dim {
            dim_value: 1
          }
        }
      }
    }
  }
  input {
    name: "415"
    type {
      tensor_type {
        elem_type: FLOAT
        shape {
          dim {
            dim_value: 192
          }
          dim {
            dim_value: 768
          }
          dim {
            dim_value: 1
          }
          dim {
            dim_value: 1
          }
        }
      }
    }
  }
  input {
    name: "416"
    type {
      tensor_type {
        elem_type: FLOAT
        shape {
          dim {
            dim_value: 192
          }
        }
      }
    }
  }
  input {
    name: "417"
    type {
      tensor_type {
        elem_type: FLOAT
        shape {
          dim {
            dim_value: 192
          }
        }
      }
    }
  }
  input {
    name: "418"
    type {
      tensor_type {
        elem_type: FLOAT
        shape {
          dim {
            dim_value: 192
          }
        }
      }
    }
  }
  input {
    name: "419"
    type {
      tensor_type {
        elem_type: FLOAT
        shape {
          dim {
            dim_value: 192
          }
        }
      }
    }
  }
  input {
    name: "420"
    type {
      tensor_type {
        elem_type: INT64
        shape {
          dim {
            dim_value: 1
          }
        }
      }
    }
  }
  input {
    name: "421"
    type {
      tensor_type {
        elem_type: FLOAT
        shape {
          dim {
            dim_value: 128
          }
          dim {
            dim_value: 768
          }
          dim {
            dim_value: 1
          }
          dim {
            dim_value: 1
          }
        }
      }
    }
  }
  input {
    name: "422"
    type {
      tensor_type {
        elem_type: FLOAT
        shape {
          dim {
            dim_value: 128
          }
        }
      }
    }
  }
  input {
    name: "423"
    type {
      tensor_type {
        elem_type: FLOAT
        shape {
          dim {
            dim_value: 128
          }
        }
      }
    }
  }
  input {
    name: "424"
    type {
      tensor_type {
        elem_type: FLOAT
        shape {
          dim {
            dim_value: 128
          }
        }
      }
    }
  }
  input {
    name: "425"
    type {
      tensor_type {
        elem_type: FLOAT
        shape {
          dim {
            dim_value: 128
          }
        }
      }
    }
  }
  input {
    name: "426"
    type {
      tensor_type {
        elem_type: INT64
        shape {
          dim {
            dim_value: 1
          }
        }
      }
    }
  }
  input {
    name: "427"
    type {
      tensor_type {
        elem_type: FLOAT
        shape {
          dim {
            dim_value: 768
          }
          dim {
            dim_value: 128
          }
          dim {
            dim_value: 5
          }
          dim {
            dim_value: 5
          }
        }
      }
    }
  }
  input {
    name: "428"
    type {
      tensor_type {
        elem_type: FLOAT
        shape {
          dim {
            dim_value: 768
          }
        }
      }
    }
  }
  input {
    name: "429"
    type {
      tensor_type {
        elem_type: FLOAT
        shape {
          dim {
            dim_value: 768
          }
        }
      }
    }
  }
  input {
    name: "430"
    type {
      tensor_type {
        elem_type: FLOAT
        shape {
          dim {
            dim_value: 768
          }
        }
      }
    }
  }
  input {
    name: "431"
    type {
      tensor_type {
        elem_type: FLOAT
        shape {
          dim {
            dim_value: 768
          }
        }
      }
    }
  }
  input {
    name: "432"
    type {
      tensor_type {
        elem_type: INT64
        shape {
          dim {
            dim_value: 1
          }
        }
      }
    }
  }
  input {
    name: "433"
    type {
      tensor_type {
        elem_type: FLOAT
        shape {
          dim {
            dim_value: 1000
          }
          dim {
            dim_value: 768
          }
        }
      }
    }
  }
  input {
    name: "434"
    type {
      tensor_type {
        elem_type: FLOAT
        shape {
          dim {
            dim_value: 1000
          }
        }
      }
    }
  }
  input {
    name: "435"
    type {
      tensor_type {
        elem_type: FLOAT
        shape {
          dim {
            dim_value: 192
          }
          dim {
            dim_value: 768
          }
          dim {
            dim_value: 1
          }
          dim {
            dim_value: 1
          }
        }
      }
    }
  }
  input {
    name: "436"
    type {
      tensor_type {
        elem_type: FLOAT
        shape {
          dim {
            dim_value: 192
          }
        }
      }
    }
  }
  input {
    name: "437"
    type {
      tensor_type {
        elem_type: FLOAT
        shape {
          dim {
            dim_value: 192
          }
        }
      }
    }
  }
  input {
    name: "438"
    type {
      tensor_type {
        elem_type: FLOAT
        shape {
          dim {
            dim_value: 192
          }
        }
      }
    }
  }
  input {
    name: "439"
    type {
      tensor_type {
        elem_type: FLOAT
        shape {
          dim {
            dim_value: 192
          }
        }
      }
    }
  }
  input {
    name: "440"
    type {
      tensor_type {
        elem_type: INT64
        shape {
          dim {
            dim_value: 1
          }
        }
      }
    }
  }
  input {
    name: "441"
    type {
      tensor_type {
        elem_type: FLOAT
        shape {
          dim {
            dim_value: 320
          }
          dim {
            dim_value: 192
          }
          dim {
            dim_value: 3
          }
          dim {
            dim_value: 3
          }
        }
      }
    }
  }
  input {
    name: "442"
    type {
      tensor_type {
        elem_type: FLOAT
        shape {
          dim {
            dim_value: 320
          }
        }
      }
    }
  }
  input {
    name: "443"
    type {
      tensor_type {
        elem_type: FLOAT
        shape {
          dim {
            dim_value: 320
          }
        }
      }
    }
  }
  input {
    name: "444"
    type {
      tensor_type {
        elem_type: FLOAT
        shape {
          dim {
            dim_value: 320
          }
        }
      }
    }
  }
  input {
    name: "445"
    type {
      tensor_type {
        elem_type: FLOAT
        shape {
          dim {
            dim_value: 320
          }
        }
      }
    }
  }
  input {
    name: "446"
    type {
      tensor_type {
        elem_type: INT64
        shape {
          dim {
            dim_value: 1
          }
        }
      }
    }
  }
  input {
    name: "447"
    type {
      tensor_type {
        elem_type: FLOAT
        shape {
          dim {
            dim_value: 192
          }
          dim {
            dim_value: 768
          }
          dim {
            dim_value: 1
          }
          dim {
            dim_value: 1
          }
        }
      }
    }
  }
  input {
    name: "448"
    type {
      tensor_type {
        elem_type: FLOAT
        shape {
          dim {
            dim_value: 192
          }
        }
      }
    }
  }
  input {
    name: "449"
    type {
      tensor_type {
        elem_type: FLOAT
        shape {
          dim {
            dim_value: 192
          }
        }
      }
    }
  }
  input {
    name: "450"
    type {
      tensor_type {
        elem_type: FLOAT
        shape {
          dim {
            dim_value: 192
          }
        }
      }
    }
  }
  input {
    name: "451"
    type {
      tensor_type {
        elem_type: FLOAT
        shape {
          dim {
            dim_value: 192
          }
        }
      }
    }
  }
  input {
    name: "452"
    type {
      tensor_type {
        elem_type: INT64
        shape {
          dim {
            dim_value: 1
          }
        }
      }
    }
  }
  input {
    name: "453"
    type {
      tensor_type {
        elem_type: FLOAT
        shape {
          dim {
            dim_value: 192
          }
          dim {
            dim_value: 192
          }
          dim {
            dim_value: 1
          }
          dim {
            dim_value: 7
          }
        }
      }
    }
  }
  input {
    name: "454"
    type {
      tensor_type {
        elem_type: FLOAT
        shape {
          dim {
            dim_value: 192
          }
        }
      }
    }
  }
  input {
    name: "455"
    type {
      tensor_type {
        elem_type: FLOAT
        shape {
          dim {
            dim_value: 192
          }
        }
      }
    }
  }
  input {
    name: "456"
    type {
      tensor_type {
        elem_type: FLOAT
        shape {
          dim {
            dim_value: 192
          }
        }
      }
    }
  }
  input {
    name: "457"
    type {
      tensor_type {
        elem_type: FLOAT
        shape {
          dim {
            dim_value: 192
          }
        }
      }
    }
  }
  input {
    name: "458"
    type {
      tensor_type {
        elem_type: INT64
        shape {
          dim {
            dim_value: 1
          }
        }
      }
    }
  }
  input {
    name: "459"
    type {
      tensor_type {
        elem_type: FLOAT
        shape {
          dim {
            dim_value: 192
          }
          dim {
            dim_value: 192
          }
          dim {
            dim_value: 7
          }
          dim {
            dim_value: 1
          }
        }
      }
    }
  }
  input {
    name: "460"
    type {
      tensor_type {
        elem_type: FLOAT
        shape {
          dim {
            dim_value: 192
          }
        }
      }
    }
  }
  input {
    name: "461"
    type {
      tensor_type {
        elem_type: FLOAT
        shape {
          dim {
            dim_value: 192
          }
        }
      }
    }
  }
  input {
    name: "462"
    type {
      tensor_type {
        elem_type: FLOAT
        shape {
          dim {
            dim_value: 192
          }
        }
      }
    }
  }
  input {
    name: "463"
    type {
      tensor_type {
        elem_type: FLOAT
        shape {
          dim {
            dim_value: 192
          }
        }
      }
    }
  }
  input {
    name: "464"
    type {
      tensor_type {
        elem_type: INT64
        shape {
          dim {
            dim_value: 1
          }
        }
      }
    }
  }
  input {
    name: "465"
    type {
      tensor_type {
        elem_type: FLOAT
        shape {
          dim {
            dim_value: 192
          }
          dim {
            dim_value: 192
          }
          dim {
            dim_value: 3
          }
          dim {
            dim_value: 3
          }
        }
      }
    }
  }
  input {
    name: "466"
    type {
      tensor_type {
        elem_type: FLOAT
        shape {
          dim {
            dim_value: 192
          }
        }
      }
    }
  }
  input {
    name: "467"
    type {
      tensor_type {
        elem_type: FLOAT
        shape {
          dim {
            dim_value: 192
          }
        }
      }
    }
  }
  input {
    name: "468"
    type {
      tensor_type {
        elem_type: FLOAT
        shape {
          dim {
            dim_value: 192
          }
        }
      }
    }
  }
  input {
    name: "469"
    type {
      tensor_type {
        elem_type: FLOAT
        shape {
          dim {
            dim_value: 192
          }
        }
      }
    }
  }
  input {
    name: "470"
    type {
      tensor_type {
        elem_type: INT64
        shape {
          dim {
            dim_value: 1
          }
        }
      }
    }
  }
  input {
    name: "471"
    type {
      tensor_type {
        elem_type: FLOAT
        shape {
          dim {
            dim_value: 320
          }
          dim {
            dim_value: 1280
          }
          dim {
            dim_value: 1
          }
          dim {
            dim_value: 1
          }
        }
      }
    }
  }
  input {
    name: "472"
    type {
      tensor_type {
        elem_type: FLOAT
        shape {
          dim {
            dim_value: 320
          }
        }
      }
    }
  }
  input {
    name: "473"
    type {
      tensor_type {
        elem_type: FLOAT
        shape {
          dim {
            dim_value: 320
          }
        }
      }
    }
  }
  input {
    name: "474"
    type {
      tensor_type {
        elem_type: FLOAT
        shape {
          dim {
            dim_value: 320
          }
        }
      }
    }
  }
  input {
    name: "475"
    type {
      tensor_type {
        elem_type: FLOAT
        shape {
          dim {
            dim_value: 320
          }
        }
      }
    }
  }
  input {
    name: "476"
    type {
      tensor_type {
        elem_type: INT64
        shape {
          dim {
            dim_value: 1
          }
        }
      }
    }
  }
  input {
    name: "477"
    type {
      tensor_type {
        elem_type: FLOAT
        shape {
          dim {
            dim_value: 384
          }
          dim {
            dim_value: 1280
          }
          dim {
            dim_value: 1
          }
          dim {
            dim_value: 1
          }
        }
      }
    }
  }
  input {
    name: "478"
    type {
      tensor_type {
        elem_type: FLOAT
        shape {
          dim {
            dim_value: 384
          }
        }
      }
    }
  }
  input {
    name: "479"
    type {
      tensor_type {
        elem_type: FLOAT
        shape {
          dim {
            dim_value: 384
          }
        }
      }
    }
  }
  input {
    name: "480"
    type {
      tensor_type {
        elem_type: FLOAT
        shape {
          dim {
            dim_value: 384
          }
        }
      }
    }
  }
  input {
    name: "481"
    type {
      tensor_type {
        elem_type: FLOAT
        shape {
          dim {
            dim_value: 384
          }
        }
      }
    }
  }
  input {
    name: "482"
    type {
      tensor_type {
        elem_type: INT64
        shape {
          dim {
            dim_value: 1
          }
        }
      }
    }
  }
  input {
    name: "483"
    type {
      tensor_type {
        elem_type: FLOAT
        shape {
          dim {
            dim_value: 384
          }
          dim {
            dim_value: 384
          }
          dim {
            dim_value: 1
          }
          dim {
            dim_value: 3
          }
        }
      }
    }
  }
  input {
    name: "484"
    type {
      tensor_type {
        elem_type: FLOAT
        shape {
          dim {
            dim_value: 384
          }
        }
      }
    }
  }
  input {
    name: "485"
    type {
      tensor_type {
        elem_type: FLOAT
        shape {
          dim {
            dim_value: 384
          }
        }
      }
    }
  }
  input {
    name: "486"
    type {
      tensor_type {
        elem_type: FLOAT
        shape {
          dim {
            dim_value: 384
          }
        }
      }
    }
  }
  input {
    name: "487"
    type {
      tensor_type {
        elem_type: FLOAT
        shape {
          dim {
            dim_value: 384
          }
        }
      }
    }
  }
  input {
    name: "488"
    type {
      tensor_type {
        elem_type: INT64
        shape {
          dim {
            dim_value: 1
          }
        }
      }
    }
  }
  input {
    name: "489"
    type {
      tensor_type {
        elem_type: FLOAT
        shape {
          dim {
            dim_value: 384
          }
          dim {
            dim_value: 384
          }
          dim {
            dim_value: 3
          }
          dim {
            dim_value: 1
          }
        }
      }
    }
  }
  input {
    name: "490"
    type {
      tensor_type {
        elem_type: FLOAT
        shape {
          dim {
            dim_value: 384
          }
        }
      }
    }
  }
  input {
    name: "491"
    type {
      tensor_type {
        elem_type: FLOAT
        shape {
          dim {
            dim_value: 384
          }
        }
      }
    }
  }
  input {
    name: "492"
    type {
      tensor_type {
        elem_type: FLOAT
        shape {
          dim {
            dim_value: 384
          }
        }
      }
    }
  }
  input {
    name: "493"
    type {
      tensor_type {
        elem_type: FLOAT
        shape {
          dim {
            dim_value: 384
          }
        }
      }
    }
  }
  input {
    name: "494"
    type {
      tensor_type {
        elem_type: INT64
        shape {
          dim {
            dim_value: 1
          }
        }
      }
    }
  }
  input {
    name: "495"
    type {
      tensor_type {
        elem_type: FLOAT
        shape {
          dim {
            dim_value: 448
          }
          dim {
            dim_value: 1280
          }
          dim {
            dim_value: 1
          }
          dim {
            dim_value: 1
          }
        }
      }
    }
  }
  input {
    name: "496"
    type {
      tensor_type {
        elem_type: FLOAT
        shape {
          dim {
            dim_value: 448
          }
        }
      }
    }
  }
  input {
    name: "497"
    type {
      tensor_type {
        elem_type: FLOAT
        shape {
          dim {
            dim_value: 448
          }
        }
      }
    }
  }
  input {
    name: "498"
    type {
      tensor_type {
        elem_type: FLOAT
        shape {
          dim {
            dim_value: 448
          }
        }
      }
    }
  }
  input {
    name: "499"
    type {
      tensor_type {
        elem_type: FLOAT
        shape {
          dim {
            dim_value: 448
          }
        }
      }
    }
  }
  input {
    name: "500"
    type {
      tensor_type {
        elem_type: INT64
        shape {
          dim {
            dim_value: 1
          }
        }
      }
    }
  }
  input {
    name: "501"
    type {
      tensor_type {
        elem_type: FLOAT
        shape {
          dim {
            dim_value: 384
          }
          dim {
            dim_value: 448
          }
          dim {
            dim_value: 3
          }
          dim {
            dim_value: 3
          }
        }
      }
    }
  }
  input {
    name: "502"
    type {
      tensor_type {
        elem_type: FLOAT
        shape {
          dim {
            dim_value: 384
          }
        }
      }
    }
  }
  input {
    name: "503"
    type {
      tensor_type {
        elem_type: FLOAT
        shape {
          dim {
            dim_value: 384
          }
        }
      }
    }
  }
  input {
    name: "504"
    type {
      tensor_type {
        elem_type: FLOAT
        shape {
          dim {
            dim_value: 384
          }
        }
      }
    }
  }
  input {
    name: "505"
    type {
      tensor_type {
        elem_type: FLOAT
        shape {
          dim {
            dim_value: 384
          }
        }
      }
    }
  }
  input {
    name: "506"
    type {
      tensor_type {
        elem_type: INT64
        shape {
          dim {
            dim_value: 1
          }
        }
      }
    }
  }
  input {
    name: "507"
    type {
      tensor_type {
        elem_type: FLOAT
        shape {
          dim {
            dim_value: 384
          }
          dim {
            dim_value: 384
          }
          dim {
            dim_value: 1
          }
          dim {
            dim_value: 3
          }
        }
      }
    }
  }
  input {
    name: "508"
    type {
      tensor_type {
        elem_type: FLOAT
        shape {
          dim {
            dim_value: 384
          }
        }
      }
    }
  }
  input {
    name: "509"
    type {
      tensor_type {
        elem_type: FLOAT
        shape {
          dim {
            dim_value: 384
          }
        }
      }
    }
  }
  input {
    name: "510"
    type {
      tensor_type {
        elem_type: FLOAT
        shape {
          dim {
            dim_value: 384
          }
        }
      }
    }
  }
  input {
    name: "511"
    type {
      tensor_type {
        elem_type: FLOAT
        shape {
          dim {
            dim_value: 384
          }
        }
      }
    }
  }
  input {
    name: "512"
    type {
      tensor_type {
        elem_type: INT64
        shape {
          dim {
            dim_value: 1
          }
        }
      }
    }
  }
  input {
    name: "513"
    type {
      tensor_type {
        elem_type: FLOAT
        shape {
          dim {
            dim_value: 384
          }
          dim {
            dim_value: 384
          }
          dim {
            dim_value: 3
          }
          dim {
            dim_value: 1
          }
        }
      }
    }
  }
  input {
    name: "514"
    type {
      tensor_type {
        elem_type: FLOAT
        shape {
          dim {
            dim_value: 384
          }
        }
      }
    }
  }
  input {
    name: "515"
    type {
      tensor_type {
        elem_type: FLOAT
        shape {
          dim {
            dim_value: 384
          }
        }
      }
    }
  }
  input {
    name: "516"
    type {
      tensor_type {
        elem_type: FLOAT
        shape {
          dim {
            dim_value: 384
          }
        }
      }
    }
  }
  input {
    name: "517"
    type {
      tensor_type {
        elem_type: FLOAT
        shape {
          dim {
            dim_value: 384
          }
        }
      }
    }
  }
  input {
    name: "518"
    type {
      tensor_type {
        elem_type: INT64
        shape {
          dim {
            dim_value: 1
          }
        }
      }
    }
  }
  input {
    name: "519"
    type {
      tensor_type {
        elem_type: FLOAT
        shape {
          dim {
            dim_value: 192
          }
          dim {
            dim_value: 1280
          }
          dim {
            dim_value: 1
          }
          dim {
            dim_value: 1
          }
        }
      }
    }
  }
  input {
    name: "520"
    type {
      tensor_type {
        elem_type: FLOAT
        shape {
          dim {
            dim_value: 192
          }
        }
      }
    }
  }
  input {
    name: "521"
    type {
      tensor_type {
        elem_type: FLOAT
        shape {
          dim {
            dim_value: 192
          }
        }
      }
    }
  }
  input {
    name: "522"
    type {
      tensor_type {
        elem_type: FLOAT
        shape {
          dim {
            dim_value: 192
          }
        }
      }
    }
  }
  input {
    name: "523"
    type {
      tensor_type {
        elem_type: FLOAT
        shape {
          dim {
            dim_value: 192
          }
        }
      }
    }
  }
  input {
    name: "524"
    type {
      tensor_type {
        elem_type: INT64
        shape {
          dim {
            dim_value: 1
          }
        }
      }
    }
  }
  input {
    name: "525"
    type {
      tensor_type {
        elem_type: FLOAT
        shape {
          dim {
            dim_value: 320
          }
          dim {
            dim_value: 2048
          }
          dim {
            dim_value: 1
          }
          dim {
            dim_value: 1
          }
        }
      }
    }
  }
  input {
    name: "526"
    type {
      tensor_type {
        elem_type: FLOAT
        shape {
          dim {
            dim_value: 320
          }
        }
      }
    }
  }
  input {
    name: "527"
    type {
      tensor_type {
        elem_type: FLOAT
        shape {
          dim {
            dim_value: 320
          }
        }
      }
    }
  }
  input {
    name: "528"
    type {
      tensor_type {
        elem_type: FLOAT
        shape {
          dim {
            dim_value: 320
          }
        }
      }
    }
  }
  input {
    name: "529"
    type {
      tensor_type {
        elem_type: FLOAT
        shape {
          dim {
            dim_value: 320
          }
        }
      }
    }
  }
  input {
    name: "530"
    type {
      tensor_type {
        elem_type: INT64
        shape {
          dim {
            dim_value: 1
          }
        }
      }
    }
  }
  input {
    name: "531"
    type {
      tensor_type {
        elem_type: FLOAT
        shape {
          dim {
            dim_value: 384
          }
          dim {
            dim_value: 2048
          }
          dim {
            dim_value: 1
          }
          dim {
            dim_value: 1
          }
        }
      }
    }
  }
  input {
    name: "532"
    type {
      tensor_type {
        elem_type: FLOAT
        shape {
          dim {
            dim_value: 384
          }
        }
      }
    }
  }
  input {
    name: "533"
    type {
      tensor_type {
        elem_type: FLOAT
        shape {
          dim {
            dim_value: 384
          }
        }
      }
    }
  }
  input {
    name: "534"
    type {
      tensor_type {
        elem_type: FLOAT
        shape {
          dim {
            dim_value: 384
          }
        }
      }
    }
  }
  input {
    name: "535"
    type {
      tensor_type {
        elem_type: FLOAT
        shape {
          dim {
            dim_value: 384
          }
        }
      }
    }
  }
  input {
    name: "536"
    type {
      tensor_type {
        elem_type: INT64
        shape {
          dim {
            dim_value: 1
          }
        }
      }
    }
  }
  input {
    name: "537"
    type {
      tensor_type {
        elem_type: FLOAT
        shape {
          dim {
            dim_value: 384
          }
          dim {
            dim_value: 384
          }
          dim {
            dim_value: 1
          }
          dim {
            dim_value: 3
          }
        }
      }
    }
  }
  input {
    name: "538"
    type {
      tensor_type {
        elem_type: FLOAT
        shape {
          dim {
            dim_value: 384
          }
        }
      }
    }
  }
  input {
    name: "539"
    type {
      tensor_type {
        elem_type: FLOAT
        shape {
          dim {
            dim_value: 384
          }
        }
      }
    }
  }
  input {
    name: "540"
    type {
      tensor_type {
        elem_type: FLOAT
        shape {
          dim {
            dim_value: 384
          }
        }
      }
    }
  }
  input {
    name: "541"
    type {
      tensor_type {
        elem_type: FLOAT
        shape {
          dim {
            dim_value: 384
          }
        }
      }
    }
  }
  input {
    name: "542"
    type {
      tensor_type {
        elem_type: INT64
        shape {
          dim {
            dim_value: 1
          }
        }
      }
    }
  }
  input {
    name: "543"
    type {
      tensor_type {
        elem_type: FLOAT
        shape {
          dim {
            dim_value: 384
          }
          dim {
            dim_value: 384
          }
          dim {
            dim_value: 3
          }
          dim {
            dim_value: 1
          }
        }
      }
    }
  }
  input {
    name: "544"
    type {
      tensor_type {
        elem_type: FLOAT
        shape {
          dim {
            dim_value: 384
          }
        }
      }
    }
  }
  input {
    name: "545"
    type {
      tensor_type {
        elem_type: FLOAT
        shape {
          dim {
            dim_value: 384
          }
        }
      }
    }
  }
  input {
    name: "546"
    type {
      tensor_type {
        elem_type: FLOAT
        shape {
          dim {
            dim_value: 384
          }
        }
      }
    }
  }
  input {
    name: "547"
    type {
      tensor_type {
        elem_type: FLOAT
        shape {
          dim {
            dim_value: 384
          }
        }
      }
    }
  }
  input {
    name: "548"
    type {
      tensor_type {
        elem_type: INT64
        shape {
          dim {
            dim_value: 1
          }
        }
      }
    }
  }
  input {
    name: "549"
    type {
      tensor_type {
        elem_type: FLOAT
        shape {
          dim {
            dim_value: 448
          }
          dim {
            dim_value: 2048
          }
          dim {
            dim_value: 1
          }
          dim {
            dim_value: 1
          }
        }
      }
    }
  }
  input {
    name: "550"
    type {
      tensor_type {
        elem_type: FLOAT
        shape {
          dim {
            dim_value: 448
          }
        }
      }
    }
  }
  input {
    name: "551"
    type {
      tensor_type {
        elem_type: FLOAT
        shape {
          dim {
            dim_value: 448
          }
        }
      }
    }
  }
  input {
    name: "552"
    type {
      tensor_type {
        elem_type: FLOAT
        shape {
          dim {
            dim_value: 448
          }
        }
      }
    }
  }
  input {
    name: "553"
    type {
      tensor_type {
        elem_type: FLOAT
        shape {
          dim {
            dim_value: 448
          }
        }
      }
    }
  }
  input {
    name: "554"
    type {
      tensor_type {
        elem_type: INT64
        shape {
          dim {
            dim_value: 1
          }
        }
      }
    }
  }
  input {
    name: "555"
    type {
      tensor_type {
        elem_type: FLOAT
        shape {
          dim {
            dim_value: 384
          }
          dim {
            dim_value: 448
          }
          dim {
            dim_value: 3
          }
          dim {
            dim_value: 3
          }
        }
      }
    }
  }
  input {
    name: "556"
    type {
      tensor_type {
        elem_type: FLOAT
        shape {
          dim {
            dim_value: 384
          }
        }
      }
    }
  }
  input {
    name: "557"
    type {
      tensor_type {
        elem_type: FLOAT
        shape {
          dim {
            dim_value: 384
          }
        }
      }
    }
  }
  input {
    name: "558"
    type {
      tensor_type {
        elem_type: FLOAT
        shape {
          dim {
            dim_value: 384
          }
        }
      }
    }
  }
  input {
    name: "559"
    type {
      tensor_type {
        elem_type: FLOAT
        shape {
          dim {
            dim_value: 384
          }
        }
      }
    }
  }
  input {
    name: "560"
    type {
      tensor_type {
        elem_type: INT64
        shape {
          dim {
            dim_value: 1
          }
        }
      }
    }
  }
  input {
    name: "561"
    type {
      tensor_type {
        elem_type: FLOAT
        shape {
          dim {
            dim_value: 384
          }
          dim {
            dim_value: 384
          }
          dim {
            dim_value: 1
          }
          dim {
            dim_value: 3
          }
        }
      }
    }
  }
  input {
    name: "562"
    type {
      tensor_type {
        elem_type: FLOAT
        shape {
          dim {
            dim_value: 384
          }
        }
      }
    }
  }
  input {
    name: "563"
    type {
      tensor_type {
        elem_type: FLOAT
        shape {
          dim {
            dim_value: 384
          }
        }
      }
    }
  }
  input {
    name: "564"
    type {
      tensor_type {
        elem_type: FLOAT
        shape {
          dim {
            dim_value: 384
          }
        }
      }
    }
  }
  input {
    name: "565"
    type {
      tensor_type {
        elem_type: FLOAT
        shape {
          dim {
            dim_value: 384
          }
        }
      }
    }
  }
  input {
    name: "566"
    type {
      tensor_type {
        elem_type: INT64
        shape {
          dim {
            dim_value: 1
          }
        }
      }
    }
  }
  input {
    name: "567"
    type {
      tensor_type {
        elem_type: FLOAT
        shape {
          dim {
            dim_value: 384
          }
          dim {
            dim_value: 384
          }
          dim {
            dim_value: 3
          }
          dim {
            dim_value: 1
          }
        }
      }
    }
  }
  input {
    name: "568"
    type {
      tensor_type {
        elem_type: FLOAT
        shape {
          dim {
            dim_value: 384
          }
        }
      }
    }
  }
  input {
    name: "569"
    type {
      tensor_type {
        elem_type: FLOAT
        shape {
          dim {
            dim_value: 384
          }
        }
      }
    }
  }
  input {
    name: "570"
    type {
      tensor_type {
        elem_type: FLOAT
        shape {
          dim {
            dim_value: 384
          }
        }
      }
    }
  }
  input {
    name: "571"
    type {
      tensor_type {
        elem_type: FLOAT
        shape {
          dim {
            dim_value: 384
          }
        }
      }
    }
  }
  input {
    name: "572"
    type {
      tensor_type {
        elem_type: INT64
        shape {
          dim {
            dim_value: 1
          }
        }
      }
    }
  }
  input {
    name: "573"
    type {
      tensor_type {
        elem_type: FLOAT
        shape {
          dim {
            dim_value: 192
          }
          dim {
            dim_value: 2048
          }
          dim {
            dim_value: 1
          }
          dim {
            dim_value: 1
          }
        }
      }
    }
  }
  input {
    name: "574"
    type {
      tensor_type {
        elem_type: FLOAT
        shape {
          dim {
            dim_value: 192
          }
        }
      }
    }
  }
  input {
    name: "575"
    type {
      tensor_type {
        elem_type: FLOAT
        shape {
          dim {
            dim_value: 192
          }
        }
      }
    }
  }
  input {
    name: "576"
    type {
      tensor_type {
        elem_type: FLOAT
        shape {
          dim {
            dim_value: 192
          }
        }
      }
    }
  }
  input {
    name: "577"
    type {
      tensor_type {
        elem_type: FLOAT
        shape {
          dim {
            dim_value: 192
          }
        }
      }
    }
  }
  input {
    name: "578"
    type {
      tensor_type {
        elem_type: INT64
        shape {
          dim {
            dim_value: 1
          }
        }
      }
    }
  }
  input {
    name: "579"
    type {
      tensor_type {
        elem_type: FLOAT
        shape {
          dim {
            dim_value: 1000
          }
          dim {
            dim_value: 2048
          }
        }
      }
    }
  }
  input {
    name: "580"
    type {
      tensor_type {
        elem_type: FLOAT
        shape {
          dim {
            dim_value: 1000
          }
        }
      }
    }
  }
  output {
    name: "895"
    type {
      tensor_type {
        elem_type: FLOAT
        shape {
          dim {
            dim_value: 2
          }
          dim {
            dim_value: 1000
          }
        }
      }
    }
  }
}
opset_import {
  version: 5
}
