ir_version: 2
producer_name: "pytorch"
producer_version: "0.3"
graph {
  node {
    input: "0"
    input: "1"
    output: "321"
    op_type: "Conv"
    attribute {
      name: "dilations"
      ints: 1
      ints: 1
      type: INTS
    }
    attribute {
      name: "group"
      i: 1
      type: INT
    }
    attribute {
      name: "kernel_shape"
      ints: 7
      ints: 7
      type: INTS
    }
    attribute {
      name: "pads"
      ints: 3
      ints: 3
      ints: 3
      ints: 3
      type: INTS
    }
    attribute {
      name: "strides"
      ints: 2
      ints: 2
      type: INTS
    }
  }
  node {
    input: "321"
    input: "2"
    input: "3"
    input: "4"
    input: "5"
    output: "322"
    op_type: "BatchNormalization"
    attribute {
      name: "consumed_inputs"
      ints: 0
      ints: 0
      ints: 0
      ints: 1
      ints: 1
      type: INTS
    }
    attribute {
      name: "epsilon"
      f: 9.99999974737875e-06
      type: FLOAT
    }
    attribute {
      name: "is_test"
      i: 1
      type: INT
    }
    attribute {
      name: "momentum"
      f: 1
      type: FLOAT
    }
  }
  node {
    input: "322"
    output: "323"
    op_type: "Relu"
  }
  node {
    input: "323"
    output: "324"
    op_type: "MaxPool"
    attribute {
      name: "kernel_shape"
      ints: 3
      ints: 3
      type: INTS
    }
    attribute {
      name: "pads"
      ints: 1
      ints: 1
      ints: 1
      ints: 1
      type: INTS
    }
    attribute {
      name: "strides"
      ints: 2
      ints: 2
      type: INTS
    }
  }
  node {
    input: "324"
    input: "7"
    output: "325"
    op_type: "Conv"
    attribute {
      name: "dilations"
      ints: 1
      ints: 1
      type: INTS
    }
    attribute {
      name: "group"
      i: 1
      type: INT
    }
    attribute {
      name: "kernel_shape"
      ints: 1
      ints: 1
      type: INTS
    }
    attribute {
      name: "pads"
      ints: 0
      ints: 0
      ints: 0
      ints: 0
      type: INTS
    }
    attribute {
      name: "strides"
      ints: 1
      ints: 1
      type: INTS
    }
  }
  node {
    input: "325"
    input: "8"
    input: "9"
    input: "10"
    input: "11"
    output: "326"
    op_type: "BatchNormalization"
    attribute {
      name: "consumed_inputs"
      ints: 0
      ints: 0
      ints: 0
      ints: 1
      ints: 1
      type: INTS
    }
    attribute {
      name: "epsilon"
      f: 9.99999974737875e-06
      type: FLOAT
    }
    attribute {
      name: "is_test"
      i: 1
      type: INT
    }
    attribute {
      name: "momentum"
      f: 1
      type: FLOAT
    }
  }
  node {
    input: "326"
    output: "327"
    op_type: "Relu"
  }
  node {
    input: "327"
    input: "13"
    output: "328"
    op_type: "Conv"
    attribute {
      name: "dilations"
      ints: 1
      ints: 1
      type: INTS
    }
    attribute {
      name: "group"
      i: 1
      type: INT
    }
    attribute {
      name: "kernel_shape"
      ints: 3
      ints: 3
      type: INTS
    }
    attribute {
      name: "pads"
      ints: 1
      ints: 1
      ints: 1
      ints: 1
      type: INTS
    }
    attribute {
      name: "strides"
      ints: 1
      ints: 1
      type: INTS
    }
  }
  node {
    input: "328"
    input: "14"
    input: "15"
    input: "16"
    input: "17"
    output: "329"
    op_type: "BatchNormalization"
    attribute {
      name: "consumed_inputs"
      ints: 0
      ints: 0
      ints: 0
      ints: 1
      ints: 1
      type: INTS
    }
    attribute {
      name: "epsilon"
      f: 9.99999974737875e-06
      type: FLOAT
    }
    attribute {
      name: "is_test"
      i: 1
      type: INT
    }
    attribute {
      name: "momentum"
      f: 1
      type: FLOAT
    }
  }
  node {
    input: "329"
    output: "330"
    op_type: "Relu"
  }
  node {
    input: "330"
    input: "19"
    output: "331"
    op_type: "Conv"
    attribute {
      name: "dilations"
      ints: 1
      ints: 1
      type: INTS
    }
    attribute {
      name: "group"
      i: 1
      type: INT
    }
    attribute {
      name: "kernel_shape"
      ints: 1
      ints: 1
      type: INTS
    }
    attribute {
      name: "pads"
      ints: 0
      ints: 0
      ints: 0
      ints: 0
      type: INTS
    }
    attribute {
      name: "strides"
      ints: 1
      ints: 1
      type: INTS
    }
  }
  node {
    input: "331"
    input: "20"
    input: "21"
    input: "22"
    input: "23"
    output: "332"
    op_type: "BatchNormalization"
    attribute {
      name: "consumed_inputs"
      ints: 0
      ints: 0
      ints: 0
      ints: 1
      ints: 1
      type: INTS
    }
    attribute {
      name: "epsilon"
      f: 9.99999974737875e-06
      type: FLOAT
    }
    attribute {
      name: "is_test"
      i: 1
      type: INT
    }
    attribute {
      name: "momentum"
      f: 1
      type: FLOAT
    }
  }
  node {
    input: "324"
    input: "25"
    output: "333"
    op_type: "Conv"
    attribute {
      name: "dilations"
      ints: 1
      ints: 1
      type: INTS
    }
    attribute {
      name: "group"
      i: 1
      type: INT
    }
    attribute {
      name: "kernel_shape"
      ints: 1
      ints: 1
      type: INTS
    }
    attribute {
      name: "pads"
      ints: 0
      ints: 0
      ints: 0
      ints: 0
      type: INTS
    }
    attribute {
      name: "strides"
      ints: 1
      ints: 1
      type: INTS
    }
  }
  node {
    input: "333"
    input: "26"
    input: "27"
    input: "28"
    input: "29"
    output: "334"
    op_type: "BatchNormalization"
    attribute {
      name: "consumed_inputs"
      ints: 0
      ints: 0
      ints: 0
      ints: 1
      ints: 1
      type: INTS
    }
    attribute {
      name: "epsilon"
      f: 9.99999974737875e-06
      type: FLOAT
    }
    attribute {
      name: "is_test"
      i: 1
      type: INT
    }
    attribute {
      name: "momentum"
      f: 1
      type: FLOAT
    }
  }
  node {
    input: "332"
    input: "334"
    output: "335"
    op_type: "Add"
  }
  node {
    input: "335"
    output: "336"
    op_type: "Relu"
  }
  node {
    input: "336"
    input: "31"
    output: "337"
    op_type: "Conv"
    attribute {
      name: "dilations"
      ints: 1
      ints: 1
      type: INTS
    }
    attribute {
      name: "group"
      i: 1
      type: INT
    }
    attribute {
      name: "kernel_shape"
      ints: 1
      ints: 1
      type: INTS
    }
    attribute {
      name: "pads"
      ints: 0
      ints: 0
      ints: 0
      ints: 0
      type: INTS
    }
    attribute {
      name: "strides"
      ints: 1
      ints: 1
      type: INTS
    }
  }
  node {
    input: "337"
    input: "32"
    input: "33"
    input: "34"
    input: "35"
    output: "338"
    op_type: "BatchNormalization"
    attribute {
      name: "consumed_inputs"
      ints: 0
      ints: 0
      ints: 0
      ints: 1
      ints: 1
      type: INTS
    }
    attribute {
      name: "epsilon"
      f: 9.99999974737875e-06
      type: FLOAT
    }
    attribute {
      name: "is_test"
      i: 1
      type: INT
    }
    attribute {
      name: "momentum"
      f: 1
      type: FLOAT
    }
  }
  node {
    input: "338"
    output: "339"
    op_type: "Relu"
  }
  node {
    input: "339"
    input: "37"
    output: "340"
    op_type: "Conv"
    attribute {
      name: "dilations"
      ints: 1
      ints: 1
      type: INTS
    }
    attribute {
      name: "group"
      i: 1
      type: INT
    }
    attribute {
      name: "kernel_shape"
      ints: 3
      ints: 3
      type: INTS
    }
    attribute {
      name: "pads"
      ints: 1
      ints: 1
      ints: 1
      ints: 1
      type: INTS
    }
    attribute {
      name: "strides"
      ints: 1
      ints: 1
      type: INTS
    }
  }
  node {
    input: "340"
    input: "38"
    input: "39"
    input: "40"
    input: "41"
    output: "341"
    op_type: "BatchNormalization"
    attribute {
      name: "consumed_inputs"
      ints: 0
      ints: 0
      ints: 0
      ints: 1
      ints: 1
      type: INTS
    }
    attribute {
      name: "epsilon"
      f: 9.99999974737875e-06
      type: FLOAT
    }
    attribute {
      name: "is_test"
      i: 1
      type: INT
    }
    attribute {
      name: "momentum"
      f: 1
      type: FLOAT
    }
  }
  node {
    input: "341"
    output: "342"
    op_type: "Relu"
  }
  node {
    input: "342"
    input: "43"
    output: "343"
    op_type: "Conv"
    attribute {
      name: "dilations"
      ints: 1
      ints: 1
      type: INTS
    }
    attribute {
      name: "group"
      i: 1
      type: INT
    }
    attribute {
      name: "kernel_shape"
      ints: 1
      ints: 1
      type: INTS
    }
    attribute {
      name: "pads"
      ints: 0
      ints: 0
      ints: 0
      ints: 0
      type: INTS
    }
    attribute {
      name: "strides"
      ints: 1
      ints: 1
      type: INTS
    }
  }
  node {
    input: "343"
    input: "44"
    input: "45"
    input: "46"
    input: "47"
    output: "344"
    op_type: "BatchNormalization"
    attribute {
      name: "consumed_inputs"
      ints: 0
      ints: 0
      ints: 0
      ints: 1
      ints: 1
      type: INTS
    }
    attribute {
      name: "epsilon"
      f: 9.99999974737875e-06
      type: FLOAT
    }
    attribute {
      name: "is_test"
      i: 1
      type: INT
    }
    attribute {
      name: "momentum"
      f: 1
      type: FLOAT
    }
  }
  node {
    input: "344"
    input: "336"
    output: "345"
    op_type: "Add"
  }
  node {
    input: "345"
    output: "346"
    op_type: "Relu"
  }
  node {
    input: "346"
    input: "49"
    output: "347"
    op_type: "Conv"
    attribute {
      name: "dilations"
      ints: 1
      ints: 1
      type: INTS
    }
    attribute {
      name: "group"
      i: 1
      type: INT
    }
    attribute {
      name: "kernel_shape"
      ints: 1
      ints: 1
      type: INTS
    }
    attribute {
      name: "pads"
      ints: 0
      ints: 0
      ints: 0
      ints: 0
      type: INTS
    }
    attribute {
      name: "strides"
      ints: 1
      ints: 1
      type: INTS
    }
  }
  node {
    input: "347"
    input: "50"
    input: "51"
    input: "52"
    input: "53"
    output: "348"
    op_type: "BatchNormalization"
    attribute {
      name: "consumed_inputs"
      ints: 0
      ints: 0
      ints: 0
      ints: 1
      ints: 1
      type: INTS
    }
    attribute {
      name: "epsilon"
      f: 9.99999974737875e-06
      type: FLOAT
    }
    attribute {
      name: "is_test"
      i: 1
      type: INT
    }
    attribute {
      name: "momentum"
      f: 1
      type: FLOAT
    }
  }
  node {
    input: "348"
    output: "349"
    op_type: "Relu"
  }
  node {
    input: "349"
    input: "55"
    output: "350"
    op_type: "Conv"
    attribute {
      name: "dilations"
      ints: 1
      ints: 1
      type: INTS
    }
    attribute {
      name: "group"
      i: 1
      type: INT
    }
    attribute {
      name: "kernel_shape"
      ints: 3
      ints: 3
      type: INTS
    }
    attribute {
      name: "pads"
      ints: 1
      ints: 1
      ints: 1
      ints: 1
      type: INTS
    }
    attribute {
      name: "strides"
      ints: 1
      ints: 1
      type: INTS
    }
  }
  node {
    input: "350"
    input: "56"
    input: "57"
    input: "58"
    input: "59"
    output: "351"
    op_type: "BatchNormalization"
    attribute {
      name: "consumed_inputs"
      ints: 0
      ints: 0
      ints: 0
      ints: 1
      ints: 1
      type: INTS
    }
    attribute {
      name: "epsilon"
      f: 9.99999974737875e-06
      type: FLOAT
    }
    attribute {
      name: "is_test"
      i: 1
      type: INT
    }
    attribute {
      name: "momentum"
      f: 1
      type: FLOAT
    }
  }
  node {
    input: "351"
    output: "352"
    op_type: "Relu"
  }
  node {
    input: "352"
    input: "61"
    output: "353"
    op_type: "Conv"
    attribute {
      name: "dilations"
      ints: 1
      ints: 1
      type: INTS
    }
    attribute {
      name: "group"
      i: 1
      type: INT
    }
    attribute {
      name: "kernel_shape"
      ints: 1
      ints: 1
      type: INTS
    }
    attribute {
      name: "pads"
      ints: 0
      ints: 0
      ints: 0
      ints: 0
      type: INTS
    }
    attribute {
      name: "strides"
      ints: 1
      ints: 1
      type: INTS
    }
  }
  node {
    input: "353"
    input: "62"
    input: "63"
    input: "64"
    input: "65"
    output: "354"
    op_type: "BatchNormalization"
    attribute {
      name: "consumed_inputs"
      ints: 0
      ints: 0
      ints: 0
      ints: 1
      ints: 1
      type: INTS
    }
    attribute {
      name: "epsilon"
      f: 9.99999974737875e-06
      type: FLOAT
    }
    attribute {
      name: "is_test"
      i: 1
      type: INT
    }
    attribute {
      name: "momentum"
      f: 1
      type: FLOAT
    }
  }
  node {
    input: "354"
    input: "346"
    output: "355"
    op_type: "Add"
  }
  node {
    input: "355"
    output: "356"
    op_type: "Relu"
  }
  node {
    input: "356"
    input: "67"
    output: "357"
    op_type: "Conv"
    attribute {
      name: "dilations"
      ints: 1
      ints: 1
      type: INTS
    }
    attribute {
      name: "group"
      i: 1
      type: INT
    }
    attribute {
      name: "kernel_shape"
      ints: 1
      ints: 1
      type: INTS
    }
    attribute {
      name: "pads"
      ints: 0
      ints: 0
      ints: 0
      ints: 0
      type: INTS
    }
    attribute {
      name: "strides"
      ints: 1
      ints: 1
      type: INTS
    }
  }
  node {
    input: "357"
    input: "68"
    input: "69"
    input: "70"
    input: "71"
    output: "358"
    op_type: "BatchNormalization"
    attribute {
      name: "consumed_inputs"
      ints: 0
      ints: 0
      ints: 0
      ints: 1
      ints: 1
      type: INTS
    }
    attribute {
      name: "epsilon"
      f: 9.99999974737875e-06
      type: FLOAT
    }
    attribute {
      name: "is_test"
      i: 1
      type: INT
    }
    attribute {
      name: "momentum"
      f: 1
      type: FLOAT
    }
  }
  node {
    input: "358"
    output: "359"
    op_type: "Relu"
  }
  node {
    input: "359"
    input: "73"
    output: "360"
    op_type: "Conv"
    attribute {
      name: "dilations"
      ints: 1
      ints: 1
      type: INTS
    }
    attribute {
      name: "group"
      i: 1
      type: INT
    }
    attribute {
      name: "kernel_shape"
      ints: 3
      ints: 3
      type: INTS
    }
    attribute {
      name: "pads"
      ints: 1
      ints: 1
      ints: 1
      ints: 1
      type: INTS
    }
    attribute {
      name: "strides"
      ints: 2
      ints: 2
      type: INTS
    }
  }
  node {
    input: "360"
    input: "74"
    input: "75"
    input: "76"
    input: "77"
    output: "361"
    op_type: "BatchNormalization"
    attribute {
      name: "consumed_inputs"
      ints: 0
      ints: 0
      ints: 0
      ints: 1
      ints: 1
      type: INTS
    }
    attribute {
      name: "epsilon"
      f: 9.99999974737875e-06
      type: FLOAT
    }
    attribute {
      name: "is_test"
      i: 1
      type: INT
    }
    attribute {
      name: "momentum"
      f: 1
      type: FLOAT
    }
  }
  node {
    input: "361"
    output: "362"
    op_type: "Relu"
  }
  node {
    input: "362"
    input: "79"
    output: "363"
    op_type: "Conv"
    attribute {
      name: "dilations"
      ints: 1
      ints: 1
      type: INTS
    }
    attribute {
      name: "group"
      i: 1
      type: INT
    }
    attribute {
      name: "kernel_shape"
      ints: 1
      ints: 1
      type: INTS
    }
    attribute {
      name: "pads"
      ints: 0
      ints: 0
      ints: 0
      ints: 0
      type: INTS
    }
    attribute {
      name: "strides"
      ints: 1
      ints: 1
      type: INTS
    }
  }
  node {
    input: "363"
    input: "80"
    input: "81"
    input: "82"
    input: "83"
    output: "364"
    op_type: "BatchNormalization"
    attribute {
      name: "consumed_inputs"
      ints: 0
      ints: 0
      ints: 0
      ints: 1
      ints: 1
      type: INTS
    }
    attribute {
      name: "epsilon"
      f: 9.99999974737875e-06
      type: FLOAT
    }
    attribute {
      name: "is_test"
      i: 1
      type: INT
    }
    attribute {
      name: "momentum"
      f: 1
      type: FLOAT
    }
  }
  node {
    input: "356"
    input: "85"
    output: "365"
    op_type: "Conv"
    attribute {
      name: "dilations"
      ints: 1
      ints: 1
      type: INTS
    }
    attribute {
      name: "group"
      i: 1
      type: INT
    }
    attribute {
      name: "kernel_shape"
      ints: 1
      ints: 1
      type: INTS
    }
    attribute {
      name: "pads"
      ints: 0
      ints: 0
      ints: 0
      ints: 0
      type: INTS
    }
    attribute {
      name: "strides"
      ints: 2
      ints: 2
      type: INTS
    }
  }
  node {
    input: "365"
    input: "86"
    input: "87"
    input: "88"
    input: "89"
    output: "366"
    op_type: "BatchNormalization"
    attribute {
      name: "consumed_inputs"
      ints: 0
      ints: 0
      ints: 0
      ints: 1
      ints: 1
      type: INTS
    }
    attribute {
      name: "epsilon"
      f: 9.99999974737875e-06
      type: FLOAT
    }
    attribute {
      name: "is_test"
      i: 1
      type: INT
    }
    attribute {
      name: "momentum"
      f: 1
      type: FLOAT
    }
  }
  node {
    input: "364"
    input: "366"
    output: "367"
    op_type: "Add"
  }
  node {
    input: "367"
    output: "368"
    op_type: "Relu"
  }
  node {
    input: "368"
    input: "91"
    output: "369"
    op_type: "Conv"
    attribute {
      name: "dilations"
      ints: 1
      ints: 1
      type: INTS
    }
    attribute {
      name: "group"
      i: 1
      type: INT
    }
    attribute {
      name: "kernel_shape"
      ints: 1
      ints: 1
      type: INTS
    }
    attribute {
      name: "pads"
      ints: 0
      ints: 0
      ints: 0
      ints: 0
      type: INTS
    }
    attribute {
      name: "strides"
      ints: 1
      ints: 1
      type: INTS
    }
  }
  node {
    input: "369"
    input: "92"
    input: "93"
    input: "94"
    input: "95"
    output: "370"
    op_type: "BatchNormalization"
    attribute {
      name: "consumed_inputs"
      ints: 0
      ints: 0
      ints: 0
      ints: 1
      ints: 1
      type: INTS
    }
    attribute {
      name: "epsilon"
      f: 9.99999974737875e-06
      type: FLOAT
    }
    attribute {
      name: "is_test"
      i: 1
      type: INT
    }
    attribute {
      name: "momentum"
      f: 1
      type: FLOAT
    }
  }
  node {
    input: "370"
    output: "371"
    op_type: "Relu"
  }
  node {
    input: "371"
    input: "97"
    output: "372"
    op_type: "Conv"
    attribute {
      name: "dilations"
      ints: 1
      ints: 1
      type: INTS
    }
    attribute {
      name: "group"
      i: 1
      type: INT
    }
    attribute {
      name: "kernel_shape"
      ints: 3
      ints: 3
      type: INTS
    }
    attribute {
      name: "pads"
      ints: 1
      ints: 1
      ints: 1
      ints: 1
      type: INTS
    }
    attribute {
      name: "strides"
      ints: 1
      ints: 1
      type: INTS
    }
  }
  node {
    input: "372"
    input: "98"
    input: "99"
    input: "100"
    input: "101"
    output: "373"
    op_type: "BatchNormalization"
    attribute {
      name: "consumed_inputs"
      ints: 0
      ints: 0
      ints: 0
      ints: 1
      ints: 1
      type: INTS
    }
    attribute {
      name: "epsilon"
      f: 9.99999974737875e-06
      type: FLOAT
    }
    attribute {
      name: "is_test"
      i: 1
      type: INT
    }
    attribute {
      name: "momentum"
      f: 1
      type: FLOAT
    }
  }
  node {
    input: "373"
    output: "374"
    op_type: "Relu"
  }
  node {
    input: "374"
    input: "103"
    output: "375"
    op_type: "Conv"
    attribute {
      name: "dilations"
      ints: 1
      ints: 1
      type: INTS
    }
    attribute {
      name: "group"
      i: 1
      type: INT
    }
    attribute {
      name: "kernel_shape"
      ints: 1
      ints: 1
      type: INTS
    }
    attribute {
      name: "pads"
      ints: 0
      ints: 0
      ints: 0
      ints: 0
      type: INTS
    }
    attribute {
      name: "strides"
      ints: 1
      ints: 1
      type: INTS
    }
  }
  node {
    input: "375"
    input: "104"
    input: "105"
    input: "106"
    input: "107"
    output: "376"
    op_type: "BatchNormalization"
    attribute {
      name: "consumed_inputs"
      ints: 0
      ints: 0
      ints: 0
      ints: 1
      ints: 1
      type: INTS
    }
    attribute {
      name: "epsilon"
      f: 9.99999974737875e-06
      type: FLOAT
    }
    attribute {
      name: "is_test"
      i: 1
      type: INT
    }
    attribute {
      name: "momentum"
      f: 1
      type: FLOAT
    }
  }
  node {
    input: "376"
    input: "368"
    output: "377"
    op_type: "Add"
  }
  node {
    input: "377"
    output: "378"
    op_type: "Relu"
  }
  node {
    input: "378"
    input: "109"
    output: "379"
    op_type: "Conv"
    attribute {
      name: "dilations"
      ints: 1
      ints: 1
      type: INTS
    }
    attribute {
      name: "group"
      i: 1
      type: INT
    }
    attribute {
      name: "kernel_shape"
      ints: 1
      ints: 1
      type: INTS
    }
    attribute {
      name: "pads"
      ints: 0
      ints: 0
      ints: 0
      ints: 0
      type: INTS
    }
    attribute {
      name: "strides"
      ints: 1
      ints: 1
      type: INTS
    }
  }
  node {
    input: "379"
    input: "110"
    input: "111"
    input: "112"
    input: "113"
    output: "380"
    op_type: "BatchNormalization"
    attribute {
      name: "consumed_inputs"
      ints: 0
      ints: 0
      ints: 0
      ints: 1
      ints: 1
      type: INTS
    }
    attribute {
      name: "epsilon"
      f: 9.99999974737875e-06
      type: FLOAT
    }
    attribute {
      name: "is_test"
      i: 1
      type: INT
    }
    attribute {
      name: "momentum"
      f: 1
      type: FLOAT
    }
  }
  node {
    input: "380"
    output: "381"
    op_type: "Relu"
  }
  node {
    input: "381"
    input: "115"
    output: "382"
    op_type: "Conv"
    attribute {
      name: "dilations"
      ints: 1
      ints: 1
      type: INTS
    }
    attribute {
      name: "group"
      i: 1
      type: INT
    }
    attribute {
      name: "kernel_shape"
      ints: 3
      ints: 3
      type: INTS
    }
    attribute {
      name: "pads"
      ints: 1
      ints: 1
      ints: 1
      ints: 1
      type: INTS
    }
    attribute {
      name: "strides"
      ints: 1
      ints: 1
      type: INTS
    }
  }
  node {
    input: "382"
    input: "116"
    input: "117"
    input: "118"
    input: "119"
    output: "383"
    op_type: "BatchNormalization"
    attribute {
      name: "consumed_inputs"
      ints: 0
      ints: 0
      ints: 0
      ints: 1
      ints: 1
      type: INTS
    }
    attribute {
      name: "epsilon"
      f: 9.99999974737875e-06
      type: FLOAT
    }
    attribute {
      name: "is_test"
      i: 1
      type: INT
    }
    attribute {
      name: "momentum"
      f: 1
      type: FLOAT
    }
  }
  node {
    input: "383"
    output: "384"
    op_type: "Relu"
  }
  node {
    input: "384"
    input: "121"
    output: "385"
    op_type: "Conv"
    attribute {
      name: "dilations"
      ints: 1
      ints: 1
      type: INTS
    }
    attribute {
      name: "group"
      i: 1
      type: INT
    }
    attribute {
      name: "kernel_shape"
      ints: 1
      ints: 1
      type: INTS
    }
    attribute {
      name: "pads"
      ints: 0
      ints: 0
      ints: 0
      ints: 0
      type: INTS
    }
    attribute {
      name: "strides"
      ints: 1
      ints: 1
      type: INTS
    }
  }
  node {
    input: "385"
    input: "122"
    input: "123"
    input: "124"
    input: "125"
    output: "386"
    op_type: "BatchNormalization"
    attribute {
      name: "consumed_inputs"
      ints: 0
      ints: 0
      ints: 0
      ints: 1
      ints: 1
      type: INTS
    }
    attribute {
      name: "epsilon"
      f: 9.99999974737875e-06
      type: FLOAT
    }
    attribute {
      name: "is_test"
      i: 1
      type: INT
    }
    attribute {
      name: "momentum"
      f: 1
      type: FLOAT
    }
  }
  node {
    input: "386"
    input: "378"
    output: "387"
    op_type: "Add"
  }
  node {
    input: "387"
    output: "388"
    op_type: "Relu"
  }
  node {
    input: "388"
    input: "127"
    output: "389"
    op_type: "Conv"
    attribute {
      name: "dilations"
      ints: 1
      ints: 1
      type: INTS
    }
    attribute {
      name: "group"
      i: 1
      type: INT
    }
    attribute {
      name: "kernel_shape"
      ints: 1
      ints: 1
      type: INTS
    }
    attribute {
      name: "pads"
      ints: 0
      ints: 0
      ints: 0
      ints: 0
      type: INTS
    }
    attribute {
      name: "strides"
      ints: 1
      ints: 1
      type: INTS
    }
  }
  node {
    input: "389"
    input: "128"
    input: "129"
    input: "130"
    input: "131"
    output: "390"
    op_type: "BatchNormalization"
    attribute {
      name: "consumed_inputs"
      ints: 0
      ints: 0
      ints: 0
      ints: 1
      ints: 1
      type: INTS
    }
    attribute {
      name: "epsilon"
      f: 9.99999974737875e-06
      type: FLOAT
    }
    attribute {
      name: "is_test"
      i: 1
      type: INT
    }
    attribute {
      name: "momentum"
      f: 1
      type: FLOAT
    }
  }
  node {
    input: "390"
    output: "391"
    op_type: "Relu"
  }
  node {
    input: "391"
    input: "133"
    output: "392"
    op_type: "Conv"
    attribute {
      name: "dilations"
      ints: 1
      ints: 1
      type: INTS
    }
    attribute {
      name: "group"
      i: 1
      type: INT
    }
    attribute {
      name: "kernel_shape"
      ints: 3
      ints: 3
      type: INTS
    }
    attribute {
      name: "pads"
      ints: 1
      ints: 1
      ints: 1
      ints: 1
      type: INTS
    }
    attribute {
      name: "strides"
      ints: 1
      ints: 1
      type: INTS
    }
  }
  node {
    input: "392"
    input: "134"
    input: "135"
    input: "136"
    input: "137"
    output: "393"
    op_type: "BatchNormalization"
    attribute {
      name: "consumed_inputs"
      ints: 0
      ints: 0
      ints: 0
      ints: 1
      ints: 1
      type: INTS
    }
    attribute {
      name: "epsilon"
      f: 9.99999974737875e-06
      type: FLOAT
    }
    attribute {
      name: "is_test"
      i: 1
      type: INT
    }
    attribute {
      name: "momentum"
      f: 1
      type: FLOAT
    }
  }
  node {
    input: "393"
    output: "394"
    op_type: "Relu"
  }
  node {
    input: "394"
    input: "139"
    output: "395"
    op_type: "Conv"
    attribute {
      name: "dilations"
      ints: 1
      ints: 1
      type: INTS
    }
    attribute {
      name: "group"
      i: 1
      type: INT
    }
    attribute {
      name: "kernel_shape"
      ints: 1
      ints: 1
      type: INTS
    }
    attribute {
      name: "pads"
      ints: 0
      ints: 0
      ints: 0
      ints: 0
      type: INTS
    }
    attribute {
      name: "strides"
      ints: 1
      ints: 1
      type: INTS
    }
  }
  node {
    input: "395"
    input: "140"
    input: "141"
    input: "142"
    input: "143"
    output: "396"
    op_type: "BatchNormalization"
    attribute {
      name: "consumed_inputs"
      ints: 0
      ints: 0
      ints: 0
      ints: 1
      ints: 1
      type: INTS
    }
    attribute {
      name: "epsilon"
      f: 9.99999974737875e-06
      type: FLOAT
    }
    attribute {
      name: "is_test"
      i: 1
      type: INT
    }
    attribute {
      name: "momentum"
      f: 1
      type: FLOAT
    }
  }
  node {
    input: "396"
    input: "388"
    output: "397"
    op_type: "Add"
  }
  node {
    input: "397"
    output: "398"
    op_type: "Relu"
  }
  node {
    input: "398"
    input: "145"
    output: "399"
    op_type: "Conv"
    attribute {
      name: "dilations"
      ints: 1
      ints: 1
      type: INTS
    }
    attribute {
      name: "group"
      i: 1
      type: INT
    }
    attribute {
      name: "kernel_shape"
      ints: 1
      ints: 1
      type: INTS
    }
    attribute {
      name: "pads"
      ints: 0
      ints: 0
      ints: 0
      ints: 0
      type: INTS
    }
    attribute {
      name: "strides"
      ints: 1
      ints: 1
      type: INTS
    }
  }
  node {
    input: "399"
    input: "146"
    input: "147"
    input: "148"
    input: "149"
    output: "400"
    op_type: "BatchNormalization"
    attribute {
      name: "consumed_inputs"
      ints: 0
      ints: 0
      ints: 0
      ints: 1
      ints: 1
      type: INTS
    }
    attribute {
      name: "epsilon"
      f: 9.99999974737875e-06
      type: FLOAT
    }
    attribute {
      name: "is_test"
      i: 1
      type: INT
    }
    attribute {
      name: "momentum"
      f: 1
      type: FLOAT
    }
  }
  node {
    input: "400"
    output: "401"
    op_type: "Relu"
  }
  node {
    input: "401"
    input: "151"
    output: "402"
    op_type: "Conv"
    attribute {
      name: "dilations"
      ints: 1
      ints: 1
      type: INTS
    }
    attribute {
      name: "group"
      i: 1
      type: INT
    }
    attribute {
      name: "kernel_shape"
      ints: 3
      ints: 3
      type: INTS
    }
    attribute {
      name: "pads"
      ints: 1
      ints: 1
      ints: 1
      ints: 1
      type: INTS
    }
    attribute {
      name: "strides"
      ints: 2
      ints: 2
      type: INTS
    }
  }
  node {
    input: "402"
    input: "152"
    input: "153"
    input: "154"
    input: "155"
    output: "403"
    op_type: "BatchNormalization"
    attribute {
      name: "consumed_inputs"
      ints: 0
      ints: 0
      ints: 0
      ints: 1
      ints: 1
      type: INTS
    }
    attribute {
      name: "epsilon"
      f: 9.99999974737875e-06
      type: FLOAT
    }
    attribute {
      name: "is_test"
      i: 1
      type: INT
    }
    attribute {
      name: "momentum"
      f: 1
      type: FLOAT
    }
  }
  node {
    input: "403"
    output: "404"
    op_type: "Relu"
  }
  node {
    input: "404"
    input: "157"
    output: "405"
    op_type: "Conv"
    attribute {
      name: "dilations"
      ints: 1
      ints: 1
      type: INTS
    }
    attribute {
      name: "group"
      i: 1
      type: INT
    }
    attribute {
      name: "kernel_shape"
      ints: 1
      ints: 1
      type: INTS
    }
    attribute {
      name: "pads"
      ints: 0
      ints: 0
      ints: 0
      ints: 0
      type: INTS
    }
    attribute {
      name: "strides"
      ints: 1
      ints: 1
      type: INTS
    }
  }
  node {
    input: "405"
    input: "158"
    input: "159"
    input: "160"
    input: "161"
    output: "406"
    op_type: "BatchNormalization"
    attribute {
      name: "consumed_inputs"
      ints: 0
      ints: 0
      ints: 0
      ints: 1
      ints: 1
      type: INTS
    }
    attribute {
      name: "epsilon"
      f: 9.99999974737875e-06
      type: FLOAT
    }
    attribute {
      name: "is_test"
      i: 1
      type: INT
    }
    attribute {
      name: "momentum"
      f: 1
      type: FLOAT
    }
  }
  node {
    input: "398"
    input: "163"
    output: "407"
    op_type: "Conv"
    attribute {
      name: "dilations"
      ints: 1
      ints: 1
      type: INTS
    }
    attribute {
      name: "group"
      i: 1
      type: INT
    }
    attribute {
      name: "kernel_shape"
      ints: 1
      ints: 1
      type: INTS
    }
    attribute {
      name: "pads"
      ints: 0
      ints: 0
      ints: 0
      ints: 0
      type: INTS
    }
    attribute {
      name: "strides"
      ints: 2
      ints: 2
      type: INTS
    }
  }
  node {
    input: "407"
    input: "164"
    input: "165"
    input: "166"
    input: "167"
    output: "408"
    op_type: "BatchNormalization"
    attribute {
      name: "consumed_inputs"
      ints: 0
      ints: 0
      ints: 0
      ints: 1
      ints: 1
      type: INTS
    }
    attribute {
      name: "epsilon"
      f: 9.99999974737875e-06
      type: FLOAT
    }
    attribute {
      name: "is_test"
      i: 1
      type: INT
    }
    attribute {
      name: "momentum"
      f: 1
      type: FLOAT
    }
  }
  node {
    input: "406"
    input: "408"
    output: "409"
    op_type: "Add"
  }
  node {
    input: "409"
    output: "410"
    op_type: "Relu"
  }
  node {
    input: "410"
    input: "169"
    output: "411"
    op_type: "Conv"
    attribute {
      name: "dilations"
      ints: 1
      ints: 1
      type: INTS
    }
    attribute {
      name: "group"
      i: 1
      type: INT
    }
    attribute {
      name: "kernel_shape"
      ints: 1
      ints: 1
      type: INTS
    }
    attribute {
      name: "pads"
      ints: 0
      ints: 0
      ints: 0
      ints: 0
      type: INTS
    }
    attribute {
      name: "strides"
      ints: 1
      ints: 1
      type: INTS
    }
  }
  node {
    input: "411"
    input: "170"
    input: "171"
    input: "172"
    input: "173"
    output: "412"
    op_type: "BatchNormalization"
    attribute {
      name: "consumed_inputs"
      ints: 0
      ints: 0
      ints: 0
      ints: 1
      ints: 1
      type: INTS
    }
    attribute {
      name: "epsilon"
      f: 9.99999974737875e-06
      type: FLOAT
    }
    attribute {
      name: "is_test"
      i: 1
      type: INT
    }
    attribute {
      name: "momentum"
      f: 1
      type: FLOAT
    }
  }
  node {
    input: "412"
    output: "413"
    op_type: "Relu"
  }
  node {
    input: "413"
    input: "175"
    output: "414"
    op_type: "Conv"
    attribute {
      name: "dilations"
      ints: 1
      ints: 1
      type: INTS
    }
    attribute {
      name: "group"
      i: 1
      type: INT
    }
    attribute {
      name: "kernel_shape"
      ints: 3
      ints: 3
      type: INTS
    }
    attribute {
      name: "pads"
      ints: 1
      ints: 1
      ints: 1
      ints: 1
      type: INTS
    }
    attribute {
      name: "strides"
      ints: 1
      ints: 1
      type: INTS
    }
  }
  node {
    input: "414"
    input: "176"
    input: "177"
    input: "178"
    input: "179"
    output: "415"
    op_type: "BatchNormalization"
    attribute {
      name: "consumed_inputs"
      ints: 0
      ints: 0
      ints: 0
      ints: 1
      ints: 1
      type: INTS
    }
    attribute {
      name: "epsilon"
      f: 9.99999974737875e-06
      type: FLOAT
    }
    attribute {
      name: "is_test"
      i: 1
      type: INT
    }
    attribute {
      name: "momentum"
      f: 1
      type: FLOAT
    }
  }
  node {
    input: "415"
    output: "416"
    op_type: "Relu"
  }
  node {
    input: "416"
    input: "181"
    output: "417"
    op_type: "Conv"
    attribute {
      name: "dilations"
      ints: 1
      ints: 1
      type: INTS
    }
    attribute {
      name: "group"
      i: 1
      type: INT
    }
    attribute {
      name: "kernel_shape"
      ints: 1
      ints: 1
      type: INTS
    }
    attribute {
      name: "pads"
      ints: 0
      ints: 0
      ints: 0
      ints: 0
      type: INTS
    }
    attribute {
      name: "strides"
      ints: 1
      ints: 1
      type: INTS
    }
  }
  node {
    input: "417"
    input: "182"
    input: "183"
    input: "184"
    input: "185"
    output: "418"
    op_type: "BatchNormalization"
    attribute {
      name: "consumed_inputs"
      ints: 0
      ints: 0
      ints: 0
      ints: 1
      ints: 1
      type: INTS
    }
    attribute {
      name: "epsilon"
      f: 9.99999974737875e-06
      type: FLOAT
    }
    attribute {
      name: "is_test"
      i: 1
      type: INT
    }
    attribute {
      name: "momentum"
      f: 1
      type: FLOAT
    }
  }
  node {
    input: "418"
    input: "410"
    output: "419"
    op_type: "Add"
  }
  node {
    input: "419"
    output: "420"
    op_type: "Relu"
  }
  node {
    input: "420"
    input: "187"
    output: "421"
    op_type: "Conv"
    attribute {
      name: "dilations"
      ints: 1
      ints: 1
      type: INTS
    }
    attribute {
      name: "group"
      i: 1
      type: INT
    }
    attribute {
      name: "kernel_shape"
      ints: 1
      ints: 1
      type: INTS
    }
    attribute {
      name: "pads"
      ints: 0
      ints: 0
      ints: 0
      ints: 0
      type: INTS
    }
    attribute {
      name: "strides"
      ints: 1
      ints: 1
      type: INTS
    }
  }
  node {
    input: "421"
    input: "188"
    input: "189"
    input: "190"
    input: "191"
    output: "422"
    op_type: "BatchNormalization"
    attribute {
      name: "consumed_inputs"
      ints: 0
      ints: 0
      ints: 0
      ints: 1
      ints: 1
      type: INTS
    }
    attribute {
      name: "epsilon"
      f: 9.99999974737875e-06
      type: FLOAT
    }
    attribute {
      name: "is_test"
      i: 1
      type: INT
    }
    attribute {
      name: "momentum"
      f: 1
      type: FLOAT
    }
  }
  node {
    input: "422"
    output: "423"
    op_type: "Relu"
  }
  node {
    input: "423"
    input: "193"
    output: "424"
    op_type: "Conv"
    attribute {
      name: "dilations"
      ints: 1
      ints: 1
      type: INTS
    }
    attribute {
      name: "group"
      i: 1
      type: INT
    }
    attribute {
      name: "kernel_shape"
      ints: 3
      ints: 3
      type: INTS
    }
    attribute {
      name: "pads"
      ints: 1
      ints: 1
      ints: 1
      ints: 1
      type: INTS
    }
    attribute {
      name: "strides"
      ints: 1
      ints: 1
      type: INTS
    }
  }
  node {
    input: "424"
    input: "194"
    input: "195"
    input: "196"
    input: "197"
    output: "425"
    op_type: "BatchNormalization"
    attribute {
      name: "consumed_inputs"
      ints: 0
      ints: 0
      ints: 0
      ints: 1
      ints: 1
      type: INTS
    }
    attribute {
      name: "epsilon"
      f: 9.99999974737875e-06
      type: FLOAT
    }
    attribute {
      name: "is_test"
      i: 1
      type: INT
    }
    attribute {
      name: "momentum"
      f: 1
      type: FLOAT
    }
  }
  node {
    input: "425"
    output: "426"
    op_type: "Relu"
  }
  node {
    input: "426"
    input: "199"
    output: "427"
    op_type: "Conv"
    attribute {
      name: "dilations"
      ints: 1
      ints: 1
      type: INTS
    }
    attribute {
      name: "group"
      i: 1
      type: INT
    }
    attribute {
      name: "kernel_shape"
      ints: 1
      ints: 1
      type: INTS
    }
    attribute {
      name: "pads"
      ints: 0
      ints: 0
      ints: 0
      ints: 0
      type: INTS
    }
    attribute {
      name: "strides"
      ints: 1
      ints: 1
      type: INTS
    }
  }
  node {
    input: "427"
    input: "200"
    input: "201"
    input: "202"
    input: "203"
    output: "428"
    op_type: "BatchNormalization"
    attribute {
      name: "consumed_inputs"
      ints: 0
      ints: 0
      ints: 0
      ints: 1
      ints: 1
      type: INTS
    }
    attribute {
      name: "epsilon"
      f: 9.99999974737875e-06
      type: FLOAT
    }
    attribute {
      name: "is_test"
      i: 1
      type: INT
    }
    attribute {
      name: "momentum"
      f: 1
      type: FLOAT
    }
  }
  node {
    input: "428"
    input: "420"
    output: "429"
    op_type: "Add"
  }
  node {
    input: "429"
    output: "430"
    op_type: "Relu"
  }
  node {
    input: "430"
    input: "205"
    output: "431"
    op_type: "Conv"
    attribute {
      name: "dilations"
      ints: 1
      ints: 1
      type: INTS
    }
    attribute {
      name: "group"
      i: 1
      type: INT
    }
    attribute {
      name: "kernel_shape"
      ints: 1
      ints: 1
      type: INTS
    }
    attribute {
      name: "pads"
      ints: 0
      ints: 0
      ints: 0
      ints: 0
      type: INTS
    }
    attribute {
      name: "strides"
      ints: 1
      ints: 1
      type: INTS
    }
  }
  node {
    input: "431"
    input: "206"
    input: "207"
    input: "208"
    input: "209"
    output: "432"
    op_type: "BatchNormalization"
    attribute {
      name: "consumed_inputs"
      ints: 0
      ints: 0
      ints: 0
      ints: 1
      ints: 1
      type: INTS
    }
    attribute {
      name: "epsilon"
      f: 9.99999974737875e-06
      type: FLOAT
    }
    attribute {
      name: "is_test"
      i: 1
      type: INT
    }
    attribute {
      name: "momentum"
      f: 1
      type: FLOAT
    }
  }
  node {
    input: "432"
    output: "433"
    op_type: "Relu"
  }
  node {
    input: "433"
    input: "211"
    output: "434"
    op_type: "Conv"
    attribute {
      name: "dilations"
      ints: 1
      ints: 1
      type: INTS
    }
    attribute {
      name: "group"
      i: 1
      type: INT
    }
    attribute {
      name: "kernel_shape"
      ints: 3
      ints: 3
      type: INTS
    }
    attribute {
      name: "pads"
      ints: 1
      ints: 1
      ints: 1
      ints: 1
      type: INTS
    }
    attribute {
      name: "strides"
      ints: 1
      ints: 1
      type: INTS
    }
  }
  node {
    input: "434"
    input: "212"
    input: "213"
    input: "214"
    input: "215"
    output: "435"
    op_type: "BatchNormalization"
    attribute {
      name: "consumed_inputs"
      ints: 0
      ints: 0
      ints: 0
      ints: 1
      ints: 1
      type: INTS
    }
    attribute {
      name: "epsilon"
      f: 9.99999974737875e-06
      type: FLOAT
    }
    attribute {
      name: "is_test"
      i: 1
      type: INT
    }
    attribute {
      name: "momentum"
      f: 1
      type: FLOAT
    }
  }
  node {
    input: "435"
    output: "436"
    op_type: "Relu"
  }
  node {
    input: "436"
    input: "217"
    output: "437"
    op_type: "Conv"
    attribute {
      name: "dilations"
      ints: 1
      ints: 1
      type: INTS
    }
    attribute {
      name: "group"
      i: 1
      type: INT
    }
    attribute {
      name: "kernel_shape"
      ints: 1
      ints: 1
      type: INTS
    }
    attribute {
      name: "pads"
      ints: 0
      ints: 0
      ints: 0
      ints: 0
      type: INTS
    }
    attribute {
      name: "strides"
      ints: 1
      ints: 1
      type: INTS
    }
  }
  node {
    input: "437"
    input: "218"
    input: "219"
    input: "220"
    input: "221"
    output: "438"
    op_type: "BatchNormalization"
    attribute {
      name: "consumed_inputs"
      ints: 0
      ints: 0
      ints: 0
      ints: 1
      ints: 1
      type: INTS
    }
    attribute {
      name: "epsilon"
      f: 9.99999974737875e-06
      type: FLOAT
    }
    attribute {
      name: "is_test"
      i: 1
      type: INT
    }
    attribute {
      name: "momentum"
      f: 1
      type: FLOAT
    }
  }
  node {
    input: "438"
    input: "430"
    output: "439"
    op_type: "Add"
  }
  node {
    input: "439"
    output: "440"
    op_type: "Relu"
  }
  node {
    input: "440"
    input: "223"
    output: "441"
    op_type: "Conv"
    attribute {
      name: "dilations"
      ints: 1
      ints: 1
      type: INTS
    }
    attribute {
      name: "group"
      i: 1
      type: INT
    }
    attribute {
      name: "kernel_shape"
      ints: 1
      ints: 1
      type: INTS
    }
    attribute {
      name: "pads"
      ints: 0
      ints: 0
      ints: 0
      ints: 0
      type: INTS
    }
    attribute {
      name: "strides"
      ints: 1
      ints: 1
      type: INTS
    }
  }
  node {
    input: "441"
    input: "224"
    input: "225"
    input: "226"
    input: "227"
    output: "442"
    op_type: "BatchNormalization"
    attribute {
      name: "consumed_inputs"
      ints: 0
      ints: 0
      ints: 0
      ints: 1
      ints: 1
      type: INTS
    }
    attribute {
      name: "epsilon"
      f: 9.99999974737875e-06
      type: FLOAT
    }
    attribute {
      name: "is_test"
      i: 1
      type: INT
    }
    attribute {
      name: "momentum"
      f: 1
      type: FLOAT
    }
  }
  node {
    input: "442"
    output: "443"
    op_type: "Relu"
  }
  node {
    input: "443"
    input: "229"
    output: "444"
    op_type: "Conv"
    attribute {
      name: "dilations"
      ints: 1
      ints: 1
      type: INTS
    }
    attribute {
      name: "group"
      i: 1
      type: INT
    }
    attribute {
      name: "kernel_shape"
      ints: 3
      ints: 3
      type: INTS
    }
    attribute {
      name: "pads"
      ints: 1
      ints: 1
      ints: 1
      ints: 1
      type: INTS
    }
    attribute {
      name: "strides"
      ints: 1
      ints: 1
      type: INTS
    }
  }
  node {
    input: "444"
    input: "230"
    input: "231"
    input: "232"
    input: "233"
    output: "445"
    op_type: "BatchNormalization"
    attribute {
      name: "consumed_inputs"
      ints: 0
      ints: 0
      ints: 0
      ints: 1
      ints: 1
      type: INTS
    }
    attribute {
      name: "epsilon"
      f: 9.99999974737875e-06
      type: FLOAT
    }
    attribute {
      name: "is_test"
      i: 1
      type: INT
    }
    attribute {
      name: "momentum"
      f: 1
      type: FLOAT
    }
  }
  node {
    input: "445"
    output: "446"
    op_type: "Relu"
  }
  node {
    input: "446"
    input: "235"
    output: "447"
    op_type: "Conv"
    attribute {
      name: "dilations"
      ints: 1
      ints: 1
      type: INTS
    }
    attribute {
      name: "group"
      i: 1
      type: INT
    }
    attribute {
      name: "kernel_shape"
      ints: 1
      ints: 1
      type: INTS
    }
    attribute {
      name: "pads"
      ints: 0
      ints: 0
      ints: 0
      ints: 0
      type: INTS
    }
    attribute {
      name: "strides"
      ints: 1
      ints: 1
      type: INTS
    }
  }
  node {
    input: "447"
    input: "236"
    input: "237"
    input: "238"
    input: "239"
    output: "448"
    op_type: "BatchNormalization"
    attribute {
      name: "consumed_inputs"
      ints: 0
      ints: 0
      ints: 0
      ints: 1
      ints: 1
      type: INTS
    }
    attribute {
      name: "epsilon"
      f: 9.99999974737875e-06
      type: FLOAT
    }
    attribute {
      name: "is_test"
      i: 1
      type: INT
    }
    attribute {
      name: "momentum"
      f: 1
      type: FLOAT
    }
  }
  node {
    input: "448"
    input: "440"
    output: "449"
    op_type: "Add"
  }
  node {
    input: "449"
    output: "450"
    op_type: "Relu"
  }
  node {
    input: "450"
    input: "241"
    output: "451"
    op_type: "Conv"
    attribute {
      name: "dilations"
      ints: 1
      ints: 1
      type: INTS
    }
    attribute {
      name: "group"
      i: 1
      type: INT
    }
    attribute {
      name: "kernel_shape"
      ints: 1
      ints: 1
      type: INTS
    }
    attribute {
      name: "pads"
      ints: 0
      ints: 0
      ints: 0
      ints: 0
      type: INTS
    }
    attribute {
      name: "strides"
      ints: 1
      ints: 1
      type: INTS
    }
  }
  node {
    input: "451"
    input: "242"
    input: "243"
    input: "244"
    input: "245"
    output: "452"
    op_type: "BatchNormalization"
    attribute {
      name: "consumed_inputs"
      ints: 0
      ints: 0
      ints: 0
      ints: 1
      ints: 1
      type: INTS
    }
    attribute {
      name: "epsilon"
      f: 9.99999974737875e-06
      type: FLOAT
    }
    attribute {
      name: "is_test"
      i: 1
      type: INT
    }
    attribute {
      name: "momentum"
      f: 1
      type: FLOAT
    }
  }
  node {
    input: "452"
    output: "453"
    op_type: "Relu"
  }
  node {
    input: "453"
    input: "247"
    output: "454"
    op_type: "Conv"
    attribute {
      name: "dilations"
      ints: 1
      ints: 1
      type: INTS
    }
    attribute {
      name: "group"
      i: 1
      type: INT
    }
    attribute {
      name: "kernel_shape"
      ints: 3
      ints: 3
      type: INTS
    }
    attribute {
      name: "pads"
      ints: 1
      ints: 1
      ints: 1
      ints: 1
      type: INTS
    }
    attribute {
      name: "strides"
      ints: 1
      ints: 1
      type: INTS
    }
  }
  node {
    input: "454"
    input: "248"
    input: "249"
    input: "250"
    input: "251"
    output: "455"
    op_type: "BatchNormalization"
    attribute {
      name: "consumed_inputs"
      ints: 0
      ints: 0
      ints: 0
      ints: 1
      ints: 1
      type: INTS
    }
    attribute {
      name: "epsilon"
      f: 9.99999974737875e-06
      type: FLOAT
    }
    attribute {
      name: "is_test"
      i: 1
      type: INT
    }
    attribute {
      name: "momentum"
      f: 1
      type: FLOAT
    }
  }
  node {
    input: "455"
    output: "456"
    op_type: "Relu"
  }
  node {
    input: "456"
    input: "253"
    output: "457"
    op_type: "Conv"
    attribute {
      name: "dilations"
      ints: 1
      ints: 1
      type: INTS
    }
    attribute {
      name: "group"
      i: 1
      type: INT
    }
    attribute {
      name: "kernel_shape"
      ints: 1
      ints: 1
      type: INTS
    }
    attribute {
      name: "pads"
      ints: 0
      ints: 0
      ints: 0
      ints: 0
      type: INTS
    }
    attribute {
      name: "strides"
      ints: 1
      ints: 1
      type: INTS
    }
  }
  node {
    input: "457"
    input: "254"
    input: "255"
    input: "256"
    input: "257"
    output: "458"
    op_type: "BatchNormalization"
    attribute {
      name: "consumed_inputs"
      ints: 0
      ints: 0
      ints: 0
      ints: 1
      ints: 1
      type: INTS
    }
    attribute {
      name: "epsilon"
      f: 9.99999974737875e-06
      type: FLOAT
    }
    attribute {
      name: "is_test"
      i: 1
      type: INT
    }
    attribute {
      name: "momentum"
      f: 1
      type: FLOAT
    }
  }
  node {
    input: "458"
    input: "450"
    output: "459"
    op_type: "Add"
  }
  node {
    input: "459"
    output: "460"
    op_type: "Relu"
  }
  node {
    input: "460"
    input: "259"
    output: "461"
    op_type: "Conv"
    attribute {
      name: "dilations"
      ints: 1
      ints: 1
      type: INTS
    }
    attribute {
      name: "group"
      i: 1
      type: INT
    }
    attribute {
      name: "kernel_shape"
      ints: 1
      ints: 1
      type: INTS
    }
    attribute {
      name: "pads"
      ints: 0
      ints: 0
      ints: 0
      ints: 0
      type: INTS
    }
    attribute {
      name: "strides"
      ints: 1
      ints: 1
      type: INTS
    }
  }
  node {
    input: "461"
    input: "260"
    input: "261"
    input: "262"
    input: "263"
    output: "462"
    op_type: "BatchNormalization"
    attribute {
      name: "consumed_inputs"
      ints: 0
      ints: 0
      ints: 0
      ints: 1
      ints: 1
      type: INTS
    }
    attribute {
      name: "epsilon"
      f: 9.99999974737875e-06
      type: FLOAT
    }
    attribute {
      name: "is_test"
      i: 1
      type: INT
    }
    attribute {
      name: "momentum"
      f: 1
      type: FLOAT
    }
  }
  node {
    input: "462"
    output: "463"
    op_type: "Relu"
  }
  node {
    input: "463"
    input: "265"
    output: "464"
    op_type: "Conv"
    attribute {
      name: "dilations"
      ints: 1
      ints: 1
      type: INTS
    }
    attribute {
      name: "group"
      i: 1
      type: INT
    }
    attribute {
      name: "kernel_shape"
      ints: 3
      ints: 3
      type: INTS
    }
    attribute {
      name: "pads"
      ints: 1
      ints: 1
      ints: 1
      ints: 1
      type: INTS
    }
    attribute {
      name: "strides"
      ints: 2
      ints: 2
      type: INTS
    }
  }
  node {
    input: "464"
    input: "266"
    input: "267"
    input: "268"
    input: "269"
    output: "465"
    op_type: "BatchNormalization"
    attribute {
      name: "consumed_inputs"
      ints: 0
      ints: 0
      ints: 0
      ints: 1
      ints: 1
      type: INTS
    }
    attribute {
      name: "epsilon"
      f: 9.99999974737875e-06
      type: FLOAT
    }
    attribute {
      name: "is_test"
      i: 1
      type: INT
    }
    attribute {
      name: "momentum"
      f: 1
      type: FLOAT
    }
  }
  node {
    input: "465"
    output: "466"
    op_type: "Relu"
  }
  node {
    input: "466"
    input: "271"
    output: "467"
    op_type: "Conv"
    attribute {
      name: "dilations"
      ints: 1
      ints: 1
      type: INTS
    }
    attribute {
      name: "group"
      i: 1
      type: INT
    }
    attribute {
      name: "kernel_shape"
      ints: 1
      ints: 1
      type: INTS
    }
    attribute {
      name: "pads"
      ints: 0
      ints: 0
      ints: 0
      ints: 0
      type: INTS
    }
    attribute {
      name: "strides"
      ints: 1
      ints: 1
      type: INTS
    }
  }
  node {
    input: "467"
    input: "272"
    input: "273"
    input: "274"
    input: "275"
    output: "468"
    op_type: "BatchNormalization"
    attribute {
      name: "consumed_inputs"
      ints: 0
      ints: 0
      ints: 0
      ints: 1
      ints: 1
      type: INTS
    }
    attribute {
      name: "epsilon"
      f: 9.99999974737875e-06
      type: FLOAT
    }
    attribute {
      name: "is_test"
      i: 1
      type: INT
    }
    attribute {
      name: "momentum"
      f: 1
      type: FLOAT
    }
  }
  node {
    input: "460"
    input: "277"
    output: "469"
    op_type: "Conv"
    attribute {
      name: "dilations"
      ints: 1
      ints: 1
      type: INTS
    }
    attribute {
      name: "group"
      i: 1
      type: INT
    }
    attribute {
      name: "kernel_shape"
      ints: 1
      ints: 1
      type: INTS
    }
    attribute {
      name: "pads"
      ints: 0
      ints: 0
      ints: 0
      ints: 0
      type: INTS
    }
    attribute {
      name: "strides"
      ints: 2
      ints: 2
      type: INTS
    }
  }
  node {
    input: "469"
    input: "278"
    input: "279"
    input: "280"
    input: "281"
    output: "470"
    op_type: "BatchNormalization"
    attribute {
      name: "consumed_inputs"
      ints: 0
      ints: 0
      ints: 0
      ints: 1
      ints: 1
      type: INTS
    }
    attribute {
      name: "epsilon"
      f: 9.99999974737875e-06
      type: FLOAT
    }
    attribute {
      name: "is_test"
      i: 1
      type: INT
    }
    attribute {
      name: "momentum"
      f: 1
      type: FLOAT
    }
  }
  node {
    input: "468"
    input: "470"
    output: "471"
    op_type: "Add"
  }
  node {
    input: "471"
    output: "472"
    op_type: "Relu"
  }
  node {
    input: "472"
    input: "283"
    output: "473"
    op_type: "Conv"
    attribute {
      name: "dilations"
      ints: 1
      ints: 1
      type: INTS
    }
    attribute {
      name: "group"
      i: 1
      type: INT
    }
    attribute {
      name: "kernel_shape"
      ints: 1
      ints: 1
      type: INTS
    }
    attribute {
      name: "pads"
      ints: 0
      ints: 0
      ints: 0
      ints: 0
      type: INTS
    }
    attribute {
      name: "strides"
      ints: 1
      ints: 1
      type: INTS
    }
  }
  node {
    input: "473"
    input: "284"
    input: "285"
    input: "286"
    input: "287"
    output: "474"
    op_type: "BatchNormalization"
    attribute {
      name: "consumed_inputs"
      ints: 0
      ints: 0
      ints: 0
      ints: 1
      ints: 1
      type: INTS
    }
    attribute {
      name: "epsilon"
      f: 9.99999974737875e-06
      type: FLOAT
    }
    attribute {
      name: "is_test"
      i: 1
      type: INT
    }
    attribute {
      name: "momentum"
      f: 1
      type: FLOAT
    }
  }
  node {
    input: "474"
    output: "475"
    op_type: "Relu"
  }
  node {
    input: "475"
    input: "289"
    output: "476"
    op_type: "Conv"
    attribute {
      name: "dilations"
      ints: 1
      ints: 1
      type: INTS
    }
    attribute {
      name: "group"
      i: 1
      type: INT
    }
    attribute {
      name: "kernel_shape"
      ints: 3
      ints: 3
      type: INTS
    }
    attribute {
      name: "pads"
      ints: 1
      ints: 1
      ints: 1
      ints: 1
      type: INTS
    }
    attribute {
      name: "strides"
      ints: 1
      ints: 1
      type: INTS
    }
  }
  node {
    input: "476"
    input: "290"
    input: "291"
    input: "292"
    input: "293"
    output: "477"
    op_type: "BatchNormalization"
    attribute {
      name: "consumed_inputs"
      ints: 0
      ints: 0
      ints: 0
      ints: 1
      ints: 1
      type: INTS
    }
    attribute {
      name: "epsilon"
      f: 9.99999974737875e-06
      type: FLOAT
    }
    attribute {
      name: "is_test"
      i: 1
      type: INT
    }
    attribute {
      name: "momentum"
      f: 1
      type: FLOAT
    }
  }
  node {
    input: "477"
    output: "478"
    op_type: "Relu"
  }
  node {
    input: "478"
    input: "295"
    output: "479"
    op_type: "Conv"
    attribute {
      name: "dilations"
      ints: 1
      ints: 1
      type: INTS
    }
    attribute {
      name: "group"
      i: 1
      type: INT
    }
    attribute {
      name: "kernel_shape"
      ints: 1
      ints: 1
      type: INTS
    }
    attribute {
      name: "pads"
      ints: 0
      ints: 0
      ints: 0
      ints: 0
      type: INTS
    }
    attribute {
      name: "strides"
      ints: 1
      ints: 1
      type: INTS
    }
  }
  node {
    input: "479"
    input: "296"
    input: "297"
    input: "298"
    input: "299"
    output: "480"
    op_type: "BatchNormalization"
    attribute {
      name: "consumed_inputs"
      ints: 0
      ints: 0
      ints: 0
      ints: 1
      ints: 1
      type: INTS
    }
    attribute {
      name: "epsilon"
      f: 9.99999974737875e-06
      type: FLOAT
    }
    attribute {
      name: "is_test"
      i: 1
      type: INT
    }
    attribute {
      name: "momentum"
      f: 1
      type: FLOAT
    }
  }
  node {
    input: "480"
    input: "472"
    output: "481"
    op_type: "Add"
  }
  node {
    input: "481"
    output: "482"
    op_type: "Relu"
  }
  node {
    input: "482"
    input: "301"
    output: "483"
    op_type: "Conv"
    attribute {
      name: "dilations"
      ints: 1
      ints: 1
      type: INTS
    }
    attribute {
      name: "group"
      i: 1
      type: INT
    }
    attribute {
      name: "kernel_shape"
      ints: 1
      ints: 1
      type: INTS
    }
    attribute {
      name: "pads"
      ints: 0
      ints: 0
      ints: 0
      ints: 0
      type: INTS
    }
    attribute {
      name: "strides"
      ints: 1
      ints: 1
      type: INTS
    }
  }
  node {
    input: "483"
    input: "302"
    input: "303"
    input: "304"
    input: "305"
    output: "484"
    op_type: "BatchNormalization"
    attribute {
      name: "consumed_inputs"
      ints: 0
      ints: 0
      ints: 0
      ints: 1
      ints: 1
      type: INTS
    }
    attribute {
      name: "epsilon"
      f: 9.99999974737875e-06
      type: FLOAT
    }
    attribute {
      name: "is_test"
      i: 1
      type: INT
    }
    attribute {
      name: "momentum"
      f: 1
      type: FLOAT
    }
  }
  node {
    input: "484"
    output: "485"
    op_type: "Relu"
  }
  node {
    input: "485"
    input: "307"
    output: "486"
    op_type: "Conv"
    attribute {
      name: "dilations"
      ints: 1
      ints: 1
      type: INTS
    }
    attribute {
      name: "group"
      i: 1
      type: INT
    }
    attribute {
      name: "kernel_shape"
      ints: 3
      ints: 3
      type: INTS
    }
    attribute {
      name: "pads"
      ints: 1
      ints: 1
      ints: 1
      ints: 1
      type: INTS
    }
    attribute {
      name: "strides"
      ints: 1
      ints: 1
      type: INTS
    }
  }
  node {
    input: "486"
    input: "308"
    input: "309"
    input: "310"
    input: "311"
    output: "487"
    op_type: "BatchNormalization"
    attribute {
      name: "consumed_inputs"
      ints: 0
      ints: 0
      ints: 0
      ints: 1
      ints: 1
      type: INTS
    }
    attribute {
      name: "epsilon"
      f: 9.99999974737875e-06
      type: FLOAT
    }
    attribute {
      name: "is_test"
      i: 1
      type: INT
    }
    attribute {
      name: "momentum"
      f: 1
      type: FLOAT
    }
  }
  node {
    input: "487"
    output: "488"
    op_type: "Relu"
  }
  node {
    input: "488"
    input: "313"
    output: "489"
    op_type: "Conv"
    attribute {
      name: "dilations"
      ints: 1
      ints: 1
      type: INTS
    }
    attribute {
      name: "group"
      i: 1
      type: INT
    }
    attribute {
      name: "kernel_shape"
      ints: 1
      ints: 1
      type: INTS
    }
    attribute {
      name: "pads"
      ints: 0
      ints: 0
      ints: 0
      ints: 0
      type: INTS
    }
    attribute {
      name: "strides"
      ints: 1
      ints: 1
      type: INTS
    }
  }
  node {
    input: "489"
    input: "314"
    input: "315"
    input: "316"
    input: "317"
    output: "490"
    op_type: "BatchNormalization"
    attribute {
      name: "consumed_inputs"
      ints: 0
      ints: 0
      ints: 0
      ints: 1
      ints: 1
      type: INTS
    }
    attribute {
      name: "epsilon"
      f: 9.99999974737875e-06
      type: FLOAT
    }
    attribute {
      name: "is_test"
      i: 1
      type: INT
    }
    attribute {
      name: "momentum"
      f: 1
      type: FLOAT
    }
  }
  node {
    input: "490"
    input: "482"
    output: "491"
    op_type: "Add"
  }
  node {
    input: "491"
    output: "492"
    op_type: "Relu"
  }
  node {
    input: "492"
    output: "493"
    op_type: "AveragePool"
    attribute {
      name: "kernel_shape"
      ints: 7
      ints: 7
      type: INTS
    }
    attribute {
      name: "pads"
      ints: 0
      ints: 0
      ints: 0
      ints: 0
      type: INTS
    }
    attribute {
      name: "strides"
      ints: 7
      ints: 7
      type: INTS
    }
  }
  node {
    input: "493"
    output: "494"
    op_type: "Flatten"
    attribute {
      name: "axis"
      i: 1
      type: INT
    }
  }
  node {
    input: "494"
    input: "319"
    input: "320"
    output: "495"
    op_type: "Gemm"
    attribute {
      name: "alpha"
      f: 1
      type: FLOAT
    }
    attribute {
      name: "beta"
      f: 1
      type: FLOAT
    }
    attribute {
      name: "broadcast"
      i: 1
      type: INT
    }
    attribute {
      name: "transB"
      i: 1
      type: INT
    }
  }
  name: "torch-jit-export"
  input {
    name: "0"
    type {
      tensor_type {
        elem_type: FLOAT
        shape {
          dim {
            dim_value: 2
          }
          dim {
            dim_value: 3
          }
          dim {
            dim_value: 224
          }
          dim {
            dim_value: 224
          }
        }
      }
    }
  }
  input {
    name: "1"
    type {
      tensor_type {
        elem_type: FLOAT
        shape {
          dim {
            dim_value: 64
          }
          dim {
            dim_value: 3
          }
          dim {
            dim_value: 7
          }
          dim {
            dim_value: 7
          }
        }
      }
    }
  }
  input {
    name: "2"
    type {
      tensor_type {
        elem_type: FLOAT
        shape {
          dim {
            dim_value: 64
          }
        }
      }
    }
  }
  input {
    name: "3"
    type {
      tensor_type {
        elem_type: FLOAT
        shape {
          dim {
            dim_value: 64
          }
        }
      }
    }
  }
  input {
    name: "4"
    type {
      tensor_type {
        elem_type: FLOAT
        shape {
          dim {
            dim_value: 64
          }
        }
      }
    }
  }
  input {
    name: "5"
    type {
      tensor_type {
        elem_type: FLOAT
        shape {
          dim {
            dim_value: 64
          }
        }
      }
    }
  }
  input {
    name: "6"
    type {
      tensor_type {
        elem_type: INT64
        shape {
          dim {
            dim_value: 1
          }
        }
      }
    }
  }
  input {
    name: "7"
    type {
      tensor_type {
        elem_type: FLOAT
        shape {
          dim {
            dim_value: 64
          }
          dim {
            dim_value: 64
          }
          dim {
            dim_value: 1
          }
          dim {
            dim_value: 1
          }
        }
      }
    }
  }
  input {
    name: "8"
    type {
      tensor_type {
        elem_type: FLOAT
        shape {
          dim {
            dim_value: 64
          }
        }
      }
    }
  }
  input {
    name: "9"
    type {
      tensor_type {
        elem_type: FLOAT
        shape {
          dim {
            dim_value: 64
          }
        }
      }
    }
  }
  input {
    name: "10"
    type {
      tensor_type {
        elem_type: FLOAT
        shape {
          dim {
            dim_value: 64
          }
        }
      }
    }
  }
  input {
    name: "11"
    type {
      tensor_type {
        elem_type: FLOAT
        shape {
          dim {
            dim_value: 64
          }
        }
      }
    }
  }
  input {
    name: "12"
    type {
      tensor_type {
        elem_type: INT64
        shape {
          dim {
            dim_value: 1
          }
        }
      }
    }
  }
  input {
    name: "13"
    type {
      tensor_type {
        elem_type: FLOAT
        shape {
          dim {
            dim_value: 64
          }
          dim {
            dim_value: 64
          }
          dim {
            dim_value: 3
          }
          dim {
            dim_value: 3
          }
        }
      }
    }
  }
  input {
    name: "14"
    type {
      tensor_type {
        elem_type: FLOAT
        shape {
          dim {
            dim_value: 64
          }
        }
      }
    }
  }
  input {
    name: "15"
    type {
      tensor_type {
        elem_type: FLOAT
        shape {
          dim {
            dim_value: 64
          }
        }
      }
    }
  }
  input {
    name: "16"
    type {
      tensor_type {
        elem_type: FLOAT
        shape {
          dim {
            dim_value: 64
          }
        }
      }
    }
  }
  input {
    name: "17"
    type {
      tensor_type {
        elem_type: FLOAT
        shape {
          dim {
            dim_value: 64
          }
        }
      }
    }
  }
  input {
    name: "18"
    type {
      tensor_type {
        elem_type: INT64
        shape {
          dim {
            dim_value: 1
          }
        }
      }
    }
  }
  input {
    name: "19"
    type {
      tensor_type {
        elem_type: FLOAT
        shape {
          dim {
            dim_value: 256
          }
          dim {
            dim_value: 64
          }
          dim {
            dim_value: 1
          }
          dim {
            dim_value: 1
          }
        }
      }
    }
  }
  input {
    name: "20"
    type {
      tensor_type {
        elem_type: FLOAT
        shape {
          dim {
            dim_value: 256
          }
        }
      }
    }
  }
  input {
    name: "21"
    type {
      tensor_type {
        elem_type: FLOAT
        shape {
          dim {
            dim_value: 256
          }
        }
      }
    }
  }
  input {
    name: "22"
    type {
      tensor_type {
        elem_type: FLOAT
        shape {
          dim {
            dim_value: 256
          }
        }
      }
    }
  }
  input {
    name: "23"
    type {
      tensor_type {
        elem_type: FLOAT
        shape {
          dim {
            dim_value: 256
          }
        }
      }
    }
  }
  input {
    name: "24"
    type {
      tensor_type {
        elem_type: INT64
        shape {
          dim {
            dim_value: 1
          }
        }
      }
    }
  }
  input {
    name: "25"
    type {
      tensor_type {
        elem_type: FLOAT
        shape {
          dim {
            dim_value: 256
          }
          dim {
            dim_value: 64
          }
          dim {
            dim_value: 1
          }
          dim {
            dim_value: 1
          }
        }
      }
    }
  }
  input {
    name: "26"
    type {
      tensor_type {
        elem_type: FLOAT
        shape {
          dim {
            dim_value: 256
          }
        }
      }
    }
  }
  input {
    name: "27"
    type {
      tensor_type {
        elem_type: FLOAT
        shape {
          dim {
            dim_value: 256
          }
        }
      }
    }
  }
  input {
    name: "28"
    type {
      tensor_type {
        elem_type: FLOAT
        shape {
          dim {
            dim_value: 256
          }
        }
      }
    }
  }
  input {
    name: "29"
    type {
      tensor_type {
        elem_type: FLOAT
        shape {
          dim {
            dim_value: 256
          }
        }
      }
    }
  }
  input {
    name: "30"
    type {
      tensor_type {
        elem_type: INT64
        shape {
          dim {
            dim_value: 1
          }
        }
      }
    }
  }
  input {
    name: "31"
    type {
      tensor_type {
        elem_type: FLOAT
        shape {
          dim {
            dim_value: 64
          }
          dim {
            dim_value: 256
          }
          dim {
            dim_value: 1
          }
          dim {
            dim_value: 1
          }
        }
      }
    }
  }
  input {
    name: "32"
    type {
      tensor_type {
        elem_type: FLOAT
        shape {
          dim {
            dim_value: 64
          }
        }
      }
    }
  }
  input {
    name: "33"
    type {
      tensor_type {
        elem_type: FLOAT
        shape {
          dim {
            dim_value: 64
          }
        }
      }
    }
  }
  input {
    name: "34"
    type {
      tensor_type {
        elem_type: FLOAT
        shape {
          dim {
            dim_value: 64
          }
        }
      }
    }
  }
  input {
    name: "35"
    type {
      tensor_type {
        elem_type: FLOAT
        shape {
          dim {
            dim_value: 64
          }
        }
      }
    }
  }
  input {
    name: "36"
    type {
      tensor_type {
        elem_type: INT64
        shape {
          dim {
            dim_value: 1
          }
        }
      }
    }
  }
  input {
    name: "37"
    type {
      tensor_type {
        elem_type: FLOAT
        shape {
          dim {
            dim_value: 64
          }
          dim {
            dim_value: 64
          }
          dim {
            dim_value: 3
          }
          dim {
            dim_value: 3
          }
        }
      }
    }
  }
  input {
    name: "38"
    type {
      tensor_type {
        elem_type: FLOAT
        shape {
          dim {
            dim_value: 64
          }
        }
      }
    }
  }
  input {
    name: "39"
    type {
      tensor_type {
        elem_type: FLOAT
        shape {
          dim {
            dim_value: 64
          }
        }
      }
    }
  }
  input {
    name: "40"
    type {
      tensor_type {
        elem_type: FLOAT
        shape {
          dim {
            dim_value: 64
          }
        }
      }
    }
  }
  input {
    name: "41"
    type {
      tensor_type {
        elem_type: FLOAT
        shape {
          dim {
            dim_value: 64
          }
        }
      }
    }
  }
  input {
    name: "42"
    type {
      tensor_type {
        elem_type: INT64
        shape {
          dim {
            dim_value: 1
          }
        }
      }
    }
  }
  input {
    name: "43"
    type {
      tensor_type {
        elem_type: FLOAT
        shape {
          dim {
            dim_value: 256
          }
          dim {
            dim_value: 64
          }
          dim {
            dim_value: 1
          }
          dim {
            dim_value: 1
          }
        }
      }
    }
  }
  input {
    name: "44"
    type {
      tensor_type {
        elem_type: FLOAT
        shape {
          dim {
            dim_value: 256
          }
        }
      }
    }
  }
  input {
    name: "45"
    type {
      tensor_type {
        elem_type: FLOAT
        shape {
          dim {
            dim_value: 256
          }
        }
      }
    }
  }
  input {
    name: "46"
    type {
      tensor_type {
        elem_type: FLOAT
        shape {
          dim {
            dim_value: 256
          }
        }
      }
    }
  }
  input {
    name: "47"
    type {
      tensor_type {
        elem_type: FLOAT
        shape {
          dim {
            dim_value: 256
          }
        }
      }
    }
  }
  input {
    name: "48"
    type {
      tensor_type {
        elem_type: INT64
        shape {
          dim {
            dim_value: 1
          }
        }
      }
    }
  }
  input {
    name: "49"
    type {
      tensor_type {
        elem_type: FLOAT
        shape {
          dim {
            dim_value: 64
          }
          dim {
            dim_value: 256
          }
          dim {
            dim_value: 1
          }
          dim {
            dim_value: 1
          }
        }
      }
    }
  }
  input {
    name: "50"
    type {
      tensor_type {
        elem_type: FLOAT
        shape {
          dim {
            dim_value: 64
          }
        }
      }
    }
  }
  input {
    name: "51"
    type {
      tensor_type {
        elem_type: FLOAT
        shape {
          dim {
            dim_value: 64
          }
        }
      }
    }
  }
  input {
    name: "52"
    type {
      tensor_type {
        elem_type: FLOAT
        shape {
          dim {
            dim_value: 64
          }
        }
      }
    }
  }
  input {
    name: "53"
    type {
      tensor_type {
        elem_type: FLOAT
        shape {
          dim {
            dim_value: 64
          }
        }
      }
    }
  }
  input {
    name: "54"
    type {
      tensor_type {
        elem_type: INT64
        shape {
          dim {
            dim_value: 1
          }
        }
      }
    }
  }
  input {
    name: "55"
    type {
      tensor_type {
        elem_type: FLOAT
        shape {
          dim {
            dim_value: 64
          }
          dim {
            dim_value: 64
          }
          dim {
            dim_value: 3
          }
          dim {
            dim_value: 3
          }
        }
      }
    }
  }
  input {
    name: "56"
    type {
      tensor_type {
        elem_type: FLOAT
        shape {
          dim {
            dim_value: 64
          }
        }
      }
    }
  }
  input {
    name: "57"
    type {
      tensor_type {
        elem_type: FLOAT
        shape {
          dim {
            dim_value: 64
          }
        }
      }
    }
  }
  input {
    name: "58"
    type {
      tensor_type {
        elem_type: FLOAT
        shape {
          dim {
            dim_value: 64
          }
        }
      }
    }
  }
  input {
    name: "59"
    type {
      tensor_type {
        elem_type: FLOAT
        shape {
          dim {
            dim_value: 64
          }
        }
      }
    }
  }
  input {
    name: "60"
    type {
      tensor_type {
        elem_type: INT64
        shape {
          dim {
            dim_value: 1
          }
        }
      }
    }
  }
  input {
    name: "61"
    type {
      tensor_type {
        elem_type: FLOAT
        shape {
          dim {
            dim_value: 256
          }
          dim {
            dim_value: 64
          }
          dim {
            dim_value: 1
          }
          dim {
            dim_value: 1
          }
        }
      }
    }
  }
  input {
    name: "62"
    type {
      tensor_type {
        elem_type: FLOAT
        shape {
          dim {
            dim_value: 256
          }
        }
      }
    }
  }
  input {
    name: "63"
    type {
      tensor_type {
        elem_type: FLOAT
        shape {
          dim {
            dim_value: 256
          }
        }
      }
    }
  }
  input {
    name: "64"
    type {
      tensor_type {
        elem_type: FLOAT
        shape {
          dim {
            dim_value: 256
          }
        }
      }
    }
  }
  input {
    name: "65"
    type {
      tensor_type {
        elem_type: FLOAT
        shape {
          dim {
            dim_value: 256
          }
        }
      }
    }
  }
  input {
    name: "66"
    type {
      tensor_type {
        elem_type: INT64
        shape {
          dim {
            dim_value: 1
          }
        }
      }
    }
  }
  input {
    name: "67"
    type {
      tensor_type {
        elem_type: FLOAT
        shape {
          dim {
            dim_value: 128
          }
          dim {
            dim_value: 256
          }
          dim {
            dim_value: 1
          }
          dim {
            dim_value: 1
          }
        }
      }
    }
  }
  input {
    name: "68"
    type {
      tensor_type {
        elem_type: FLOAT
        shape {
          dim {
            dim_value: 128
          }
        }
      }
    }
  }
  input {
    name: "69"
    type {
      tensor_type {
        elem_type: FLOAT
        shape {
          dim {
            dim_value: 128
          }
        }
      }
    }
  }
  input {
    name: "70"
    type {
      tensor_type {
        elem_type: FLOAT
        shape {
          dim {
            dim_value: 128
          }
        }
      }
    }
  }
  input {
    name: "71"
    type {
      tensor_type {
        elem_type: FLOAT
        shape {
          dim {
            dim_value: 128
          }
        }
      }
    }
  }
  input {
    name: "72"
    type {
      tensor_type {
        elem_type: INT64
        shape {
          dim {
            dim_value: 1
          }
        }
      }
    }
  }
  input {
    name: "73"
    type {
      tensor_type {
        elem_type: FLOAT
        shape {
          dim {
            dim_value: 128
          }
          dim {
            dim_value: 128
          }
          dim {
            dim_value: 3
          }
          dim {
            dim_value: 3
          }
        }
      }
    }
  }
  input {
    name: "74"
    type {
      tensor_type {
        elem_type: FLOAT
        shape {
          dim {
            dim_value: 128
          }
        }
      }
    }
  }
  input {
    name: "75"
    type {
      tensor_type {
        elem_type: FLOAT
        shape {
          dim {
            dim_value: 128
          }
        }
      }
    }
  }
  input {
    name: "76"
    type {
      tensor_type {
        elem_type: FLOAT
        shape {
          dim {
            dim_value: 128
          }
        }
      }
    }
  }
  input {
    name: "77"
    type {
      tensor_type {
        elem_type: FLOAT
        shape {
          dim {
            dim_value: 128
          }
        }
      }
    }
  }
  input {
    name: "78"
    type {
      tensor_type {
        elem_type: INT64
        shape {
          dim {
            dim_value: 1
          }
        }
      }
    }
  }
  input {
    name: "79"
    type {
      tensor_type {
        elem_type: FLOAT
        shape {
          dim {
            dim_value: 512
          }
          dim {
            dim_value: 128
          }
          dim {
            dim_value: 1
          }
          dim {
            dim_value: 1
          }
        }
      }
    }
  }
  input {
    name: "80"
    type {
      tensor_type {
        elem_type: FLOAT
        shape {
          dim {
            dim_value: 512
          }
        }
      }
    }
  }
  input {
    name: "81"
    type {
      tensor_type {
        elem_type: FLOAT
        shape {
          dim {
            dim_value: 512
          }
        }
      }
    }
  }
  input {
    name: "82"
    type {
      tensor_type {
        elem_type: FLOAT
        shape {
          dim {
            dim_value: 512
          }
        }
      }
    }
  }
  input {
    name: "83"
    type {
      tensor_type {
        elem_type: FLOAT
        shape {
          dim {
            dim_value: 512
          }
        }
      }
    }
  }
  input {
    name: "84"
    type {
      tensor_type {
        elem_type: INT64
        shape {
          dim {
            dim_value: 1
          }
        }
      }
    }
  }
  input {
    name: "85"
    type {
      tensor_type {
        elem_type: FLOAT
        shape {
          dim {
            dim_value: 512
          }
          dim {
            dim_value: 256
          }
          dim {
            dim_value: 1
          }
          dim {
            dim_value: 1
          }
        }
      }
    }
  }
  input {
    name: "86"
    type {
      tensor_type {
        elem_type: FLOAT
        shape {
          dim {
            dim_value: 512
          }
        }
      }
    }
  }
  input {
    name: "87"
    type {
      tensor_type {
        elem_type: FLOAT
        shape {
          dim {
            dim_value: 512
          }
        }
      }
    }
  }
  input {
    name: "88"
    type {
      tensor_type {
        elem_type: FLOAT
        shape {
          dim {
            dim_value: 512
          }
        }
      }
    }
  }
  input {
    name: "89"
    type {
      tensor_type {
        elem_type: FLOAT
        shape {
          dim {
            dim_value: 512
          }
        }
      }
    }
  }
  input {
    name: "90"
    type {
      tensor_type {
        elem_type: INT64
        shape {
          dim {
            dim_value: 1
          }
        }
      }
    }
  }
  input {
    name: "91"
    type {
      tensor_type {
        elem_type: FLOAT
        shape {
          dim {
            dim_value: 128
          }
          dim {
            dim_value: 512
          }
          dim {
            dim_value: 1
          }
          dim {
            dim_value: 1
          }
        }
      }
    }
  }
  input {
    name: "92"
    type {
      tensor_type {
        elem_type: FLOAT
        shape {
          dim {
            dim_value: 128
          }
        }
      }
    }
  }
  input {
    name: "93"
    type {
      tensor_type {
        elem_type: FLOAT
        shape {
          dim {
            dim_value: 128
          }
        }
      }
    }
  }
  input {
    name: "94"
    type {
      tensor_type {
        elem_type: FLOAT
        shape {
          dim {
            dim_value: 128
          }
        }
      }
    }
  }
  input {
    name: "95"
    type {
      tensor_type {
        elem_type: FLOAT
        shape {
          dim {
            dim_value: 128
          }
        }
      }
    }
  }
  input {
    name: "96"
    type {
      tensor_type {
        elem_type: INT64
        shape {
          dim {
            dim_value: 1
          }
        }
      }
    }
  }
  input {
    name: "97"
    type {
      tensor_type {
        elem_type: FLOAT
        shape {
          dim {
            dim_value: 128
          }
          dim {
            dim_value: 128
          }
          dim {
            dim_value: 3
          }
          dim {
            dim_value: 3
          }
        }
      }
    }
  }
  input {
    name: "98"
    type {
      tensor_type {
        elem_type: FLOAT
        shape {
          dim {
            dim_value: 128
          }
        }
      }
    }
  }
  input {
    name: "99"
    type {
      tensor_type {
        elem_type: FLOAT
        shape {
          dim {
            dim_value: 128
          }
        }
      }
    }
  }
  input {
    name: "100"
    type {
      tensor_type {
        elem_type: FLOAT
        shape {
          dim {
            dim_value: 128
          }
        }
      }
    }
  }
  input {
    name: "101"
    type {
      tensor_type {
        elem_type: FLOAT
        shape {
          dim {
            dim_value: 128
          }
        }
      }
    }
  }
  input {
    name: "102"
    type {
      tensor_type {
        elem_type: INT64
        shape {
          dim {
            dim_value: 1
          }
        }
      }
    }
  }
  input {
    name: "103"
    type {
      tensor_type {
        elem_type: FLOAT
        shape {
          dim {
            dim_value: 512
          }
          dim {
            dim_value: 128
          }
          dim {
            dim_value: 1
          }
          dim {
            dim_value: 1
          }
        }
      }
    }
  }
  input {
    name: "104"
    type {
      tensor_type {
        elem_type: FLOAT
        shape {
          dim {
            dim_value: 512
          }
        }
      }
    }
  }
  input {
    name: "105"
    type {
      tensor_type {
        elem_type: FLOAT
        shape {
          dim {
            dim_value: 512
          }
        }
      }
    }
  }
  input {
    name: "106"
    type {
      tensor_type {
        elem_type: FLOAT
        shape {
          dim {
            dim_value: 512
          }
        }
      }
    }
  }
  input {
    name: "107"
    type {
      tensor_type {
        elem_type: FLOAT
        shape {
          dim {
            dim_value: 512
          }
        }
      }
    }
  }
  input {
    name: "108"
    type {
      tensor_type {
        elem_type: INT64
        shape {
          dim {
            dim_value: 1
          }
        }
      }
    }
  }
  input {
    name: "109"
    type {
      tensor_type {
        elem_type: FLOAT
        shape {
          dim {
            dim_value: 128
          }
          dim {
            dim_value: 512
          }
          dim {
            dim_value: 1
          }
          dim {
            dim_value: 1
          }
        }
      }
    }
  }
  input {
    name: "110"
    type {
      tensor_type {
        elem_type: FLOAT
        shape {
          dim {
            dim_value: 128
          }
        }
      }
    }
  }
  input {
    name: "111"
    type {
      tensor_type {
        elem_type: FLOAT
        shape {
          dim {
            dim_value: 128
          }
        }
      }
    }
  }
  input {
    name: "112"
    type {
      tensor_type {
        elem_type: FLOAT
        shape {
          dim {
            dim_value: 128
          }
        }
      }
    }
  }
  input {
    name: "113"
    type {
      tensor_type {
        elem_type: FLOAT
        shape {
          dim {
            dim_value: 128
          }
        }
      }
    }
  }
  input {
    name: "114"
    type {
      tensor_type {
        elem_type: INT64
        shape {
          dim {
            dim_value: 1
          }
        }
      }
    }
  }
  input {
    name: "115"
    type {
      tensor_type {
        elem_type: FLOAT
        shape {
          dim {
            dim_value: 128
          }
          dim {
            dim_value: 128
          }
          dim {
            dim_value: 3
          }
          dim {
            dim_value: 3
          }
        }
      }
    }
  }
  input {
    name: "116"
    type {
      tensor_type {
        elem_type: FLOAT
        shape {
          dim {
            dim_value: 128
          }
        }
      }
    }
  }
  input {
    name: "117"
    type {
      tensor_type {
        elem_type: FLOAT
        shape {
          dim {
            dim_value: 128
          }
        }
      }
    }
  }
  input {
    name: "118"
    type {
      tensor_type {
        elem_type: FLOAT
        shape {
          dim {
            dim_value: 128
          }
        }
      }
    }
  }
  input {
    name: "119"
    type {
      tensor_type {
        elem_type: FLOAT
        shape {
          dim {
            dim_value: 128
          }
        }
      }
    }
  }
  input {
    name: "120"
    type {
      tensor_type {
        elem_type: INT64
        shape {
          dim {
            dim_value: 1
          }
        }
      }
    }
  }
  input {
    name: "121"
    type {
      tensor_type {
        elem_type: FLOAT
        shape {
          dim {
            dim_value: 512
          }
          dim {
            dim_value: 128
          }
          dim {
            dim_value: 1
          }
          dim {
            dim_value: 1
          }
        }
      }
    }
  }
  input {
    name: "122"
    type {
      tensor_type {
        elem_type: FLOAT
        shape {
          dim {
            dim_value: 512
          }
        }
      }
    }
  }
  input {
    name: "123"
    type {
      tensor_type {
        elem_type: FLOAT
        shape {
          dim {
            dim_value: 512
          }
        }
      }
    }
  }
  input {
    name: "124"
    type {
      tensor_type {
        elem_type: FLOAT
        shape {
          dim {
            dim_value: 512
          }
        }
      }
    }
  }
  input {
    name: "125"
    type {
      tensor_type {
        elem_type: FLOAT
        shape {
          dim {
            dim_value: 512
          }
        }
      }
    }
  }
  input {
    name: "126"
    type {
      tensor_type {
        elem_type: INT64
        shape {
          dim {
            dim_value: 1
          }
        }
      }
    }
  }
  input {
    name: "127"
    type {
      tensor_type {
        elem_type: FLOAT
        shape {
          dim {
            dim_value: 128
          }
          dim {
            dim_value: 512
          }
          dim {
            dim_value: 1
          }
          dim {
            dim_value: 1
          }
        }
      }
    }
  }
  input {
    name: "128"
    type {
      tensor_type {
        elem_type: FLOAT
        shape {
          dim {
            dim_value: 128
          }
        }
      }
    }
  }
  input {
    name: "129"
    type {
      tensor_type {
        elem_type: FLOAT
        shape {
          dim {
            dim_value: 128
          }
        }
      }
    }
  }
  input {
    name: "130"
    type {
      tensor_type {
        elem_type: FLOAT
        shape {
          dim {
            dim_value: 128
          }
        }
      }
    }
  }
  input {
    name: "131"
    type {
      tensor_type {
        elem_type: FLOAT
        shape {
          dim {
            dim_value: 128
          }
        }
      }
    }
  }
  input {
    name: "132"
    type {
      tensor_type {
        elem_type: INT64
        shape {
          dim {
            dim_value: 1
          }
        }
      }
    }
  }
  input {
    name: "133"
    type {
      tensor_type {
        elem_type: FLOAT
        shape {
          dim {
            dim_value: 128
          }
          dim {
            dim_value: 128
          }
          dim {
            dim_value: 3
          }
          dim {
            dim_value: 3
          }
        }
      }
    }
  }
  input {
    name: "134"
    type {
      tensor_type {
        elem_type: FLOAT
        shape {
          dim {
            dim_value: 128
          }
        }
      }
    }
  }
  input {
    name: "135"
    type {
      tensor_type {
        elem_type: FLOAT
        shape {
          dim {
            dim_value: 128
          }
        }
      }
    }
  }
  input {
    name: "136"
    type {
      tensor_type {
        elem_type: FLOAT
        shape {
          dim {
            dim_value: 128
          }
        }
      }
    }
  }
  input {
    name: "137"
    type {
      tensor_type {
        elem_type: FLOAT
        shape {
          dim {
            dim_value: 128
          }
        }
      }
    }
  }
  input {
    name: "138"
    type {
      tensor_type {
        elem_type: INT64
        shape {
          dim {
            dim_value: 1
          }
        }
      }
    }
  }
  input {
    name: "139"
    type {
      tensor_type {
        elem_type: FLOAT
        shape {
          dim {
            dim_value: 512
          }
          dim {
            dim_value: 128
          }
          dim {
            dim_value: 1
          }
          dim {
            dim_value: 1
          }
        }
      }
    }
  }
  input {
    name: "140"
    type {
      tensor_type {
        elem_type: FLOAT
        shape {
          dim {
            dim_value: 512
          }
        }
      }
    }
  }
  input {
    name: "141"
    type {
      tensor_type {
        elem_type: FLOAT
        shape {
          dim {
            dim_value: 512
          }
        }
      }
    }
  }
  input {
    name: "142"
    type {
      tensor_type {
        elem_type: FLOAT
        shape {
          dim {
            dim_value: 512
          }
        }
      }
    }
  }
  input {
    name: "143"
    type {
      tensor_type {
        elem_type: FLOAT
        shape {
          dim {
            dim_value: 512
          }
        }
      }
    }
  }
  input {
    name: "144"
    type {
      tensor_type {
        elem_type: INT64
        shape {
          dim {
            dim_value: 1
          }
        }
      }
    }
  }
  input {
    name: "145"
    type {
      tensor_type {
        elem_type: FLOAT
        shape {
          dim {
            dim_value: 256
          }
          dim {
            dim_value: 512
          }
          dim {
            dim_value: 1
          }
          dim {
            dim_value: 1
          }
        }
      }
    }
  }
  input {
    name: "146"
    type {
      tensor_type {
        elem_type: FLOAT
        shape {
          dim {
            dim_value: 256
          }
        }
      }
    }
  }
  input {
    name: "147"
    type {
      tensor_type {
        elem_type: FLOAT
        shape {
          dim {
            dim_value: 256
          }
        }
      }
    }
  }
  input {
    name: "148"
    type {
      tensor_type {
        elem_type: FLOAT
        shape {
          dim {
            dim_value: 256
          }
        }
      }
    }
  }
  input {
    name: "149"
    type {
      tensor_type {
        elem_type: FLOAT
        shape {
          dim {
            dim_value: 256
          }
        }
      }
    }
  }
  input {
    name: "150"
    type {
      tensor_type {
        elem_type: INT64
        shape {
          dim {
            dim_value: 1
          }
        }
      }
    }
  }
  input {
    name: "151"
    type {
      tensor_type {
        elem_type: FLOAT
        shape {
          dim {
            dim_value: 256
          }
          dim {
            dim_value: 256
          }
          dim {
            dim_value: 3
          }
          dim {
            dim_value: 3
          }
        }
      }
    }
  }
  input {
    name: "152"
    type {
      tensor_type {
        elem_type: FLOAT
        shape {
          dim {
            dim_value: 256
          }
        }
      }
    }
  }
  input {
    name: "153"
    type {
      tensor_type {
        elem_type: FLOAT
        shape {
          dim {
            dim_value: 256
          }
        }
      }
    }
  }
  input {
    name: "154"
    type {
      tensor_type {
        elem_type: FLOAT
        shape {
          dim {
            dim_value: 256
          }
        }
      }
    }
  }
  input {
    name: "155"
    type {
      tensor_type {
        elem_type: FLOAT
        shape {
          dim {
            dim_value: 256
          }
        }
      }
    }
  }
  input {
    name: "156"
    type {
      tensor_type {
        elem_type: INT64
        shape {
          dim {
            dim_value: 1
          }
        }
      }
    }
  }
  input {
    name: "157"
    type {
      tensor_type {
        elem_type: FLOAT
        shape {
          dim {
            dim_value: 1024
          }
          dim {
            dim_value: 256
          }
          dim {
            dim_value: 1
          }
          dim {
            dim_value: 1
          }
        }
      }
    }
  }
  input {
    name: "158"
    type {
      tensor_type {
        elem_type: FLOAT
        shape {
          dim {
            dim_value: 1024
          }
        }
      }
    }
  }
  input {
    name: "159"
    type {
      tensor_type {
        elem_type: FLOAT
        shape {
          dim {
            dim_value: 1024
          }
        }
      }
    }
  }
  input {
    name: "160"
    type {
      tensor_type {
        elem_type: FLOAT
        shape {
          dim {
            dim_value: 1024
          }
        }
      }
    }
  }
  input {
    name: "161"
    type {
      tensor_type {
        elem_type: FLOAT
        shape {
          dim {
            dim_value: 1024
          }
        }
      }
    }
  }
  input {
    name: "162"
    type {
      tensor_type {
        elem_type: INT64
        shape {
          dim {
            dim_value: 1
          }
        }
      }
    }
  }
  input {
    name: "163"
    type {
      tensor_type {
        elem_type: FLOAT
        shape {
          dim {
            dim_value: 1024
          }
          dim {
            dim_value: 512
          }
          dim {
            dim_value: 1
          }
          dim {
            dim_value: 1
          }
        }
      }
    }
  }
  input {
    name: "164"
    type {
      tensor_type {
        elem_type: FLOAT
        shape {
          dim {
            dim_value: 1024
          }
        }
      }
    }
  }
  input {
    name: "165"
    type {
      tensor_type {
        elem_type: FLOAT
        shape {
          dim {
            dim_value: 1024
          }
        }
      }
    }
  }
  input {
    name: "166"
    type {
      tensor_type {
        elem_type: FLOAT
        shape {
          dim {
            dim_value: 1024
          }
        }
      }
    }
  }
  input {
    name: "167"
    type {
      tensor_type {
        elem_type: FLOAT
        shape {
          dim {
            dim_value: 1024
          }
        }
      }
    }
  }
  input {
    name: "168"
    type {
      tensor_type {
        elem_type: INT64
        shape {
          dim {
            dim_value: 1
          }
        }
      }
    }
  }
  input {
    name: "169"
    type {
      tensor_type {
        elem_type: FLOAT
        shape {
          dim {
            dim_value: 256
          }
          dim {
            dim_value: 1024
          }
          dim {
            dim_value: 1
          }
          dim {
            dim_value: 1
          }
        }
      }
    }
  }
  input {
    name: "170"
    type {
      tensor_type {
        elem_type: FLOAT
        shape {
          dim {
            dim_value: 256
          }
        }
      }
    }
  }
  input {
    name: "171"
    type {
      tensor_type {
        elem_type: FLOAT
        shape {
          dim {
            dim_value: 256
          }
        }
      }
    }
  }
  input {
    name: "172"
    type {
      tensor_type {
        elem_type: FLOAT
        shape {
          dim {
            dim_value: 256
          }
        }
      }
    }
  }
  input {
    name: "173"
    type {
      tensor_type {
        elem_type: FLOAT
        shape {
          dim {
            dim_value: 256
          }
        }
      }
    }
  }
  input {
    name: "174"
    type {
      tensor_type {
        elem_type: INT64
        shape {
          dim {
            dim_value: 1
          }
        }
      }
    }
  }
  input {
    name: "175"
    type {
      tensor_type {
        elem_type: FLOAT
        shape {
          dim {
            dim_value: 256
          }
          dim {
            dim_value: 256
          }
          dim {
            dim_value: 3
          }
          dim {
            dim_value: 3
          }
        }
      }
    }
  }
  input {
    name: "176"
    type {
      tensor_type {
        elem_type: FLOAT
        shape {
          dim {
            dim_value: 256
          }
        }
      }
    }
  }
  input {
    name: "177"
    type {
      tensor_type {
        elem_type: FLOAT
        shape {
          dim {
            dim_value: 256
          }
        }
      }
    }
  }
  input {
    name: "178"
    type {
      tensor_type {
        elem_type: FLOAT
        shape {
          dim {
            dim_value: 256
          }
        }
      }
    }
  }
  input {
    name: "179"
    type {
      tensor_type {
        elem_type: FLOAT
        shape {
          dim {
            dim_value: 256
          }
        }
      }
    }
  }
  input {
    name: "180"
    type {
      tensor_type {
        elem_type: INT64
        shape {
          dim {
            dim_value: 1
          }
        }
      }
    }
  }
  input {
    name: "181"
    type {
      tensor_type {
        elem_type: FLOAT
        shape {
          dim {
            dim_value: 1024
          }
          dim {
            dim_value: 256
          }
          dim {
            dim_value: 1
          }
          dim {
            dim_value: 1
          }
        }
      }
    }
  }
  input {
    name: "182"
    type {
      tensor_type {
        elem_type: FLOAT
        shape {
          dim {
            dim_value: 1024
          }
        }
      }
    }
  }
  input {
    name: "183"
    type {
      tensor_type {
        elem_type: FLOAT
        shape {
          dim {
            dim_value: 1024
          }
        }
      }
    }
  }
  input {
    name: "184"
    type {
      tensor_type {
        elem_type: FLOAT
        shape {
          dim {
            dim_value: 1024
          }
        }
      }
    }
  }
  input {
    name: "185"
    type {
      tensor_type {
        elem_type: FLOAT
        shape {
          dim {
            dim_value: 1024
          }
        }
      }
    }
  }
  input {
    name: "186"
    type {
      tensor_type {
        elem_type: INT64
        shape {
          dim {
            dim_value: 1
          }
        }
      }
    }
  }
  input {
    name: "187"
    type {
      tensor_type {
        elem_type: FLOAT
        shape {
          dim {
            dim_value: 256
          }
          dim {
            dim_value: 1024
          }
          dim {
            dim_value: 1
          }
          dim {
            dim_value: 1
          }
        }
      }
    }
  }
  input {
    name: "188"
    type {
      tensor_type {
        elem_type: FLOAT
        shape {
          dim {
            dim_value: 256
          }
        }
      }
    }
  }
  input {
    name: "189"
    type {
      tensor_type {
        elem_type: FLOAT
        shape {
          dim {
            dim_value: 256
          }
        }
      }
    }
  }
  input {
    name: "190"
    type {
      tensor_type {
        elem_type: FLOAT
        shape {
          dim {
            dim_value: 256
          }
        }
      }
    }
  }
  input {
    name: "191"
    type {
      tensor_type {
        elem_type: FLOAT
        shape {
          dim {
            dim_value: 256
          }
        }
      }
    }
  }
  input {
    name: "192"
    type {
      tensor_type {
        elem_type: INT64
        shape {
          dim {
            dim_value: 1
          }
        }
      }
    }
  }
  input {
    name: "193"
    type {
      tensor_type {
        elem_type: FLOAT
        shape {
          dim {
            dim_value: 256
          }
          dim {
            dim_value: 256
          }
          dim {
            dim_value: 3
          }
          dim {
            dim_value: 3
          }
        }
      }
    }
  }
  input {
    name: "194"
    type {
      tensor_type {
        elem_type: FLOAT
        shape {
          dim {
            dim_value: 256
          }
        }
      }
    }
  }
  input {
    name: "195"
    type {
      tensor_type {
        elem_type: FLOAT
        shape {
          dim {
            dim_value: 256
          }
        }
      }
    }
  }
  input {
    name: "196"
    type {
      tensor_type {
        elem_type: FLOAT
        shape {
          dim {
            dim_value: 256
          }
        }
      }
    }
  }
  input {
    name: "197"
    type {
      tensor_type {
        elem_type: FLOAT
        shape {
          dim {
            dim_value: 256
          }
        }
      }
    }
  }
  input {
    name: "198"
    type {
      tensor_type {
        elem_type: INT64
        shape {
          dim {
            dim_value: 1
          }
        }
      }
    }
  }
  input {
    name: "199"
    type {
      tensor_type {
        elem_type: FLOAT
        shape {
          dim {
            dim_value: 1024
          }
          dim {
            dim_value: 256
          }
          dim {
            dim_value: 1
          }
          dim {
            dim_value: 1
          }
        }
      }
    }
  }
  input {
    name: "200"
    type {
      tensor_type {
        elem_type: FLOAT
        shape {
          dim {
            dim_value: 1024
          }
        }
      }
    }
  }
  input {
    name: "201"
    type {
      tensor_type {
        elem_type: FLOAT
        shape {
          dim {
            dim_value: 1024
          }
        }
      }
    }
  }
  input {
    name: "202"
    type {
      tensor_type {
        elem_type: FLOAT
        shape {
          dim {
            dim_value: 1024
          }
        }
      }
    }
  }
  input {
    name: "203"
    type {
      tensor_type {
        elem_type: FLOAT
        shape {
          dim {
            dim_value: 1024
          }
        }
      }
    }
  }
  input {
    name: "204"
    type {
      tensor_type {
        elem_type: INT64
        shape {
          dim {
            dim_value: 1
          }
        }
      }
    }
  }
  input {
    name: "205"
    type {
      tensor_type {
        elem_type: FLOAT
        shape {
          dim {
            dim_value: 256
          }
          dim {
            dim_value: 1024
          }
          dim {
            dim_value: 1
          }
          dim {
            dim_value: 1
          }
        }
      }
    }
  }
  input {
    name: "206"
    type {
      tensor_type {
        elem_type: FLOAT
        shape {
          dim {
            dim_value: 256
          }
        }
      }
    }
  }
  input {
    name: "207"
    type {
      tensor_type {
        elem_type: FLOAT
        shape {
          dim {
            dim_value: 256
          }
        }
      }
    }
  }
  input {
    name: "208"
    type {
      tensor_type {
        elem_type: FLOAT
        shape {
          dim {
            dim_value: 256
          }
        }
      }
    }
  }
  input {
    name: "209"
    type {
      tensor_type {
        elem_type: FLOAT
        shape {
          dim {
            dim_value: 256
          }
        }
      }
    }
  }
  input {
    name: "210"
    type {
      tensor_type {
        elem_type: INT64
        shape {
          dim {
            dim_value: 1
          }
        }
      }
    }
  }
  input {
    name: "211"
    type {
      tensor_type {
        elem_type: FLOAT
        shape {
          dim {
            dim_value: 256
          }
          dim {
            dim_value: 256
          }
          dim {
            dim_value: 3
          }
          dim {
            dim_value: 3
          }
        }
      }
    }
  }
  input {
    name: "212"
    type {
      tensor_type {
        elem_type: FLOAT
        shape {
          dim {
            dim_value: 256
          }
        }
      }
    }
  }
  input {
    name: "213"
    type {
      tensor_type {
        elem_type: FLOAT
        shape {
          dim {
            dim_value: 256
          }
        }
      }
    }
  }
  input {
    name: "214"
    type {
      tensor_type {
        elem_type: FLOAT
        shape {
          dim {
            dim_value: 256
          }
        }
      }
    }
  }
  input {
    name: "215"
    type {
      tensor_type {
        elem_type: FLOAT
        shape {
          dim {
            dim_value: 256
          }
        }
      }
    }
  }
  input {
    name: "216"
    type {
      tensor_type {
        elem_type: INT64
        shape {
          dim {
            dim_value: 1
          }
        }
      }
    }
  }
  input {
    name: "217"
    type {
      tensor_type {
        elem_type: FLOAT
        shape {
          dim {
            dim_value: 1024
          }
          dim {
            dim_value: 256
          }
          dim {
            dim_value: 1
          }
          dim {
            dim_value: 1
          }
        }
      }
    }
  }
  input {
    name: "218"
    type {
      tensor_type {
        elem_type: FLOAT
        shape {
          dim {
            dim_value: 1024
          }
        }
      }
    }
  }
  input {
    name: "219"
    type {
      tensor_type {
        elem_type: FLOAT
        shape {
          dim {
            dim_value: 1024
          }
        }
      }
    }
  }
  input {
    name: "220"
    type {
      tensor_type {
        elem_type: FLOAT
        shape {
          dim {
            dim_value: 1024
          }
        }
      }
    }
  }
  input {
    name: "221"
    type {
      tensor_type {
        elem_type: FLOAT
        shape {
          dim {
            dim_value: 1024
          }
        }
      }
    }
  }
  input {
    name: "222"
    type {
      tensor_type {
        elem_type: INT64
        shape {
          dim {
            dim_value: 1
          }
        }
      }
    }
  }
  input {
    name: "223"
    type {
      tensor_type {
        elem_type: FLOAT
        shape {
          dim {
            dim_value: 256
          }
          dim {
            dim_value: 1024
          }
          dim {
            dim_value: 1
          }
          dim {
            dim_value: 1
          }
        }
      }
    }
  }
  input {
    name: "224"
    type {
      tensor_type {
        elem_type: FLOAT
        shape {
          dim {
            dim_value: 256
          }
        }
      }
    }
  }
  input {
    name: "225"
    type {
      tensor_type {
        elem_type: FLOAT
        shape {
          dim {
            dim_value: 256
          }
        }
      }
    }
  }
  input {
    name: "226"
    type {
      tensor_type {
        elem_type: FLOAT
        shape {
          dim {
            dim_value: 256
          }
        }
      }
    }
  }
  input {
    name: "227"
    type {
      tensor_type {
        elem_type: FLOAT
        shape {
          dim {
            dim_value: 256
          }
        }
      }
    }
  }
  input {
    name: "228"
    type {
      tensor_type {
        elem_type: INT64
        shape {
          dim {
            dim_value: 1
          }
        }
      }
    }
  }
  input {
    name: "229"
    type {
      tensor_type {
        elem_type: FLOAT
        shape {
          dim {
            dim_value: 256
          }
          dim {
            dim_value: 256
          }
          dim {
            dim_value: 3
          }
          dim {
            dim_value: 3
          }
        }
      }
    }
  }
  input {
    name: "230"
    type {
      tensor_type {
        elem_type: FLOAT
        shape {
          dim {
            dim_value: 256
          }
        }
      }
    }
  }
  input {
    name: "231"
    type {
      tensor_type {
        elem_type: FLOAT
        shape {
          dim {
            dim_value: 256
          }
        }
      }
    }
  }
  input {
    name: "232"
    type {
      tensor_type {
        elem_type: FLOAT
        shape {
          dim {
            dim_value: 256
          }
        }
      }
    }
  }
  input {
    name: "233"
    type {
      tensor_type {
        elem_type: FLOAT
        shape {
          dim {
            dim_value: 256
          }
        }
      }
    }
  }
  input {
    name: "234"
    type {
      tensor_type {
        elem_type: INT64
        shape {
          dim {
            dim_value: 1
          }
        }
      }
    }
  }
  input {
    name: "235"
    type {
      tensor_type {
        elem_type: FLOAT
        shape {
          dim {
            dim_value: 1024
          }
          dim {
            dim_value: 256
          }
          dim {
            dim_value: 1
          }
          dim {
            dim_value: 1
          }
        }
      }
    }
  }
  input {
    name: "236"
    type {
      tensor_type {
        elem_type: FLOAT
        shape {
          dim {
            dim_value: 1024
          }
        }
      }
    }
  }
  input {
    name: "237"
    type {
      tensor_type {
        elem_type: FLOAT
        shape {
          dim {
            dim_value: 1024
          }
        }
      }
    }
  }
  input {
    name: "238"
    type {
      tensor_type {
        elem_type: FLOAT
        shape {
          dim {
            dim_value: 1024
          }
        }
      }
    }
  }
  input {
    name: "239"
    type {
      tensor_type {
        elem_type: FLOAT
        shape {
          dim {
            dim_value: 1024
          }
        }
      }
    }
  }
  input {
    name: "240"
    type {
      tensor_type {
        elem_type: INT64
        shape {
          dim {
            dim_value: 1
          }
        }
      }
    }
  }
  input {
    name: "241"
    type {
      tensor_type {
        elem_type: FLOAT
        shape {
          dim {
            dim_value: 256
          }
          dim {
            dim_value: 1024
          }
          dim {
            dim_value: 1
          }
          dim {
            dim_value: 1
          }
        }
      }
    }
  }
  input {
    name: "242"
    type {
      tensor_type {
        elem_type: FLOAT
        shape {
          dim {
            dim_value: 256
          }
        }
      }
    }
  }
  input {
    name: "243"
    type {
      tensor_type {
        elem_type: FLOAT
        shape {
          dim {
            dim_value: 256
          }
        }
      }
    }
  }
  input {
    name: "244"
    type {
      tensor_type {
        elem_type: FLOAT
        shape {
          dim {
            dim_value: 256
          }
        }
      }
    }
  }
  input {
    name: "245"
    type {
      tensor_type {
        elem_type: FLOAT
        shape {
          dim {
            dim_value: 256
          }
        }
      }
    }
  }
  input {
    name: "246"
    type {
      tensor_type {
        elem_type: INT64
        shape {
          dim {
            dim_value: 1
          }
        }
      }
    }
  }
  input {
    name: "247"
    type {
      tensor_type {
        elem_type: FLOAT
        shape {
          dim {
            dim_value: 256
          }
          dim {
            dim_value: 256
          }
          dim {
            dim_value: 3
          }
          dim {
            dim_value: 3
          }
        }
      }
    }
  }
  input {
    name: "248"
    type {
      tensor_type {
        elem_type: FLOAT
        shape {
          dim {
            dim_value: 256
          }
        }
      }
    }
  }
  input {
    name: "249"
    type {
      tensor_type {
        elem_type: FLOAT
        shape {
          dim {
            dim_value: 256
          }
        }
      }
    }
  }
  input {
    name: "250"
    type {
      tensor_type {
        elem_type: FLOAT
        shape {
          dim {
            dim_value: 256
          }
        }
      }
    }
  }
  input {
    name: "251"
    type {
      tensor_type {
        elem_type: FLOAT
        shape {
          dim {
            dim_value: 256
          }
        }
      }
    }
  }
  input {
    name: "252"
    type {
      tensor_type {
        elem_type: INT64
        shape {
          dim {
            dim_value: 1
          }
        }
      }
    }
  }
  input {
    name: "253"
    type {
      tensor_type {
        elem_type: FLOAT
        shape {
          dim {
            dim_value: 1024
          }
          dim {
            dim_value: 256
          }
          dim {
            dim_value: 1
          }
          dim {
            dim_value: 1
          }
        }
      }
    }
  }
  input {
    name: "254"
    type {
      tensor_type {
        elem_type: FLOAT
        shape {
          dim {
            dim_value: 1024
          }
        }
      }
    }
  }
  input {
    name: "255"
    type {
      tensor_type {
        elem_type: FLOAT
        shape {
          dim {
            dim_value: 1024
          }
        }
      }
    }
  }
  input {
    name: "256"
    type {
      tensor_type {
        elem_type: FLOAT
        shape {
          dim {
            dim_value: 1024
          }
        }
      }
    }
  }
  input {
    name: "257"
    type {
      tensor_type {
        elem_type: FLOAT
        shape {
          dim {
            dim_value: 1024
          }
        }
      }
    }
  }
  input {
    name: "258"
    type {
      tensor_type {
        elem_type: INT64
        shape {
          dim {
            dim_value: 1
          }
        }
      }
    }
  }
  input {
    name: "259"
    type {
      tensor_type {
        elem_type: FLOAT
        shape {
          dim {
            dim_value: 512
          }
          dim {
            dim_value: 1024
          }
          dim {
            dim_value: 1
          }
          dim {
            dim_value: 1
          }
        }
      }
    }
  }
  input {
    name: "260"
    type {
      tensor_type {
        elem_type: FLOAT
        shape {
          dim {
            dim_value: 512
          }
        }
      }
    }
  }
  input {
    name: "261"
    type {
      tensor_type {
        elem_type: FLOAT
        shape {
          dim {
            dim_value: 512
          }
        }
      }
    }
  }
  input {
    name: "262"
    type {
      tensor_type {
        elem_type: FLOAT
        shape {
          dim {
            dim_value: 512
          }
        }
      }
    }
  }
  input {
    name: "263"
    type {
      tensor_type {
        elem_type: FLOAT
        shape {
          dim {
            dim_value: 512
          }
        }
      }
    }
  }
  input {
    name: "264"
    type {
      tensor_type {
        elem_type: INT64
        shape {
          dim {
            dim_value: 1
          }
        }
      }
    }
  }
  input {
    name: "265"
    type {
      tensor_type {
        elem_type: FLOAT
        shape {
          dim {
            dim_value: 512
          }
          dim {
            dim_value: 512
          }
          dim {
            dim_value: 3
          }
          dim {
            dim_value: 3
          }
        }
      }
    }
  }
  input {
    name: "266"
    type {
      tensor_type {
        elem_type: FLOAT
        shape {
          dim {
            dim_value: 512
          }
        }
      }
    }
  }
  input {
    name: "267"
    type {
      tensor_type {
        elem_type: FLOAT
        shape {
          dim {
            dim_value: 512
          }
        }
      }
    }
  }
  input {
    name: "268"
    type {
      tensor_type {
        elem_type: FLOAT
        shape {
          dim {
            dim_value: 512
          }
        }
      }
    }
  }
  input {
    name: "269"
    type {
      tensor_type {
        elem_type: FLOAT
        shape {
          dim {
            dim_value: 512
          }
        }
      }
    }
  }
  input {
    name: "270"
    type {
      tensor_type {
        elem_type: INT64
        shape {
          dim {
            dim_value: 1
          }
        }
      }
    }
  }
  input {
    name: "271"
    type {
      tensor_type {
        elem_type: FLOAT
        shape {
          dim {
            dim_value: 2048
          }
          dim {
            dim_value: 512
          }
          dim {
            dim_value: 1
          }
          dim {
            dim_value: 1
          }
        }
      }
    }
  }
  input {
    name: "272"
    type {
      tensor_type {
        elem_type: FLOAT
        shape {
          dim {
            dim_value: 2048
          }
        }
      }
    }
  }
  input {
    name: "273"
    type {
      tensor_type {
        elem_type: FLOAT
        shape {
          dim {
            dim_value: 2048
          }
        }
      }
    }
  }
  input {
    name: "274"
    type {
      tensor_type {
        elem_type: FLOAT
        shape {
          dim {
            dim_value: 2048
          }
        }
      }
    }
  }
  input {
    name: "275"
    type {
      tensor_type {
        elem_type: FLOAT
        shape {
          dim {
            dim_value: 2048
          }
        }
      }
    }
  }
  input {
    name: "276"
    type {
      tensor_type {
        elem_type: INT64
        shape {
          dim {
            dim_value: 1
          }
        }
      }
    }
  }
  input {
    name: "277"
    type {
      tensor_type {
        elem_type: FLOAT
        shape {
          dim {
            dim_value: 2048
          }
          dim {
            dim_value: 1024
          }
          dim {
            dim_value: 1
          }
          dim {
            dim_value: 1
          }
        }
      }
    }
  }
  input {
    name: "278"
    type {
      tensor_type {
        elem_type: FLOAT
        shape {
          dim {
            dim_value: 2048
          }
        }
      }
    }
  }
  input {
    name: "279"
    type {
      tensor_type {
        elem_type: FLOAT
        shape {
          dim {
            dim_value: 2048
          }
        }
      }
    }
  }
  input {
    name: "280"
    type {
      tensor_type {
        elem_type: FLOAT
        shape {
          dim {
            dim_value: 2048
          }
        }
      }
    }
  }
  input {
    name: "281"
    type {
      tensor_type {
        elem_type: FLOAT
        shape {
          dim {
            dim_value: 2048
          }
        }
      }
    }
  }
  input {
    name: "282"
    type {
      tensor_type {
        elem_type: INT64
        shape {
          dim {
            dim_value: 1
          }
        }
      }
    }
  }
  input {
    name: "283"
    type {
      tensor_type {
        elem_type: FLOAT
        shape {
          dim {
            dim_value: 512
          }
          dim {
            dim_value: 2048
          }
          dim {
            dim_value: 1
          }
          dim {
            dim_value: 1
          }
        }
      }
    }
  }
  input {
    name: "284"
    type {
      tensor_type {
        elem_type: FLOAT
        shape {
          dim {
            dim_value: 512
          }
        }
      }
    }
  }
  input {
    name: "285"
    type {
      tensor_type {
        elem_type: FLOAT
        shape {
          dim {
            dim_value: 512
          }
        }
      }
    }
  }
  input {
    name: "286"
    type {
      tensor_type {
        elem_type: FLOAT
        shape {
          dim {
            dim_value: 512
          }
        }
      }
    }
  }
  input {
    name: "287"
    type {
      tensor_type {
        elem_type: FLOAT
        shape {
          dim {
            dim_value: 512
          }
        }
      }
    }
  }
  input {
    name: "288"
    type {
      tensor_type {
        elem_type: INT64
        shape {
          dim {
            dim_value: 1
          }
        }
      }
    }
  }
  input {
    name: "289"
    type {
      tensor_type {
        elem_type: FLOAT
        shape {
          dim {
            dim_value: 512
          }
          dim {
            dim_value: 512
          }
          dim {
            dim_value: 3
          }
          dim {
            dim_value: 3
          }
        }
      }
    }
  }
  input {
    name: "290"
    type {
      tensor_type {
        elem_type: FLOAT
        shape {
          dim {
            dim_value: 512
          }
        }
      }
    }
  }
  input {
    name: "291"
    type {
      tensor_type {
        elem_type: FLOAT
        shape {
          dim {
            dim_value: 512
          }
        }
      }
    }
  }
  input {
    name: "292"
    type {
      tensor_type {
        elem_type: FLOAT
        shape {
          dim {
            dim_value: 512
          }
        }
      }
    }
  }
  input {
    name: "293"
    type {
      tensor_type {
        elem_type: FLOAT
        shape {
          dim {
            dim_value: 512
          }
        }
      }
    }
  }
  input {
    name: "294"
    type {
      tensor_type {
        elem_type: INT64
        shape {
          dim {
            dim_value: 1
          }
        }
      }
    }
  }
  input {
    name: "295"
    type {
      tensor_type {
        elem_type: FLOAT
        shape {
          dim {
            dim_value: 2048
          }
          dim {
            dim_value: 512
          }
          dim {
            dim_value: 1
          }
          dim {
            dim_value: 1
          }
        }
      }
    }
  }
  input {
    name: "296"
    type {
      tensor_type {
        elem_type: FLOAT
        shape {
          dim {
            dim_value: 2048
          }
        }
      }
    }
  }
  input {
    name: "297"
    type {
      tensor_type {
        elem_type: FLOAT
        shape {
          dim {
            dim_value: 2048
          }
        }
      }
    }
  }
  input {
    name: "298"
    type {
      tensor_type {
        elem_type: FLOAT
        shape {
          dim {
            dim_value: 2048
          }
        }
      }
    }
  }
  input {
    name: "299"
    type {
      tensor_type {
        elem_type: FLOAT
        shape {
          dim {
            dim_value: 2048
          }
        }
      }
    }
  }
  input {
    name: "300"
    type {
      tensor_type {
        elem_type: INT64
        shape {
          dim {
            dim_value: 1
          }
        }
      }
    }
  }
  input {
    name: "301"
    type {
      tensor_type {
        elem_type: FLOAT
        shape {
          dim {
            dim_value: 512
          }
          dim {
            dim_value: 2048
          }
          dim {
            dim_value: 1
          }
          dim {
            dim_value: 1
          }
        }
      }
    }
  }
  input {
    name: "302"
    type {
      tensor_type {
        elem_type: FLOAT
        shape {
          dim {
            dim_value: 512
          }
        }
      }
    }
  }
  input {
    name: "303"
    type {
      tensor_type {
        elem_type: FLOAT
        shape {
          dim {
            dim_value: 512
          }
        }
      }
    }
  }
  input {
    name: "304"
    type {
      tensor_type {
        elem_type: FLOAT
        shape {
          dim {
            dim_value: 512
          }
        }
      }
    }
  }
  input {
    name: "305"
    type {
      tensor_type {
        elem_type: FLOAT
        shape {
          dim {
            dim_value: 512
          }
        }
      }
    }
  }
  input {
    name: "306"
    type {
      tensor_type {
        elem_type: INT64
        shape {
          dim {
            dim_value: 1
          }
        }
      }
    }
  }
  input {
    name: "307"
    type {
      tensor_type {
        elem_type: FLOAT
        shape {
          dim {
            dim_value: 512
          }
          dim {
            dim_value: 512
          }
          dim {
            dim_value: 3
          }
          dim {
            dim_value: 3
          }
        }
      }
    }
  }
  input {
    name: "308"
    type {
      tensor_type {
        elem_type: FLOAT
        shape {
          dim {
            dim_value: 512
          }
        }
      }
    }
  }
  input {
    name: "309"
    type {
      tensor_type {
        elem_type: FLOAT
        shape {
          dim {
            dim_value: 512
          }
        }
      }
    }
  }
  input {
    name: "310"
    type {
      tensor_type {
        elem_type: FLOAT
        shape {
          dim {
            dim_value: 512
          }
        }
      }
    }
  }
  input {
    name: "311"
    type {
      tensor_type {
        elem_type: FLOAT
        shape {
          dim {
            dim_value: 512
          }
        }
      }
    }
  }
  input {
    name: "312"
    type {
      tensor_type {
        elem_type: INT64
        shape {
          dim {
            dim_value: 1
          }
        }
      }
    }
  }
  input {
    name: "313"
    type {
      tensor_type {
        elem_type: FLOAT
        shape {
          dim {
            dim_value: 2048
          }
          dim {
            dim_value: 512
          }
          dim {
            dim_value: 1
          }
          dim {
            dim_value: 1
          }
        }
      }
    }
  }
  input {
    name: "314"
    type {
      tensor_type {
        elem_type: FLOAT
        shape {
          dim {
            dim_value: 2048
          }
        }
      }
    }
  }
  input {
    name: "315"
    type {
      tensor_type {
        elem_type: FLOAT
        shape {
          dim {
            dim_value: 2048
          }
        }
      }
    }
  }
  input {
    name: "316"
    type {
      tensor_type {
        elem_type: FLOAT
        shape {
          dim {
            dim_value: 2048
          }
        }
      }
    }
  }
  input {
    name: "317"
    type {
      tensor_type {
        elem_type: FLOAT
        shape {
          dim {
            dim_value: 2048
          }
        }
      }
    }
  }
  input {
    name: "318"
    type {
      tensor_type {
        elem_type: INT64
        shape {
          dim {
            dim_value: 1
          }
        }
      }
    }
  }
  input {
    name: "319"
    type {
      tensor_type {
        elem_type: FLOAT
        shape {
          dim {
            dim_value: 1000
          }
          dim {
            dim_value: 2048
          }
        }
      }
    }
  }
  input {
    name: "320"
    type {
      tensor_type {
        elem_type: FLOAT
        shape {
          dim {
            dim_value: 1000
          }
        }
      }
    }
  }
  output {
    name: "495"
    type {
      tensor_type {
        elem_type: FLOAT
        shape {
          dim {
            dim_value: 2
          }
          dim {
            dim_value: 1000
          }
        }
      }
    }
  }
}
opset_import {
  version: 5
}
